…
I0203 10:46:01.980012 11636 net.cpp:275] The NetState phase (0) differed from the phase (1) specified by a rule in layer data
I0203 10:46:01.980067 11636 net.cpp:275] The NetState phase (0) differed from the phase (1) specified by a rule in layer accuracy-top1
I0203 10:46:01.980087 11636 net.cpp:275] The NetState phase (0) differed from the phase (1) specified by a rule in layer accuracy-top5
I0203 10:46:01.980118 11636 net.cpp:39] Initializing net from parameters: 
name: "BUS_RIO"
layers {
  top: "data"
  top: "label"
  name: "data"
  type: HDF5_DATA
  hdf5_data_param {
    source: "/work/rfn216/bus_rio/hdf5_small/train.h5.txt"
    batch_size: 50
  }
  include {
    phase: TRAIN
  }
}
layers {
  bottom: "data"
  top: "conv1"
  name: "conv1"
  type: CONVOLUTION
  blobs_lr: 1
  blobs_lr: 2
  weight_decay: 1
  weight_decay: 0
  convolution_param {
    num_output: 64
    weight_filler {
      type: "gaussian"
      std: 0.01
    }
    bias_filler {
      type: "constant"
      value: 0
    }
    kernel_h: 1
    kernel_w: 3
  }
}
layers {
  bottom: "conv1"
  top: "conv1"
  name: "relu1"
  type: RELU
}
layers {
  bottom: "conv1"
  top: "pool1"
  name: "pool1"
  type: POOLING
  pooling_param {
    pool: MAX
    kernel_h: 1
    kernel_w: 2
    stride_h: 1
    stride_w: 2
  }
}
layers {
  bottom: "pool1"
  top: "conv2"
  name: "conv2"
  type: CONVOLUTION
  blobs_lr: 1
  blobs_lr: 2
  weight_decay: 1
  weight_decay: 0
  convolution_param {
    num_output: 128
    weight_filler {
      type: "gaussian"
      std: 0.01
    }
    bias_filler {
      type: "constant"
      value: 0
    }
    kernel_h: 1
    kernel_w: 3
  }
}
layers {
  bottom: "conv2"
  top: "conv2"
  name: "relu2"
  type: RELU
}
layers {
  bottom: "conv2"
  top: "pool2"
  name: "pool2"
  type: POOLING
  pooling_param {
    pool: MAX
    kernel_h: 1
    kernel_w: 2
    stride_h: 1
    stride_w: 2
  }
}
layers {
  bottom: "pool2"
  top: "fc3"
  name: "fc3"
  type: INNER_PRODUCT
  blobs_lr: 1
  blobs_lr: 2
  weight_decay: 1
  weight_decay: 0
  inner_product_param {
    num_output: 300
    weight_filler {
      type: "gaussian"
      std: 0.01
    }
    bias_filler {
      type: "constant"
      value: 1
    }
  }
}
layers {
  bottom: "fc3"
  top: "fc3"
  name: "relu3"
  type: RELU
}
layers {
  bottom: "fc3"
  top: "fc3"
  name: "drop3"
  type: DROPOUT
  dropout_param {
    dropout_ratio: 0.5
  }
}
layers {
  bottom: "fc3"
  top: "fc4"
  name: "fc4"
  type: INNER_PRODUCT
  blobs_lr: 1
  blobs_lr: 2
  weight_decay: 1
  weight_decay: 0
  inner_product_param {
    num_output: 300
    weight_filler {
      type: "gaussian"
      std: 0.01
    }
    bias_filler {
      type: "constant"
      value: 1
    }
  }
}
layers {
  bottom: "fc4"
  top: "fc4"
  name: "relu4"
  type: RELU
}
layers {
  bottom: "fc4"
  top: "fc4"
  name: "drop4"
  type: DROPOUT
  dropout_param {
    dropout_ratio: 0.5
  }
}
layers {
  bottom: "fc4"
  top: "fc5"
  name: "fc5"
  type: INNER_PRODUCT
  blobs_lr: 1
  blobs_lr: 2
  weight_decay: 1
  weight_decay: 0
  inner_product_param {
    num_output: 486
    weight_filler {
      type: "gaussian"
      std: 0.01
    }
    bias_filler {
      type: "constant"
      value: 0
    }
  }
}
layers {
  bottom: "fc5"
  bottom: "label"
  top: "loss"
  name: "loss"
  type: SOFTMAX_LOSS
}
state {
  phase: TRAIN
}
I0203 10:46:01.980541 11636 net.cpp:67] Creating Layer data
I0203 10:46:01.980576 11636 net.cpp:356] data -> data
I0203 10:46:01.980661 11636 net.cpp:356] data -> label
I0203 10:46:01.980716 11636 net.cpp:96] Setting up data
I0203 10:46:01.980741 11636 hdf5_data_layer.cpp:57] Loading filename from /work/rfn216/bus_rio/hdf5_small/train.h5.txt
I0203 10:46:01.985648 11636 hdf5_data_layer.cpp:69] Number of files: 5645
I0203 10:46:01.989662 11636 hdf5_data_layer.cpp:81] output data size: 50,3,1,20
I0203 10:46:01.989711 11636 net.cpp:103] Top shape: 50 3 1 20 (3000)
I0203 10:46:01.989734 11636 net.cpp:103] Top shape: 50 1 1 1 (50)
I0203 10:46:01.989759 11636 net.cpp:67] Creating Layer conv1
I0203 10:46:01.989783 11636 net.cpp:394] conv1 <- data
I0203 10:46:01.989819 11636 net.cpp:356] conv1 -> conv1
I0203 10:46:01.989861 11636 net.cpp:96] Setting up conv1
I0203 10:46:01.990774 11636 net.cpp:103] Top shape: 50 64 1 18 (57600)
I0203 10:46:01.990839 11636 net.cpp:67] Creating Layer relu1
I0203 10:46:01.990861 11636 net.cpp:394] relu1 <- conv1
I0203 10:46:01.990881 11636 net.cpp:345] relu1 -> conv1 (in-place)
I0203 10:46:01.990906 11636 net.cpp:96] Setting up relu1
I0203 10:46:01.990931 11636 net.cpp:103] Top shape: 50 64 1 18 (57600)
I0203 10:46:01.990950 11636 net.cpp:67] Creating Layer pool1
I0203 10:46:01.990967 11636 net.cpp:394] pool1 <- conv1
I0203 10:46:01.990985 11636 net.cpp:356] pool1 -> pool1
I0203 10:46:01.991014 11636 net.cpp:96] Setting up pool1
I0203 10:46:01.991044 11636 net.cpp:103] Top shape: 50 64 1 9 (28800)
I0203 10:46:01.991068 11636 net.cpp:67] Creating Layer conv2
I0203 10:46:01.991086 11636 net.cpp:394] conv2 <- pool1
I0203 10:46:01.991106 11636 net.cpp:356] conv2 -> conv2
I0203 10:46:01.991127 11636 net.cpp:96] Setting up conv2
I0203 10:46:01.992100 11636 net.cpp:103] Top shape: 50 128 1 7 (44800)
I0203 10:46:01.992133 11636 net.cpp:67] Creating Layer relu2
I0203 10:46:01.992151 11636 net.cpp:394] relu2 <- conv2
I0203 10:46:01.992169 11636 net.cpp:345] relu2 -> conv2 (in-place)
I0203 10:46:01.992189 11636 net.cpp:96] Setting up relu2
I0203 10:46:01.992205 11636 net.cpp:103] Top shape: 50 128 1 7 (44800)
I0203 10:46:01.992229 11636 net.cpp:67] Creating Layer pool2
I0203 10:46:01.992245 11636 net.cpp:394] pool2 <- conv2
I0203 10:46:01.992264 11636 net.cpp:356] pool2 -> pool2
I0203 10:46:01.992285 11636 net.cpp:96] Setting up pool2
I0203 10:46:01.992305 11636 net.cpp:103] Top shape: 50 128 1 4 (25600)
I0203 10:46:01.992324 11636 net.cpp:67] Creating Layer fc3
I0203 10:46:01.992341 11636 net.cpp:394] fc3 <- pool2
I0203 10:46:01.992360 11636 net.cpp:356] fc3 -> fc3
I0203 10:46:01.992390 11636 net.cpp:96] Setting up fc3
I0203 10:46:01.998594 11636 net.cpp:103] Top shape: 50 300 1 1 (15000)
I0203 10:46:01.998633 11636 net.cpp:67] Creating Layer relu3
I0203 10:46:01.998652 11636 net.cpp:394] relu3 <- fc3
I0203 10:46:01.998670 11636 net.cpp:345] relu3 -> fc3 (in-place)
I0203 10:46:01.998692 11636 net.cpp:96] Setting up relu3
I0203 10:46:01.998708 11636 net.cpp:103] Top shape: 50 300 1 1 (15000)
I0203 10:46:01.998725 11636 net.cpp:67] Creating Layer drop3
I0203 10:46:01.998741 11636 net.cpp:394] drop3 <- fc3
I0203 10:46:01.998759 11636 net.cpp:345] drop3 -> fc3 (in-place)
I0203 10:46:01.998787 11636 net.cpp:96] Setting up drop3
I0203 10:46:01.998816 11636 net.cpp:103] Top shape: 50 300 1 1 (15000)
I0203 10:46:01.998838 11636 net.cpp:67] Creating Layer fc4
I0203 10:46:01.998855 11636 net.cpp:394] fc4 <- fc3
I0203 10:46:01.998874 11636 net.cpp:356] fc4 -> fc4
I0203 10:46:01.998896 11636 net.cpp:96] Setting up fc4
I0203 10:46:02.002365 11636 net.cpp:103] Top shape: 50 300 1 1 (15000)
I0203 10:46:02.002399 11636 net.cpp:67] Creating Layer relu4
I0203 10:46:02.002416 11636 net.cpp:394] relu4 <- fc4
I0203 10:46:02.002435 11636 net.cpp:345] relu4 -> fc4 (in-place)
I0203 10:46:02.002454 11636 net.cpp:96] Setting up relu4
I0203 10:46:02.002470 11636 net.cpp:103] Top shape: 50 300 1 1 (15000)
I0203 10:46:02.002488 11636 net.cpp:67] Creating Layer drop4
I0203 10:46:02.002503 11636 net.cpp:394] drop4 <- fc4
I0203 10:46:02.002535 11636 net.cpp:345] drop4 -> fc4 (in-place)
I0203 10:46:02.002576 11636 net.cpp:96] Setting up drop4
I0203 10:46:02.002594 11636 net.cpp:103] Top shape: 50 300 1 1 (15000)
I0203 10:46:02.002614 11636 net.cpp:67] Creating Layer fc5
I0203 10:46:02.002629 11636 net.cpp:394] fc5 <- fc4
I0203 10:46:02.002648 11636 net.cpp:356] fc5 -> fc5
I0203 10:46:02.002671 11636 net.cpp:96] Setting up fc5
I0203 10:46:02.008572 11636 net.cpp:103] Top shape: 50 486 1 1 (24300)
I0203 10:46:02.008620 11636 net.cpp:67] Creating Layer loss
I0203 10:46:02.008640 11636 net.cpp:394] loss <- fc5
I0203 10:46:02.008657 11636 net.cpp:394] loss <- label
I0203 10:46:02.008683 11636 net.cpp:356] loss -> loss
I0203 10:46:02.008710 11636 net.cpp:96] Setting up loss
I0203 10:46:02.008746 11636 net.cpp:103] Top shape: 1 1 1 1 (1)
I0203 10:46:02.008764 11636 net.cpp:109]     with loss weight 1
I0203 10:46:02.008818 11636 net.cpp:170] loss needs backward computation.
I0203 10:46:02.008839 11636 net.cpp:170] fc5 needs backward computation.
I0203 10:46:02.008857 11636 net.cpp:170] drop4 needs backward computation.
I0203 10:46:02.008872 11636 net.cpp:170] relu4 needs backward computation.
I0203 10:46:02.008887 11636 net.cpp:170] fc4 needs backward computation.
…
I0203 10:46:02.009122 11636 net.cpp:220] Memory required for data: 1506204
I0203 10:46:02.010046 11636 solver.cpp:151] Creating test net (#0) specified by net file: /home/rfn216/BusRio/train.prototxt
I0203 10:46:02.010120 11636 net.cpp:275] The NetState phase (1) differed from the phase (0) specified by a rule in layer data
I0203 10:46:02.010159 11636 net.cpp:39] Initializing net from parameters: 
name: "BUS_RIO"
layers {
  top: "data"
  top: "label"
  name: "data"
  type: HDF5_DATA
  hdf5_data_param {
    source: "/work/rfn216/bus_rio/hdf5_small/test.h5.txt"
    batch_size: 50
  }
  include {
    phase: TEST
  }
}
layers {
  bottom: "data"
  top: "conv1"
  name: "conv1"
  type: CONVOLUTION
  blobs_lr: 1
  blobs_lr: 2
  weight_decay: 1
  weight_decay: 0
  convolution_param {
    num_output: 64
    weight_filler {
      type: "gaussian"
      std: 0.01
    }
    bias_filler {
      type: "constant"
      value: 0
    }
    kernel_h: 1
    kernel_w: 3
  }
}
layers {
  bottom: "conv1"
  top: "conv1"
  name: "relu1"
  type: RELU
}
layers {
  bottom: "conv1"
  top: "pool1"
  name: "pool1"
  type: POOLING
  pooling_param {
    pool: MAX
    kernel_h: 1
    kernel_w: 2
    stride_h: 1
    stride_w: 2
  }
}
layers {
  bottom: "pool1"
  top: "conv2"
  name: "conv2"
  type: CONVOLUTION
  blobs_lr: 1
  blobs_lr: 2
  weight_decay: 1
  weight_decay: 0
  convolution_param {
    num_output: 128
    weight_filler {
      type: "gaussian"
      std: 0.01
    }
    bias_filler {
      type: "constant"
      value: 0
    }
    kernel_h: 1
    kernel_w: 3
  }
}
layers {
  bottom: "conv2"
  top: "conv2"
  name: "relu2"
  type: RELU
}
layers {
  bottom: "conv2"
  top: "pool2"
  name: "pool2"
  type: POOLING
  pooling_param {
    pool: MAX
    kernel_h: 1
    kernel_w: 2
    stride_h: 1
    stride_w: 2
  }
}
layers {
  bottom: "pool2"
  top: "fc3"
  name: "fc3"
  type: INNER_PRODUCT
  blobs_lr: 1
  blobs_lr: 2
  weight_decay: 1
  weight_decay: 0
  inner_product_param {
    num_output: 300
    weight_filler {
      type: "gaussian"
      std: 0.01
    }
    bias_filler {
      type: "constant"
      value: 1
    }
  }
}
layers {
  bottom: "fc3"
  top: "fc3"
  name: "relu3"
  type: RELU
}
layers {
  bottom: "fc3"
  top: "fc3"
  name: "drop3"
  type: DROPOUT
  dropout_param {
    dropout_ratio: 0.5
  }
}
layers {
  bottom: "fc3"
  top: "fc4"
  name: "fc4"
  type: INNER_PRODUCT
  blobs_lr: 1
  blobs_lr: 2
  weight_decay: 1
  weight_decay: 0
  inner_product_param {
    num_output: 300
    weight_filler {
      type: "gaussian"
      std: 0.01
    }
    bias_filler {
      type: "constant"
      value: 1
    }
  }
}
layers {
  bottom: "fc4"
  top: "fc4"
  name: "relu4"
  type: RELU
}
layers {
  bottom: "fc4"
  top: "fc4"
  name: "drop4"
  type: DROPOUT
  dropout_param {
    dropout_ratio: 0.5
  }
}
layers {
  bottom: "fc4"
  top: "fc5"
  name: "fc5"
  type: INNER_PRODUCT
  blobs_lr: 1
  blobs_lr: 2
  weight_decay: 1
  weight_decay: 0
  inner_product_param {
    num_output: 486
    weight_filler {
      type: "gaussian"
      std: 0.01
    }
    bias_filler {
      type: "constant"
      value: 0
    }
  }
}
layers {
  bottom: "fc5"
  bottom: "label"
  top: "accuracy-top1"
  name: "accuracy-top1"
  type: ACCURACY
  include {
    phase: TEST
  }
}
layers {
  bottom: "fc5"
  bottom: "label"
  top: "accuracy-top5"
  name: "accuracy-top5"
  type: ACCURACY
  accuracy_param {
    top_k: 5
  }
  include {
    phase: TEST
  }
}
layers {
  bottom: "fc5"
  bottom: "label"
  top: "loss"
  name: "loss"
  type: SOFTMAX_LOSS
}
state {
  phase: TEST
}
I0203 10:46:02.010525 11636 net.cpp:67] Creating Layer data
I0203 10:46:02.010555 11636 net.cpp:356] data -> data
I0203 10:46:02.010581 11636 net.cpp:356] data -> label
I0203 10:46:02.010604 11636 net.cpp:96] Setting up data
I0203 10:46:02.010622 11636 hdf5_data_layer.cpp:57] Loading filename from /work/rfn216/bus_rio/hdf5_small/test.h5.txt
I0203 10:46:02.012496 11636 hdf5_data_layer.cpp:69] Number of files: 1000
I0203 10:46:02.013970 11636 hdf5_data_layer.cpp:81] output data size: 50,3,1,20
I0203 10:46:02.013990 11636 net.cpp:103] Top shape: 50 3 1 20 (3000)
I0203 10:46:02.014008 11636 net.cpp:103] Top shape: 50 1 1 1 (50)
I0203 10:46:02.014030 11636 net.cpp:67] Creating Layer label_data_1_split
I0203 10:46:02.014049 11636 net.cpp:394] label_data_1_split <- label
I0203 10:46:02.014068 11636 net.cpp:356] label_data_1_split -> label_data_1_split_0
I0203 10:46:02.014092 11636 net.cpp:356] label_data_1_split -> label_data_1_split_1
I0203 10:46:02.014114 11636 net.cpp:356] label_data_1_split -> label_data_1_split_2
I0203 10:46:02.014135 11636 net.cpp:96] Setting up label_data_1_split
I0203 10:46:02.014158 11636 net.cpp:103] Top shape: 50 1 1 1 (50)
I0203 10:46:02.014189 11636 net.cpp:103] Top shape: 50 1 1 1 (50)
I0203 10:46:02.014209 11636 net.cpp:103] Top shape: 50 1 1 1 (50)
I0203 10:46:02.014230 11636 net.cpp:67] Creating Layer conv1
I0203 10:46:02.014247 11636 net.cpp:394] conv1 <- data
I0203 10:46:02.014266 11636 net.cpp:356] conv1 -> conv1
I0203 10:46:02.014289 11636 net.cpp:96] Setting up conv1
I0203 10:46:02.014343 11636 net.cpp:103] Top shape: 50 64 1 18 (57600)
I0203 10:46:02.014374 11636 net.cpp:67] Creating Layer relu1
I0203 10:46:02.014391 11636 net.cpp:394] relu1 <- conv1
I0203 10:46:02.014410 11636 net.cpp:345] relu1 -> conv1 (in-place)
I0203 10:46:02.014430 11636 net.cpp:96] Setting up relu1
I0203 10:46:02.014446 11636 net.cpp:103] Top shape: 50 64 1 18 (57600)
I0203 10:46:02.014467 11636 net.cpp:67] Creating Layer pool1
I0203 10:46:02.014482 11636 net.cpp:394] pool1 <- conv1
I0203 10:46:02.014500 11636 net.cpp:356] pool1 -> pool1
I0203 10:46:02.014519 11636 net.cpp:96] Setting up pool1
I0203 10:46:02.014539 11636 net.cpp:103] Top shape: 50 64 1 9 (28800)
I0203 10:46:02.014570 11636 net.cpp:67] Creating Layer conv2
I0203 10:46:02.014608 11636 net.cpp:394] conv2 <- pool1
I0203 10:46:02.014629 11636 net.cpp:356] conv2 -> conv2
I0203 10:46:02.014652 11636 net.cpp:96] Setting up conv2
I0203 10:46:02.015620 11636 net.cpp:103] Top shape: 50 128 1 7 (44800)
I0203 10:46:02.015655 11636 net.cpp:67] Creating Layer relu2
I0203 10:46:02.015673 11636 net.cpp:394] relu2 <- conv2
I0203 10:46:02.015691 11636 net.cpp:345] relu2 -> conv2 (in-place)
I0203 10:46:02.015712 11636 net.cpp:96] Setting up relu2
I0203 10:46:02.015727 11636 net.cpp:103] Top shape: 50 128 1 7 (44800)
I0203 10:46:02.015745 11636 net.cpp:67] Creating Layer pool2
I0203 10:46:02.015763 11636 net.cpp:394] pool2 <- conv2
I0203 10:46:02.015780 11636 net.cpp:356] pool2 -> pool2
I0203 10:46:02.015801 11636 net.cpp:96] Setting up pool2
I0203 10:46:02.015820 11636 net.cpp:103] Top shape: 50 128 1 4 (25600)
I0203 10:46:02.015841 11636 net.cpp:67] Creating Layer fc3
I0203 10:46:02.015858 11636 net.cpp:394] fc3 <- pool2
I0203 10:46:02.015877 11636 net.cpp:356] fc3 -> fc3
I0203 10:46:02.015898 11636 net.cpp:96] Setting up fc3
I0203 10:46:02.021891 11636 net.cpp:103] Top shape: 50 300 1 1 (15000)
I0203 10:46:02.021934 11636 net.cpp:67] Creating Layer relu3
I0203 10:46:02.021952 11636 net.cpp:394] relu3 <- fc3
I0203 10:46:02.021970 11636 net.cpp:345] relu3 -> fc3 (in-place)
I0203 10:46:02.021989 11636 net.cpp:96] Setting up relu3
I0203 10:46:02.022006 11636 net.cpp:103] Top shape: 50 300 1 1 (15000)
I0203 10:46:02.022027 11636 net.cpp:67] Creating Layer drop3
I0203 10:46:02.022043 11636 net.cpp:394] drop3 <- fc3
I0203 10:46:02.022061 11636 net.cpp:345] drop3 -> fc3 (in-place)
I0203 10:46:02.022085 11636 net.cpp:96] Setting up drop3
I0203 10:46:02.022102 11636 net.cpp:103] Top shape: 50 300 1 1 (15000)
I0203 10:46:02.022121 11636 net.cpp:67] Creating Layer fc4
I0203 10:46:02.022136 11636 net.cpp:394] fc4 <- fc3
I0203 10:46:02.022157 11636 net.cpp:356] fc4 -> fc4
I0203 10:46:02.022192 11636 net.cpp:96] Setting up fc4
I0203 10:46:02.025840 11636 net.cpp:103] Top shape: 50 300 1 1 (15000)
I0203 10:46:02.025877 11636 net.cpp:67] Creating Layer relu4
I0203 10:46:02.025895 11636 net.cpp:394] relu4 <- fc4
I0203 10:46:02.025915 11636 net.cpp:345] relu4 -> fc4 (in-place)
I0203 10:46:02.025934 11636 net.cpp:96] Setting up relu4
I0203 10:46:02.025950 11636 net.cpp:103] Top shape: 50 300 1 1 (15000)
I0203 10:46:02.025969 11636 net.cpp:67] Creating Layer drop4
I0203 10:46:02.025984 11636 net.cpp:394] drop4 <- fc4
I0203 10:46:02.026005 11636 net.cpp:345] drop4 -> fc4 (in-place)
I0203 10:46:02.026023 11636 net.cpp:96] Setting up drop4
I0203 10:46:02.026039 11636 net.cpp:103] Top shape: 50 300 1 1 (15000)
I0203 10:46:02.026057 11636 net.cpp:67] Creating Layer fc5
I0203 10:46:02.026073 11636 net.cpp:394] fc5 <- fc4
I0203 10:46:02.026094 11636 net.cpp:356] fc5 -> fc5
I0203 10:46:02.026114 11636 net.cpp:96] Setting up fc5
I0203 10:46:02.031991 11636 net.cpp:103] Top shape: 50 486 1 1 (24300)
I0203 10:46:02.032030 11636 net.cpp:67] Creating Layer fc5_fc5_0_split
I0203 10:46:02.032047 11636 net.cpp:394] fc5_fc5_0_split <- fc5
I0203 10:46:02.032066 11636 net.cpp:356] fc5_fc5_0_split -> fc5_fc5_0_split_0
I0203 10:46:02.032088 11636 net.cpp:356] fc5_fc5_0_split -> fc5_fc5_0_split_1
I0203 10:46:02.032111 11636 net.cpp:356] fc5_fc5_0_split -> fc5_fc5_0_split_2
I0203 10:46:02.032131 11636 net.cpp:96] Setting up fc5_fc5_0_split
I0203 10:46:02.032148 11636 net.cpp:103] Top shape: 50 486 1 1 (24300)
I0203 10:46:02.032163 11636 net.cpp:103] Top shape: 50 486 1 1 (24300)
I0203 10:46:02.032183 11636 net.cpp:103] Top shape: 50 486 1 1 (24300)
I0203 10:46:02.032204 11636 net.cpp:67] Creating Layer accuracy-top1
I0203 10:46:02.032220 11636 net.cpp:394] accuracy-top1 <- fc5_fc5_0_split_0
I0203 10:46:02.032237 11636 net.cpp:394] accuracy-top1 <- label_data_1_split_0
I0203 10:46:02.032258 11636 net.cpp:356] accuracy-top1 -> accuracy-top1
I0203 10:46:02.032279 11636 net.cpp:96] Setting up accuracy-top1
I0203 10:46:02.032300 11636 net.cpp:103] Top shape: 1 1 1 1 (1)
I0203 10:46:02.032331 11636 net.cpp:67] Creating Layer accuracy-top5
I0203 10:46:02.032366 11636 net.cpp:394] accuracy-top5 <- fc5_fc5_0_split_1
I0203 10:46:02.032384 11636 net.cpp:394] accuracy-top5 <- label_data_1_split_1
I0203 10:46:02.032402 11636 net.cpp:356] accuracy-top5 -> accuracy-top5
I0203 10:46:02.032425 11636 net.cpp:96] Setting up accuracy-top5
I0203 10:46:02.032444 11636 net.cpp:103] Top shape: 1 1 1 1 (1)
I0203 10:46:02.032466 11636 net.cpp:67] Creating Layer loss
I0203 10:46:02.032484 11636 net.cpp:394] loss <- fc5_fc5_0_split_2
I0203 10:46:02.032500 11636 net.cpp:394] loss <- label_data_1_split_2
I0203 10:46:02.032521 11636 net.cpp:356] loss -> loss
I0203 10:46:02.032541 11636 net.cpp:96] Setting up loss
I0203 10:46:02.032565 11636 net.cpp:103] Top shape: 1 1 1 1 (1)
I0203 10:46:02.032582 11636 net.cpp:109]     with loss weight 1
I0203 10:46:02.032601 11636 net.cpp:170] loss needs backward computation.
I0203 10:46:02.032616 11636 net.cpp:172] accuracy-top5 does not need backward computation.
I0203 10:46:02.032631 11636 net.cpp:172] accuracy-top1 does not need backward computation.
I0203 10:46:02.032645 11636 net.cpp:170] fc5_fc5_0_split needs backward computation.
…
