…
I0205 14:44:02.923112   377 net.cpp:275] The NetState phase (0) differed from the phase (1) specified by a rule in layer data
I0205 14:44:02.923157   377 net.cpp:275] The NetState phase (0) differed from the phase (1) specified by a rule in layer accuracy-top1
I0205 14:44:02.923173   377 net.cpp:275] The NetState phase (0) differed from the phase (1) specified by a rule in layer accuracy-top5
I0205 14:44:02.923195   377 net.cpp:39] Initializing net from parameters: 
name: "BUS_RIO"
layers {
  top: "data"
  top: "label"
  name: "data"
  type: HDF5_DATA
  hdf5_data_param {
    source: "/work/rfn216/bus_rio/train.h5.txt"
    batch_size: 50
  }
  include {
    phase: TRAIN
  }
}
layers {
  bottom: "data"
  top: "conv1-1"
  name: "conv1-1"
  type: CONVOLUTION
  blobs_lr: 1
  blobs_lr: 2
  weight_decay: 1
  weight_decay: 0
  convolution_param {
    num_output: 64
    pad: 1
    weight_filler {
      type: "gaussian"
      std: 0.01
    }
    bias_filler {
      type: "constant"
      value: 0
    }
    kernel_h: 1
    kernel_w: 3
  }
}
layers {
  bottom: "conv1-1"
  top: "conv1-1"
  name: "relu1-1"
  type: RELU
}
layers {
  bottom: "conv1-1"
  top: "pool1"
  name: "pool1"
  type: POOLING
  pooling_param {
    pool: MAX
    kernel_h: 1
    kernel_w: 2
    stride_h: 1
    stride_w: 2
  }
}
layers {
  bottom: "pool1"
  top: "conv2-1"
  name: "conv2-1"
  type: CONVOLUTION
  blobs_lr: 1
  blobs_lr: 2
  weight_decay: 1
  weight_decay: 0
  convolution_param {
    num_output: 128
    pad: 1
    weight_filler {
      type: "gaussian"
      std: 0.01
    }
    bias_filler {
      type: "constant"
      value: 0
    }
    kernel_h: 1
    kernel_w: 3
  }
}
layers {
  bottom: "conv2-1"
  top: "conv2-1"
  name: "relu2-1"
  type: RELU
}
layers {
  bottom: "conv2-1"
  top: "pool2"
  name: "pool2"
  type: POOLING
  pooling_param {
    pool: MAX
    kernel_h: 1
    kernel_w: 2
    stride_h: 1
    stride_w: 2
  }
}
layers {
  bottom: "pool2"
  top: "fc3"
  name: "fc3"
  type: INNER_PRODUCT
  blobs_lr: 1
  blobs_lr: 2
  weight_decay: 1
  weight_decay: 0
  inner_product_param {
    num_output: 300
    weight_filler {
      type: "gaussian"
      std: 0.01
    }
    bias_filler {
      type: "constant"
      value: 1
    }
  }
}
layers {
  bottom: "fc3"
  top: "fc3"
  name: "relu3"
  type: RELU
}
layers {
  bottom: "fc3"
  top: "fc3"
  name: "drop3"
  type: DROPOUT
  dropout_param {
    dropout_ratio: 0.5
  }
}
layers {
  bottom: "fc3"
  top: "fc4"
  name: "fc4"
  type: INNER_PRODUCT
  blobs_lr: 1
  blobs_lr: 2
  weight_decay: 1
  weight_decay: 0
  inner_product_param {
    num_output: 300
    weight_filler {
      type: "gaussian"
      std: 0.01
    }
    bias_filler {
      type: "constant"
      value: 1
    }
  }
}
layers {
  bottom: "fc4"
  top: "fc4"
  name: "relu4"
  type: RELU
}
layers {
  bottom: "fc4"
  top: "fc4"
  name: "drop4"
  type: DROPOUT
  dropout_param {
    dropout_ratio: 0.5
  }
}
layers {
  bottom: "fc4"
  top: "fc5"
  name: "fc5"
  type: INNER_PRODUCT
  blobs_lr: 1
  blobs_lr: 2
  weight_decay: 1
  weight_decay: 0
  inner_product_param {
    num_output: 486
    weight_filler {
      type: "gaussian"
      std: 0.01
    }
    bias_filler {
      type: "constant"
      value: 0
    }
  }
}
layers {
  bottom: "fc5"
  bottom: "label"
  top: "loss"
  name: "loss"
  type: SOFTMAX_LOSS
}
state {
  phase: TRAIN
}
I0205 14:44:02.923511   377 net.cpp:67] Creating Layer data
I0205 14:44:02.923537   377 net.cpp:356] data -> data
I0205 14:44:02.923604   377 net.cpp:356] data -> label
I0205 14:44:02.923651   377 net.cpp:96] Setting up data
I0205 14:44:02.923702   377 hdf5_data_layer.cpp:57] Loading filename from /work/rfn216/bus_rio/train.h5.txt
I0205 14:44:03.109000   377 hdf5_data_layer.cpp:69] Number of files: 439093
I0205 14:44:03.113016   377 hdf5_data_layer.cpp:81] output data size: 50,3,1,20
I0205 14:44:03.113056   377 net.cpp:103] Top shape: 50 3 1 20 (3000)
I0205 14:44:03.113075   377 net.cpp:103] Top shape: 50 1 1 1 (50)
I0205 14:44:03.113104   377 net.cpp:67] Creating Layer conv1-1
I0205 14:44:03.113122   377 net.cpp:394] conv1-1 <- data
I0205 14:44:03.113154   377 net.cpp:356] conv1-1 -> conv1-1
I0205 14:44:03.113194   377 net.cpp:96] Setting up conv1-1
I0205 14:44:03.113916   377 net.cpp:103] Top shape: 50 64 3 20 (192000)
I0205 14:44:03.113977   377 net.cpp:67] Creating Layer relu1-1
I0205 14:44:03.113994   377 net.cpp:394] relu1-1 <- conv1-1
I0205 14:44:03.114009   377 net.cpp:345] relu1-1 -> conv1-1 (in-place)
I0205 14:44:03.114028   377 net.cpp:96] Setting up relu1-1
I0205 14:44:03.114048   377 net.cpp:103] Top shape: 50 64 3 20 (192000)
I0205 14:44:03.114064   377 net.cpp:67] Creating Layer pool1
I0205 14:44:03.114078   377 net.cpp:394] pool1 <- conv1-1
I0205 14:44:03.114091   377 net.cpp:356] pool1 -> pool1
I0205 14:44:03.114114   377 net.cpp:96] Setting up pool1
I0205 14:44:03.114138   377 net.cpp:103] Top shape: 50 64 3 10 (96000)
I0205 14:44:03.114157   377 net.cpp:67] Creating Layer conv2-1
I0205 14:44:03.114171   377 net.cpp:394] conv2-1 <- pool1
I0205 14:44:03.114186   377 net.cpp:356] conv2-1 -> conv2-1
I0205 14:44:03.114203   377 net.cpp:96] Setting up conv2-1
I0205 14:44:03.114929   377 net.cpp:103] Top shape: 50 128 5 10 (320000)
I0205 14:44:03.114956   377 net.cpp:67] Creating Layer relu2-1
I0205 14:44:03.114969   377 net.cpp:394] relu2-1 <- conv2-1
I0205 14:44:03.114984   377 net.cpp:345] relu2-1 -> conv2-1 (in-place)
I0205 14:44:03.114998   377 net.cpp:96] Setting up relu2-1
I0205 14:44:03.115011   377 net.cpp:103] Top shape: 50 128 5 10 (320000)
I0205 14:44:03.115025   377 net.cpp:67] Creating Layer pool2
I0205 14:44:03.115037   377 net.cpp:394] pool2 <- conv2-1
I0205 14:44:03.115051   377 net.cpp:356] pool2 -> pool2
I0205 14:44:03.115067   377 net.cpp:96] Setting up pool2
I0205 14:44:03.115082   377 net.cpp:103] Top shape: 50 128 5 5 (160000)
I0205 14:44:03.115097   377 net.cpp:67] Creating Layer fc3
I0205 14:44:03.115110   377 net.cpp:394] fc3 <- pool2
I0205 14:44:03.115124   377 net.cpp:356] fc3 -> fc3
I0205 14:44:03.115155   377 net.cpp:96] Setting up fc3
I0205 14:44:03.142848   377 net.cpp:103] Top shape: 50 300 1 1 (15000)
I0205 14:44:03.142887   377 net.cpp:67] Creating Layer relu3
I0205 14:44:03.142900   377 net.cpp:394] relu3 <- fc3
I0205 14:44:03.142916   377 net.cpp:345] relu3 -> fc3 (in-place)
I0205 14:44:03.142931   377 net.cpp:96] Setting up relu3
I0205 14:44:03.142943   377 net.cpp:103] Top shape: 50 300 1 1 (15000)
I0205 14:44:03.142957   377 net.cpp:67] Creating Layer drop3
I0205 14:44:03.142968   377 net.cpp:394] drop3 <- fc3
I0205 14:44:03.142982   377 net.cpp:345] drop3 -> fc3 (in-place)
I0205 14:44:03.143002   377 net.cpp:96] Setting up drop3
I0205 14:44:03.143025   377 net.cpp:103] Top shape: 50 300 1 1 (15000)
I0205 14:44:03.143043   377 net.cpp:67] Creating Layer fc4
I0205 14:44:03.143054   377 net.cpp:394] fc4 <- fc3
I0205 14:44:03.143069   377 net.cpp:356] fc4 -> fc4
I0205 14:44:03.143085   377 net.cpp:96] Setting up fc4
I0205 14:44:03.145663   377 net.cpp:103] Top shape: 50 300 1 1 (15000)
I0205 14:44:03.145689   377 net.cpp:67] Creating Layer relu4
I0205 14:44:03.145700   377 net.cpp:394] relu4 <- fc4
I0205 14:44:03.145717   377 net.cpp:345] relu4 -> fc4 (in-place)
I0205 14:44:03.145732   377 net.cpp:96] Setting up relu4
I0205 14:44:03.145745   377 net.cpp:103] Top shape: 50 300 1 1 (15000)
I0205 14:44:03.145758   377 net.cpp:67] Creating Layer drop4
I0205 14:44:03.145797   377 net.cpp:394] drop4 <- fc4
I0205 14:44:03.145843   377 net.cpp:345] drop4 -> fc4 (in-place)
I0205 14:44:03.145858   377 net.cpp:96] Setting up drop4
I0205 14:44:03.145869   377 net.cpp:103] Top shape: 50 300 1 1 (15000)
I0205 14:44:03.145884   377 net.cpp:67] Creating Layer fc5
I0205 14:44:03.145895   377 net.cpp:394] fc5 <- fc4
I0205 14:44:03.145910   377 net.cpp:356] fc5 -> fc5
I0205 14:44:03.145926   377 net.cpp:96] Setting up fc5
I0205 14:44:03.150172   377 net.cpp:103] Top shape: 50 486 1 1 (24300)
I0205 14:44:03.150208   377 net.cpp:67] Creating Layer loss
I0205 14:44:03.150223   377 net.cpp:394] loss <- fc5
I0205 14:44:03.150236   377 net.cpp:394] loss <- label
I0205 14:44:03.150251   377 net.cpp:356] loss -> loss
I0205 14:44:03.150270   377 net.cpp:96] Setting up loss
I0205 14:44:03.150297   377 net.cpp:103] Top shape: 1 1 1 1 (1)
I0205 14:44:03.150311   377 net.cpp:109]     with loss weight 1
I0205 14:44:03.150360   377 net.cpp:170] loss needs backward computation.
I0205 14:44:03.150375   377 net.cpp:170] fc5 needs backward computation.
I0205 14:44:03.150388   377 net.cpp:170] drop4 needs backward computation.
I0205 14:44:03.150399   377 net.cpp:170] relu4 needs backward computation.
I0205 14:44:03.150409   377 net.cpp:170] fc4 needs backward computation.
…
I0205 14:44:03.150580   377 net.cpp:220] Memory required for data: 5589404
I0205 14:44:03.151460   377 solver.cpp:151] Creating test net (#0) specified by net file: /home/rfn216/BusRio/train.prototxt
I0205 14:44:03.151515   377 net.cpp:275] The NetState phase (1) differed from the phase (0) specified by a rule in layer data
I0205 14:44:03.151545   377 net.cpp:39] Initializing net from parameters: 
name: "BUS_RIO"
layers {
  top: "data"
  top: "label"
  name: "data"
  type: HDF5_DATA
  hdf5_data_param {
    source: "/work/rfn216/bus_rio/test.h5.txt"
    batch_size: 50
  }
  include {
    phase: TEST
  }
}
layers {
  bottom: "data"
  top: "conv1-1"
  name: "conv1-1"
  type: CONVOLUTION
  blobs_lr: 1
  blobs_lr: 2
  weight_decay: 1
  weight_decay: 0
  convolution_param {
    num_output: 64
    pad: 1
    weight_filler {
      type: "gaussian"
      std: 0.01
    }
    bias_filler {
      type: "constant"
      value: 0
    }
    kernel_h: 1
    kernel_w: 3
  }
}
layers {
  bottom: "conv1-1"
  top: "conv1-1"
  name: "relu1-1"
  type: RELU
}
layers {
  bottom: "conv1-1"
  top: "pool1"
  name: "pool1"
  type: POOLING
  pooling_param {
    pool: MAX
    kernel_h: 1
    kernel_w: 2
    stride_h: 1
    stride_w: 2
  }
}
layers {
  bottom: "pool1"
  top: "conv2-1"
  name: "conv2-1"
  type: CONVOLUTION
  blobs_lr: 1
  blobs_lr: 2
  weight_decay: 1
  weight_decay: 0
  convolution_param {
    num_output: 128
    pad: 1
    weight_filler {
      type: "gaussian"
      std: 0.01
    }
    bias_filler {
      type: "constant"
      value: 0
    }
    kernel_h: 1
    kernel_w: 3
  }
}
layers {
  bottom: "conv2-1"
  top: "conv2-1"
  name: "relu2-1"
  type: RELU
}
layers {
  bottom: "conv2-1"
  top: "pool2"
  name: "pool2"
  type: POOLING
  pooling_param {
    pool: MAX
    kernel_h: 1
    kernel_w: 2
    stride_h: 1
    stride_w: 2
  }
}
layers {
  bottom: "pool2"
  top: "fc3"
  name: "fc3"
  type: INNER_PRODUCT
  blobs_lr: 1
  blobs_lr: 2
  weight_decay: 1
  weight_decay: 0
  inner_product_param {
    num_output: 300
    weight_filler {
      type: "gaussian"
      std: 0.01
    }
    bias_filler {
      type: "constant"
      value: 1
    }
  }
}
layers {
  bottom: "fc3"
  top: "fc3"
  name: "relu3"
  type: RELU
}
layers {
  bottom: "fc3"
  top: "fc3"
  name: "drop3"
  type: DROPOUT
  dropout_param {
    dropout_ratio: 0.5
  }
}
layers {
  bottom: "fc3"
  top: "fc4"
  name: "fc4"
  type: INNER_PRODUCT
  blobs_lr: 1
  blobs_lr: 2
  weight_decay: 1
  weight_decay: 0
  inner_product_param {
    num_output: 300
    weight_filler {
      type: "gaussian"
      std: 0.01
    }
    bias_filler {
      type: "constant"
      value: 1
    }
  }
}
layers {
  bottom: "fc4"
  top: "fc4"
  name: "relu4"
  type: RELU
}
layers {
  bottom: "fc4"
  top: "fc4"
  name: "drop4"
  type: DROPOUT
  dropout_param {
    dropout_ratio: 0.5
  }
}
layers {
  bottom: "fc4"
  top: "fc5"
  name: "fc5"
  type: INNER_PRODUCT
  blobs_lr: 1
  blobs_lr: 2
  weight_decay: 1
  weight_decay: 0
  inner_product_param {
    num_output: 486
    weight_filler {
      type: "gaussian"
      std: 0.01
    }
    bias_filler {
      type: "constant"
      value: 0
    }
  }
}
layers {
  bottom: "fc5"
  bottom: "label"
  top: "accuracy-top1"
  name: "accuracy-top1"
  type: ACCURACY
  include {
    phase: TEST
  }
}
layers {
  bottom: "fc5"
  bottom: "label"
  top: "accuracy-top5"
  name: "accuracy-top5"
  type: ACCURACY
  accuracy_param {
    top_k: 5
  }
  include {
    phase: TEST
  }
}
layers {
  bottom: "fc5"
  bottom: "label"
  top: "loss"
  name: "loss"
  type: SOFTMAX_LOSS
}
state {
  phase: TEST
}
I0205 14:44:03.151859   377 net.cpp:67] Creating Layer data
I0205 14:44:03.151881   377 net.cpp:356] data -> data
I0205 14:44:03.151901   377 net.cpp:356] data -> label
I0205 14:44:03.151916   377 net.cpp:96] Setting up data
I0205 14:44:03.151929   377 hdf5_data_layer.cpp:57] Loading filename from /work/rfn216/bus_rio/test.h5.txt
I0205 14:44:03.189482   377 hdf5_data_layer.cpp:69] Number of files: 90766
I0205 14:44:03.192287   377 hdf5_data_layer.cpp:81] output data size: 50,3,1,20
I0205 14:44:03.192304   377 net.cpp:103] Top shape: 50 3 1 20 (3000)
I0205 14:44:03.192317   377 net.cpp:103] Top shape: 50 1 1 1 (50)
I0205 14:44:03.192340   377 net.cpp:67] Creating Layer label_data_1_split
I0205 14:44:03.192354   377 net.cpp:394] label_data_1_split <- label
I0205 14:44:03.192370   377 net.cpp:356] label_data_1_split -> label_data_1_split_0
I0205 14:44:03.192392   377 net.cpp:356] label_data_1_split -> label_data_1_split_1
I0205 14:44:03.192409   377 net.cpp:356] label_data_1_split -> label_data_1_split_2
I0205 14:44:03.192425   377 net.cpp:96] Setting up label_data_1_split
I0205 14:44:03.192445   377 net.cpp:103] Top shape: 50 1 1 1 (50)
I0205 14:44:03.192457   377 net.cpp:103] Top shape: 50 1 1 1 (50)
I0205 14:44:03.192468   377 net.cpp:103] Top shape: 50 1 1 1 (50)
I0205 14:44:03.192487   377 net.cpp:67] Creating Layer conv1-1
I0205 14:44:03.192499   377 net.cpp:394] conv1-1 <- data
I0205 14:44:03.192515   377 net.cpp:356] conv1-1 -> conv1-1
I0205 14:44:03.192533   377 net.cpp:96] Setting up conv1-1
I0205 14:44:03.192579   377 net.cpp:103] Top shape: 50 64 3 20 (192000)
I0205 14:44:03.192606   377 net.cpp:67] Creating Layer relu1-1
I0205 14:44:03.192620   377 net.cpp:394] relu1-1 <- conv1-1
I0205 14:44:03.192633   377 net.cpp:345] relu1-1 -> conv1-1 (in-place)
I0205 14:44:03.192648   377 net.cpp:96] Setting up relu1-1
I0205 14:44:03.192662   377 net.cpp:103] Top shape: 50 64 3 20 (192000)
I0205 14:44:03.192678   377 net.cpp:67] Creating Layer pool1
I0205 14:44:03.192690   377 net.cpp:394] pool1 <- conv1-1
I0205 14:44:03.192719   377 net.cpp:356] pool1 -> pool1
I0205 14:44:03.192742   377 net.cpp:96] Setting up pool1
I0205 14:44:03.192782   377 net.cpp:103] Top shape: 50 64 3 10 (96000)
I0205 14:44:03.192800   377 net.cpp:67] Creating Layer conv2-1
I0205 14:44:03.192812   377 net.cpp:394] conv2-1 <- pool1
I0205 14:44:03.192827   377 net.cpp:356] conv2-1 -> conv2-1
I0205 14:44:03.192843   377 net.cpp:96] Setting up conv2-1
I0205 14:44:03.193557   377 net.cpp:103] Top shape: 50 128 5 10 (320000)
I0205 14:44:03.193583   377 net.cpp:67] Creating Layer relu2-1
I0205 14:44:03.193595   377 net.cpp:394] relu2-1 <- conv2-1
I0205 14:44:03.193608   377 net.cpp:345] relu2-1 -> conv2-1 (in-place)
I0205 14:44:03.193624   377 net.cpp:96] Setting up relu2-1
I0205 14:44:03.193636   377 net.cpp:103] Top shape: 50 128 5 10 (320000)
I0205 14:44:03.193650   377 net.cpp:67] Creating Layer pool2
I0205 14:44:03.193670   377 net.cpp:394] pool2 <- conv2-1
I0205 14:44:03.193683   377 net.cpp:356] pool2 -> pool2
I0205 14:44:03.193701   377 net.cpp:96] Setting up pool2
I0205 14:44:03.193714   377 net.cpp:103] Top shape: 50 128 5 5 (160000)
I0205 14:44:03.193737   377 net.cpp:67] Creating Layer fc3
I0205 14:44:03.193750   377 net.cpp:394] fc3 <- pool2
I0205 14:44:03.193764   377 net.cpp:356] fc3 -> fc3
I0205 14:44:03.193781   377 net.cpp:96] Setting up fc3
I0205 14:44:03.222064   377 net.cpp:103] Top shape: 50 300 1 1 (15000)
I0205 14:44:03.222110   377 net.cpp:67] Creating Layer relu3
I0205 14:44:03.222123   377 net.cpp:394] relu3 <- fc3
I0205 14:44:03.222136   377 net.cpp:345] relu3 -> fc3 (in-place)
I0205 14:44:03.222151   377 net.cpp:96] Setting up relu3
I0205 14:44:03.222163   377 net.cpp:103] Top shape: 50 300 1 1 (15000)
I0205 14:44:03.222177   377 net.cpp:67] Creating Layer drop3
I0205 14:44:03.222189   377 net.cpp:394] drop3 <- fc3
I0205 14:44:03.222203   377 net.cpp:345] drop3 -> fc3 (in-place)
I0205 14:44:03.222216   377 net.cpp:96] Setting up drop3
I0205 14:44:03.222229   377 net.cpp:103] Top shape: 50 300 1 1 (15000)
I0205 14:44:03.222244   377 net.cpp:67] Creating Layer fc4
I0205 14:44:03.222256   377 net.cpp:394] fc4 <- fc3
I0205 14:44:03.222270   377 net.cpp:356] fc4 -> fc4
I0205 14:44:03.222285   377 net.cpp:96] Setting up fc4
I0205 14:44:03.224766   377 net.cpp:103] Top shape: 50 300 1 1 (15000)
I0205 14:44:03.224791   377 net.cpp:67] Creating Layer relu4
I0205 14:44:03.224803   377 net.cpp:394] relu4 <- fc4
I0205 14:44:03.224817   377 net.cpp:345] relu4 -> fc4 (in-place)
I0205 14:44:03.224830   377 net.cpp:96] Setting up relu4
I0205 14:44:03.224843   377 net.cpp:103] Top shape: 50 300 1 1 (15000)
I0205 14:44:03.224855   377 net.cpp:67] Creating Layer drop4
I0205 14:44:03.224867   377 net.cpp:394] drop4 <- fc4
I0205 14:44:03.224879   377 net.cpp:345] drop4 -> fc4 (in-place)
I0205 14:44:03.224894   377 net.cpp:96] Setting up drop4
I0205 14:44:03.224905   377 net.cpp:103] Top shape: 50 300 1 1 (15000)
I0205 14:44:03.224920   377 net.cpp:67] Creating Layer fc5
I0205 14:44:03.224932   377 net.cpp:394] fc5 <- fc4
I0205 14:44:03.224946   377 net.cpp:356] fc5 -> fc5
I0205 14:44:03.224961   377 net.cpp:96] Setting up fc5
I0205 14:44:03.229167   377 net.cpp:103] Top shape: 50 486 1 1 (24300)
I0205 14:44:03.229194   377 net.cpp:67] Creating Layer fc5_fc5_0_split
I0205 14:44:03.229207   377 net.cpp:394] fc5_fc5_0_split <- fc5
I0205 14:44:03.229223   377 net.cpp:356] fc5_fc5_0_split -> fc5_fc5_0_split_0
I0205 14:44:03.229240   377 net.cpp:356] fc5_fc5_0_split -> fc5_fc5_0_split_1
I0205 14:44:03.229255   377 net.cpp:356] fc5_fc5_0_split -> fc5_fc5_0_split_2
I0205 14:44:03.229277   377 net.cpp:96] Setting up fc5_fc5_0_split
I0205 14:44:03.229290   377 net.cpp:103] Top shape: 50 486 1 1 (24300)
I0205 14:44:03.229301   377 net.cpp:103] Top shape: 50 486 1 1 (24300)
I0205 14:44:03.229312   377 net.cpp:103] Top shape: 50 486 1 1 (24300)
I0205 14:44:03.229331   377 net.cpp:67] Creating Layer accuracy-top1
I0205 14:44:03.229343   377 net.cpp:394] accuracy-top1 <- fc5_fc5_0_split_0
I0205 14:44:03.229356   377 net.cpp:394] accuracy-top1 <- label_data_1_split_0
I0205 14:44:03.229377   377 net.cpp:356] accuracy-top1 -> accuracy-top1
I0205 14:44:03.229408   377 net.cpp:96] Setting up accuracy-top1
I0205 14:44:03.229424   377 net.cpp:103] Top shape: 1 1 1 1 (1)
I0205 14:44:03.229440   377 net.cpp:67] Creating Layer accuracy-top5
I0205 14:44:03.229452   377 net.cpp:394] accuracy-top5 <- fc5_fc5_0_split_1
I0205 14:44:03.229465   377 net.cpp:394] accuracy-top5 <- label_data_1_split_1
I0205 14:44:03.229480   377 net.cpp:356] accuracy-top5 -> accuracy-top5
I0205 14:44:03.229498   377 net.cpp:96] Setting up accuracy-top5
I0205 14:44:03.229511   377 net.cpp:103] Top shape: 1 1 1 1 (1)
I0205 14:44:03.229528   377 net.cpp:67] Creating Layer loss
I0205 14:44:03.229542   377 net.cpp:394] loss <- fc5_fc5_0_split_2
I0205 14:44:03.229553   377 net.cpp:394] loss <- label_data_1_split_2
I0205 14:44:03.229567   377 net.cpp:356] loss -> loss
I0205 14:44:03.229580   377 net.cpp:96] Setting up loss
I0205 14:44:03.229600   377 net.cpp:103] Top shape: 1 1 1 1 (1)
I0205 14:44:03.229612   377 net.cpp:109]     with loss weight 1
I0205 14:44:03.229636   377 net.cpp:170] loss needs backward computation.
I0205 14:44:03.229648   377 net.cpp:172] accuracy-top5 does not need backward computation.
I0205 14:44:03.229661   377 net.cpp:172] accuracy-top1 does not need backward computation.
I0205 14:44:03.229672   377 net.cpp:170] fc5_fc5_0_split needs backward computation.
…
