…
I0203 20:27:04.582370 24365 net.cpp:275] The NetState phase (0) differed from the phase (1) specified by a rule in layer data
I0203 20:27:04.582427 24365 net.cpp:275] The NetState phase (0) differed from the phase (1) specified by a rule in layer accuracy-top1
I0203 20:27:04.582443 24365 net.cpp:275] The NetState phase (0) differed from the phase (1) specified by a rule in layer accuracy-top5
I0203 20:27:04.582468 24365 net.cpp:39] Initializing net from parameters: 
name: "BUS_RIO"
layers {
  top: "data"
  top: "label"
  name: "data"
  type: HDF5_DATA
  hdf5_data_param {
    source: "/work/rfn216/bus_rio/hdf5_small/train.h5.txt"
    batch_size: 50
  }
  include {
    phase: TRAIN
  }
}
layers {
  bottom: "data"
  top: "conv1-1"
  name: "conv1-1"
  type: CONVOLUTION
  blobs_lr: 1
  blobs_lr: 2
  weight_decay: 1
  weight_decay: 0
  convolution_param {
    num_output: 64
    weight_filler {
      type: "gaussian"
      std: 0.01
    }
    bias_filler {
      type: "constant"
      value: 0
    }
    kernel_h: 1
    kernel_w: 3
  }
}
layers {
  bottom: "conv1-1"
  top: "conv1-1"
  name: "relu1-1"
  type: RELU
}
layers {
  bottom: "conv1-1"
  top: "conv1-2"
  name: "conv1-2"
  type: CONVOLUTION
  blobs_lr: 1
  blobs_lr: 2
  weight_decay: 1
  weight_decay: 0
  convolution_param {
    num_output: 64
    weight_filler {
      type: "gaussian"
      std: 0.01
    }
    bias_filler {
      type: "constant"
      value: 0
    }
    kernel_h: 1
    kernel_w: 3
  }
}
layers {
  bottom: "conv1-2"
  top: "conv1-2"
  name: "relu1-2"
  type: RELU
}
layers {
  bottom: "conv1-2"
  top: "pool1"
  name: "pool1"
  type: POOLING
  pooling_param {
    pool: MAX
    kernel_h: 1
    kernel_w: 2
    stride_h: 1
    stride_w: 2
  }
}
layers {
  bottom: "pool1"
  top: "conv2-1"
  name: "conv2-1"
  type: CONVOLUTION
  blobs_lr: 1
  blobs_lr: 2
  weight_decay: 1
  weight_decay: 0
  convolution_param {
    num_output: 128
    weight_filler {
      type: "gaussian"
      std: 0.01
    }
    bias_filler {
      type: "constant"
      value: 0
    }
    kernel_h: 1
    kernel_w: 3
  }
}
layers {
  bottom: "conv2-1"
  top: "conv2-1"
  name: "relu2-1"
  type: RELU
}
layers {
  bottom: "conv2-1"
  top: "conv2-2"
  name: "conv2-2"
  type: CONVOLUTION
  blobs_lr: 1
  blobs_lr: 2
  weight_decay: 1
  weight_decay: 0
  convolution_param {
    num_output: 128
    weight_filler {
      type: "gaussian"
      std: 0.01
    }
    bias_filler {
      type: "constant"
      value: 0
    }
    kernel_h: 1
    kernel_w: 3
  }
}
layers {
  bottom: "conv2-2"
  top: "conv2-2"
  name: "relu2-2"
  type: RELU
}
layers {
  bottom: "conv2-2"
  top: "pool2"
  name: "pool2"
  type: POOLING
  pooling_param {
    pool: MAX
    kernel_h: 1
    kernel_w: 2
    stride_h: 1
    stride_w: 2
  }
}
layers {
  bottom: "pool2"
  top: "fc3"
  name: "fc3"
  type: INNER_PRODUCT
  blobs_lr: 1
  blobs_lr: 2
  weight_decay: 1
  weight_decay: 0
  inner_product_param {
    num_output: 300
    weight_filler {
      type: "gaussian"
      std: 0.01
    }
    bias_filler {
      type: "constant"
      value: 1
    }
  }
}
layers {
  bottom: "fc3"
  top: "fc3"
  name: "relu3"
  type: RELU
}
layers {
  bottom: "fc3"
  top: "fc3"
  name: "drop3"
  type: DROPOUT
  dropout_param {
    dropout_ratio: 0.5
  }
}
layers {
  bottom: "fc3"
  top: "fc4"
  name: "fc4"
  type: INNER_PRODUCT
  blobs_lr: 1
  blobs_lr: 2
  weight_decay: 1
  weight_decay: 0
  inner_product_param {
    num_output: 300
    weight_filler {
      type: "gaussian"
      std: 0.01
    }
    bias_filler {
      type: "constant"
      value: 1
    }
  }
}
layers {
  bottom: "fc4"
  top: "fc4"
  name: "relu4"
  type: RELU
}
layers {
  bottom: "fc4"
  top: "fc4"
  name: "drop4"
  type: DROPOUT
  dropout_param {
    dropout_ratio: 0.5
  }
}
layers {
  bottom: "fc4"
  top: "fc5"
  name: "fc5"
  type: INNER_PRODUCT
  blobs_lr: 1
  blobs_lr: 2
  weight_decay: 1
  weight_decay: 0
  inner_product_param {
    num_output: 486
    weight_filler {
      type: "gaussian"
      std: 0.01
    }
    bias_filler {
      type: "constant"
      value: 0
    }
  }
}
layers {
  bottom: "fc5"
  bottom: "label"
  top: "loss"
  name: "loss"
  type: SOFTMAX_LOSS
}
state {
  phase: TRAIN
}
I0203 20:27:04.582898 24365 net.cpp:67] Creating Layer data
I0203 20:27:04.582931 24365 net.cpp:356] data -> data
I0203 20:27:04.583003 24365 net.cpp:356] data -> label
I0203 20:27:04.583034 24365 net.cpp:96] Setting up data
I0203 20:27:04.583052 24365 hdf5_data_layer.cpp:57] Loading filename from /work/rfn216/bus_rio/hdf5_small/train.h5.txt
I0203 20:27:04.758806 24365 hdf5_data_layer.cpp:69] Number of files: 5645
I0203 20:27:04.799332 24365 hdf5_data_layer.cpp:81] output data size: 50,3,1,20
I0203 20:27:04.799372 24365 net.cpp:103] Top shape: 50 3 1 20 (3000)
I0203 20:27:04.799389 24365 net.cpp:103] Top shape: 50 1 1 1 (50)
I0203 20:27:04.799417 24365 net.cpp:67] Creating Layer conv1-1
I0203 20:27:04.799434 24365 net.cpp:394] conv1-1 <- data
I0203 20:27:04.799465 24365 net.cpp:356] conv1-1 -> conv1-1
I0203 20:27:04.799504 24365 net.cpp:96] Setting up conv1-1
I0203 20:27:04.800200 24365 net.cpp:103] Top shape: 50 64 1 18 (57600)
I0203 20:27:04.800271 24365 net.cpp:67] Creating Layer relu1-1
I0203 20:27:04.800287 24365 net.cpp:394] relu1-1 <- conv1-1
I0203 20:27:04.800302 24365 net.cpp:345] relu1-1 -> conv1-1 (in-place)
I0203 20:27:04.800321 24365 net.cpp:96] Setting up relu1-1
I0203 20:27:04.800340 24365 net.cpp:103] Top shape: 50 64 1 18 (57600)
I0203 20:27:04.800357 24365 net.cpp:67] Creating Layer conv1-2
I0203 20:27:04.800369 24365 net.cpp:394] conv1-2 <- conv1-1
I0203 20:27:04.800384 24365 net.cpp:356] conv1-2 -> conv1-2
I0203 20:27:04.800400 24365 net.cpp:96] Setting up conv1-2
I0203 20:27:04.800768 24365 net.cpp:103] Top shape: 50 64 1 16 (51200)
I0203 20:27:04.800791 24365 net.cpp:67] Creating Layer relu1-2
I0203 20:27:04.800804 24365 net.cpp:394] relu1-2 <- conv1-2
I0203 20:27:04.800818 24365 net.cpp:345] relu1-2 -> conv1-2 (in-place)
I0203 20:27:04.800832 24365 net.cpp:96] Setting up relu1-2
I0203 20:27:04.800845 24365 net.cpp:103] Top shape: 50 64 1 16 (51200)
I0203 20:27:04.800859 24365 net.cpp:67] Creating Layer pool1
I0203 20:27:04.800873 24365 net.cpp:394] pool1 <- conv1-2
I0203 20:27:04.800886 24365 net.cpp:356] pool1 -> pool1
I0203 20:27:04.800909 24365 net.cpp:96] Setting up pool1
I0203 20:27:04.800933 24365 net.cpp:103] Top shape: 50 64 1 8 (25600)
I0203 20:27:04.800951 24365 net.cpp:67] Creating Layer conv2-1
I0203 20:27:04.800964 24365 net.cpp:394] conv2-1 <- pool1
I0203 20:27:04.800978 24365 net.cpp:356] conv2-1 -> conv2-1
I0203 20:27:04.800994 24365 net.cpp:96] Setting up conv2-1
I0203 20:27:04.801712 24365 net.cpp:103] Top shape: 50 128 1 6 (38400)
I0203 20:27:04.801738 24365 net.cpp:67] Creating Layer relu2-1
I0203 20:27:04.801749 24365 net.cpp:394] relu2-1 <- conv2-1
I0203 20:27:04.801764 24365 net.cpp:345] relu2-1 -> conv2-1 (in-place)
I0203 20:27:04.801777 24365 net.cpp:96] Setting up relu2-1
I0203 20:27:04.801789 24365 net.cpp:103] Top shape: 50 128 1 6 (38400)
I0203 20:27:04.801805 24365 net.cpp:67] Creating Layer conv2-2
I0203 20:27:04.801817 24365 net.cpp:394] conv2-2 <- conv2-1
I0203 20:27:04.801831 24365 net.cpp:356] conv2-2 -> conv2-2
I0203 20:27:04.801857 24365 net.cpp:96] Setting up conv2-2
I0203 20:27:04.803315 24365 net.cpp:103] Top shape: 50 128 1 4 (25600)
I0203 20:27:04.803340 24365 net.cpp:67] Creating Layer relu2-2
I0203 20:27:04.803365 24365 net.cpp:394] relu2-2 <- conv2-2
I0203 20:27:04.803410 24365 net.cpp:345] relu2-2 -> conv2-2 (in-place)
I0203 20:27:04.803426 24365 net.cpp:96] Setting up relu2-2
I0203 20:27:04.803437 24365 net.cpp:103] Top shape: 50 128 1 4 (25600)
I0203 20:27:04.803452 24365 net.cpp:67] Creating Layer pool2
I0203 20:27:04.803462 24365 net.cpp:394] pool2 <- conv2-2
I0203 20:27:04.803477 24365 net.cpp:356] pool2 -> pool2
I0203 20:27:04.803491 24365 net.cpp:96] Setting up pool2
I0203 20:27:04.803505 24365 net.cpp:103] Top shape: 50 128 1 2 (12800)
I0203 20:27:04.803520 24365 net.cpp:67] Creating Layer fc3
I0203 20:27:04.803532 24365 net.cpp:394] fc3 <- pool2
I0203 20:27:04.803546 24365 net.cpp:356] fc3 -> fc3
I0203 20:27:04.803571 24365 net.cpp:96] Setting up fc3
I0203 20:27:04.805979 24365 net.cpp:103] Top shape: 50 300 1 1 (15000)
I0203 20:27:04.806009 24365 net.cpp:67] Creating Layer relu3
I0203 20:27:04.806021 24365 net.cpp:394] relu3 <- fc3
I0203 20:27:04.806035 24365 net.cpp:345] relu3 -> fc3 (in-place)
I0203 20:27:04.806054 24365 net.cpp:96] Setting up relu3
I0203 20:27:04.806066 24365 net.cpp:103] Top shape: 50 300 1 1 (15000)
I0203 20:27:04.806079 24365 net.cpp:67] Creating Layer drop3
I0203 20:27:04.806102 24365 net.cpp:394] drop3 <- fc3
I0203 20:27:04.806113 24365 net.cpp:345] drop3 -> fc3 (in-place)
I0203 20:27:04.806134 24365 net.cpp:96] Setting up drop3
I0203 20:27:04.806155 24365 net.cpp:103] Top shape: 50 300 1 1 (15000)
I0203 20:27:04.806171 24365 net.cpp:67] Creating Layer fc4
I0203 20:27:04.806182 24365 net.cpp:394] fc4 <- fc3
I0203 20:27:04.806196 24365 net.cpp:356] fc4 -> fc4
I0203 20:27:04.806216 24365 net.cpp:96] Setting up fc4
I0203 20:27:04.808827 24365 net.cpp:103] Top shape: 50 300 1 1 (15000)
I0203 20:27:04.808852 24365 net.cpp:67] Creating Layer relu4
I0203 20:27:04.808864 24365 net.cpp:394] relu4 <- fc4
I0203 20:27:04.808876 24365 net.cpp:345] relu4 -> fc4 (in-place)
I0203 20:27:04.808890 24365 net.cpp:96] Setting up relu4
I0203 20:27:04.808902 24365 net.cpp:103] Top shape: 50 300 1 1 (15000)
I0203 20:27:04.808915 24365 net.cpp:67] Creating Layer drop4
I0203 20:27:04.808926 24365 net.cpp:394] drop4 <- fc4
I0203 20:27:04.808938 24365 net.cpp:345] drop4 -> fc4 (in-place)
I0203 20:27:04.808953 24365 net.cpp:96] Setting up drop4
I0203 20:27:04.808964 24365 net.cpp:103] Top shape: 50 300 1 1 (15000)
I0203 20:27:04.808977 24365 net.cpp:67] Creating Layer fc5
I0203 20:27:04.808989 24365 net.cpp:394] fc5 <- fc4
I0203 20:27:04.809001 24365 net.cpp:356] fc5 -> fc5
I0203 20:27:04.809015 24365 net.cpp:96] Setting up fc5
I0203 20:27:04.813256 24365 net.cpp:103] Top shape: 50 486 1 1 (24300)
I0203 20:27:04.813285 24365 net.cpp:67] Creating Layer loss
I0203 20:27:04.813298 24365 net.cpp:394] loss <- fc5
I0203 20:27:04.813310 24365 net.cpp:394] loss <- label
I0203 20:27:04.813325 24365 net.cpp:356] loss -> loss
I0203 20:27:04.813344 24365 net.cpp:96] Setting up loss
I0203 20:27:04.813371 24365 net.cpp:103] Top shape: 1 1 1 1 (1)
I0203 20:27:04.813383 24365 net.cpp:109]     with loss weight 1
I0203 20:27:04.813429 24365 net.cpp:170] loss needs backward computation.
I0203 20:27:04.813444 24365 net.cpp:170] fc5 needs backward computation.
I0203 20:27:04.813457 24365 net.cpp:170] drop4 needs backward computation.
I0203 20:27:04.813467 24365 net.cpp:170] relu4 needs backward computation.
I0203 20:27:04.813477 24365 net.cpp:170] fc4 needs backward computation.
…
I0203 20:27:04.813706 24365 net.cpp:220] Memory required for data: 2005404
I0203 20:27:04.814713 24365 solver.cpp:151] Creating test net (#0) specified by net file: /home/rfn216/BusRio/train.prototxt
I0203 20:27:04.814774 24365 net.cpp:275] The NetState phase (1) differed from the phase (0) specified by a rule in layer data
I0203 20:27:04.814802 24365 net.cpp:39] Initializing net from parameters: 
name: "BUS_RIO"
layers {
  top: "data"
  top: "label"
  name: "data"
  type: HDF5_DATA
  hdf5_data_param {
    source: "/work/rfn216/bus_rio/hdf5_small/test.h5.txt"
    batch_size: 50
  }
  include {
    phase: TEST
  }
}
layers {
  bottom: "data"
  top: "conv1-1"
  name: "conv1-1"
  type: CONVOLUTION
  blobs_lr: 1
  blobs_lr: 2
  weight_decay: 1
  weight_decay: 0
  convolution_param {
    num_output: 64
    weight_filler {
      type: "gaussian"
      std: 0.01
    }
    bias_filler {
      type: "constant"
      value: 0
    }
    kernel_h: 1
    kernel_w: 3
  }
}
layers {
  bottom: "conv1-1"
  top: "conv1-1"
  name: "relu1-1"
  type: RELU
}
layers {
  bottom: "conv1-1"
  top: "conv1-2"
  name: "conv1-2"
  type: CONVOLUTION
  blobs_lr: 1
  blobs_lr: 2
  weight_decay: 1
  weight_decay: 0
  convolution_param {
    num_output: 64
    weight_filler {
      type: "gaussian"
      std: 0.01
    }
    bias_filler {
      type: "constant"
      value: 0
    }
    kernel_h: 1
    kernel_w: 3
  }
}
layers {
  bottom: "conv1-2"
  top: "conv1-2"
  name: "relu1-2"
  type: RELU
}
layers {
  bottom: "conv1-2"
  top: "pool1"
  name: "pool1"
  type: POOLING
  pooling_param {
    pool: MAX
    kernel_h: 1
    kernel_w: 2
    stride_h: 1
    stride_w: 2
  }
}
layers {
  bottom: "pool1"
  top: "conv2-1"
  name: "conv2-1"
  type: CONVOLUTION
  blobs_lr: 1
  blobs_lr: 2
  weight_decay: 1
  weight_decay: 0
  convolution_param {
    num_output: 128
    weight_filler {
      type: "gaussian"
      std: 0.01
    }
    bias_filler {
      type: "constant"
      value: 0
    }
    kernel_h: 1
    kernel_w: 3
  }
}
layers {
  bottom: "conv2-1"
  top: "conv2-1"
  name: "relu2-1"
  type: RELU
}
layers {
  bottom: "conv2-1"
  top: "conv2-2"
  name: "conv2-2"
  type: CONVOLUTION
  blobs_lr: 1
  blobs_lr: 2
  weight_decay: 1
  weight_decay: 0
  convolution_param {
    num_output: 128
    weight_filler {
      type: "gaussian"
      std: 0.01
    }
    bias_filler {
      type: "constant"
      value: 0
    }
    kernel_h: 1
    kernel_w: 3
  }
}
layers {
  bottom: "conv2-2"
  top: "conv2-2"
  name: "relu2-2"
  type: RELU
}
layers {
  bottom: "conv2-2"
  top: "pool2"
  name: "pool2"
  type: POOLING
  pooling_param {
    pool: MAX
    kernel_h: 1
    kernel_w: 2
    stride_h: 1
    stride_w: 2
  }
}
layers {
  bottom: "pool2"
  top: "fc3"
  name: "fc3"
  type: INNER_PRODUCT
  blobs_lr: 1
  blobs_lr: 2
  weight_decay: 1
  weight_decay: 0
  inner_product_param {
    num_output: 300
    weight_filler {
      type: "gaussian"
      std: 0.01
    }
    bias_filler {
      type: "constant"
      value: 1
    }
  }
}
layers {
  bottom: "fc3"
  top: "fc3"
  name: "relu3"
  type: RELU
}
layers {
  bottom: "fc3"
  top: "fc3"
  name: "drop3"
  type: DROPOUT
  dropout_param {
    dropout_ratio: 0.5
  }
}
layers {
  bottom: "fc3"
  top: "fc4"
  name: "fc4"
  type: INNER_PRODUCT
  blobs_lr: 1
  blobs_lr: 2
  weight_decay: 1
  weight_decay: 0
  inner_product_param {
    num_output: 300
    weight_filler {
      type: "gaussian"
      std: 0.01
    }
    bias_filler {
      type: "constant"
      value: 1
    }
  }
}
layers {
  bottom: "fc4"
  top: "fc4"
  name: "relu4"
  type: RELU
}
layers {
  bottom: "fc4"
  top: "fc4"
  name: "drop4"
  type: DROPOUT
  dropout_param {
    dropout_ratio: 0.5
  }
}
layers {
  bottom: "fc4"
  top: "fc5"
  name: "fc5"
  type: INNER_PRODUCT
  blobs_lr: 1
  blobs_lr: 2
  weight_decay: 1
  weight_decay: 0
  inner_product_param {
    num_output: 486
    weight_filler {
      type: "gaussian"
      std: 0.01
    }
    bias_filler {
      type: "constant"
      value: 0
    }
  }
}
layers {
  bottom: "fc5"
  bottom: "label"
  top: "accuracy-top1"
  name: "accuracy-top1"
  type: ACCURACY
  include {
    phase: TEST
  }
}
layers {
  bottom: "fc5"
  bottom: "label"
  top: "accuracy-top5"
  name: "accuracy-top5"
  type: ACCURACY
  accuracy_param {
    top_k: 5
  }
  include {
    phase: TEST
  }
}
layers {
  bottom: "fc5"
  bottom: "label"
  top: "loss"
  name: "loss"
  type: SOFTMAX_LOSS
}
state {
  phase: TEST
}
I0203 20:27:04.815125 24365 net.cpp:67] Creating Layer data
I0203 20:27:04.815147 24365 net.cpp:356] data -> data
I0203 20:27:04.815166 24365 net.cpp:356] data -> label
I0203 20:27:04.815208 24365 net.cpp:96] Setting up data
I0203 20:27:04.815222 24365 hdf5_data_layer.cpp:57] Loading filename from /work/rfn216/bus_rio/hdf5_small/test.h5.txt
I0203 20:27:04.876880 24365 hdf5_data_layer.cpp:69] Number of files: 1000
I0203 20:27:04.916996 24365 hdf5_data_layer.cpp:81] output data size: 50,3,1,20
I0203 20:27:04.917013 24365 net.cpp:103] Top shape: 50 3 1 20 (3000)
I0203 20:27:04.917026 24365 net.cpp:103] Top shape: 50 1 1 1 (50)
I0203 20:27:04.917048 24365 net.cpp:67] Creating Layer label_data_1_split
I0203 20:27:04.917062 24365 net.cpp:394] label_data_1_split <- label
I0203 20:27:04.917076 24365 net.cpp:356] label_data_1_split -> label_data_1_split_0
I0203 20:27:04.917099 24365 net.cpp:356] label_data_1_split -> label_data_1_split_1
I0203 20:27:04.917115 24365 net.cpp:356] label_data_1_split -> label_data_1_split_2
I0203 20:27:04.917130 24365 net.cpp:96] Setting up label_data_1_split
I0203 20:27:04.917148 24365 net.cpp:103] Top shape: 50 1 1 1 (50)
I0203 20:27:04.917160 24365 net.cpp:103] Top shape: 50 1 1 1 (50)
I0203 20:27:04.917171 24365 net.cpp:103] Top shape: 50 1 1 1 (50)
I0203 20:27:04.917187 24365 net.cpp:67] Creating Layer conv1-1
I0203 20:27:04.917199 24365 net.cpp:394] conv1-1 <- data
I0203 20:27:04.917219 24365 net.cpp:356] conv1-1 -> conv1-1
I0203 20:27:04.917237 24365 net.cpp:96] Setting up conv1-1
I0203 20:27:04.917284 24365 net.cpp:103] Top shape: 50 64 1 18 (57600)
I0203 20:27:04.917309 24365 net.cpp:67] Creating Layer relu1-1
I0203 20:27:04.917320 24365 net.cpp:394] relu1-1 <- conv1-1
I0203 20:27:04.917333 24365 net.cpp:345] relu1-1 -> conv1-1 (in-place)
I0203 20:27:04.917348 24365 net.cpp:96] Setting up relu1-1
I0203 20:27:04.917361 24365 net.cpp:103] Top shape: 50 64 1 18 (57600)
I0203 20:27:04.917376 24365 net.cpp:67] Creating Layer conv1-2
I0203 20:27:04.917387 24365 net.cpp:394] conv1-2 <- conv1-1
I0203 20:27:04.917402 24365 net.cpp:356] conv1-2 -> conv1-2
I0203 20:27:04.917417 24365 net.cpp:96] Setting up conv1-2
I0203 20:27:04.917769 24365 net.cpp:103] Top shape: 50 64 1 16 (51200)
I0203 20:27:04.917791 24365 net.cpp:67] Creating Layer relu1-2
I0203 20:27:04.917804 24365 net.cpp:394] relu1-2 <- conv1-2
I0203 20:27:04.917815 24365 net.cpp:345] relu1-2 -> conv1-2 (in-place)
I0203 20:27:04.917829 24365 net.cpp:96] Setting up relu1-2
I0203 20:27:04.917840 24365 net.cpp:103] Top shape: 50 64 1 16 (51200)
I0203 20:27:04.917855 24365 net.cpp:67] Creating Layer pool1
I0203 20:27:04.917865 24365 net.cpp:394] pool1 <- conv1-2
I0203 20:27:04.917879 24365 net.cpp:356] pool1 -> pool1
I0203 20:27:04.917894 24365 net.cpp:96] Setting up pool1
I0203 20:27:04.917909 24365 net.cpp:103] Top shape: 50 64 1 8 (25600)
I0203 20:27:04.917942 24365 net.cpp:67] Creating Layer conv2-1
I0203 20:27:04.917990 24365 net.cpp:394] conv2-1 <- pool1
I0203 20:27:04.918004 24365 net.cpp:356] conv2-1 -> conv2-1
I0203 20:27:04.918021 24365 net.cpp:96] Setting up conv2-1
I0203 20:27:04.918714 24365 net.cpp:103] Top shape: 50 128 1 6 (38400)
I0203 20:27:04.918740 24365 net.cpp:67] Creating Layer relu2-1
I0203 20:27:04.918751 24365 net.cpp:394] relu2-1 <- conv2-1
I0203 20:27:04.918763 24365 net.cpp:345] relu2-1 -> conv2-1 (in-place)
I0203 20:27:04.918777 24365 net.cpp:96] Setting up relu2-1
I0203 20:27:04.918789 24365 net.cpp:103] Top shape: 50 128 1 6 (38400)
I0203 20:27:04.918803 24365 net.cpp:67] Creating Layer conv2-2
I0203 20:27:04.918814 24365 net.cpp:394] conv2-2 <- conv2-1
I0203 20:27:04.918828 24365 net.cpp:356] conv2-2 -> conv2-2
I0203 20:27:04.918843 24365 net.cpp:96] Setting up conv2-2
I0203 20:27:04.920202 24365 net.cpp:103] Top shape: 50 128 1 4 (25600)
I0203 20:27:04.920230 24365 net.cpp:67] Creating Layer relu2-2
I0203 20:27:04.920243 24365 net.cpp:394] relu2-2 <- conv2-2
I0203 20:27:04.920255 24365 net.cpp:345] relu2-2 -> conv2-2 (in-place)
I0203 20:27:04.920269 24365 net.cpp:96] Setting up relu2-2
I0203 20:27:04.920280 24365 net.cpp:103] Top shape: 50 128 1 4 (25600)
I0203 20:27:04.920292 24365 net.cpp:67] Creating Layer pool2
I0203 20:27:04.920303 24365 net.cpp:394] pool2 <- conv2-2
I0203 20:27:04.920316 24365 net.cpp:356] pool2 -> pool2
I0203 20:27:04.920331 24365 net.cpp:96] Setting up pool2
I0203 20:27:04.920343 24365 net.cpp:103] Top shape: 50 128 1 2 (12800)
I0203 20:27:04.920358 24365 net.cpp:67] Creating Layer fc3
I0203 20:27:04.920369 24365 net.cpp:394] fc3 <- pool2
I0203 20:27:04.920382 24365 net.cpp:356] fc3 -> fc3
I0203 20:27:04.920397 24365 net.cpp:96] Setting up fc3
I0203 20:27:04.922577 24365 net.cpp:103] Top shape: 50 300 1 1 (15000)
I0203 20:27:04.922606 24365 net.cpp:67] Creating Layer relu3
I0203 20:27:04.922619 24365 net.cpp:394] relu3 <- fc3
I0203 20:27:04.922632 24365 net.cpp:345] relu3 -> fc3 (in-place)
I0203 20:27:04.922646 24365 net.cpp:96] Setting up relu3
I0203 20:27:04.922657 24365 net.cpp:103] Top shape: 50 300 1 1 (15000)
I0203 20:27:04.922670 24365 net.cpp:67] Creating Layer drop3
I0203 20:27:04.922682 24365 net.cpp:394] drop3 <- fc3
I0203 20:27:04.922695 24365 net.cpp:345] drop3 -> fc3 (in-place)
I0203 20:27:04.922710 24365 net.cpp:96] Setting up drop3
I0203 20:27:04.922722 24365 net.cpp:103] Top shape: 50 300 1 1 (15000)
I0203 20:27:04.922736 24365 net.cpp:67] Creating Layer fc4
I0203 20:27:04.922747 24365 net.cpp:394] fc4 <- fc3
I0203 20:27:04.922763 24365 net.cpp:356] fc4 -> fc4
I0203 20:27:04.922778 24365 net.cpp:96] Setting up fc4
I0203 20:27:04.925395 24365 net.cpp:103] Top shape: 50 300 1 1 (15000)
I0203 20:27:04.925423 24365 net.cpp:67] Creating Layer relu4
I0203 20:27:04.925436 24365 net.cpp:394] relu4 <- fc4
I0203 20:27:04.925448 24365 net.cpp:345] relu4 -> fc4 (in-place)
I0203 20:27:04.925462 24365 net.cpp:96] Setting up relu4
I0203 20:27:04.925473 24365 net.cpp:103] Top shape: 50 300 1 1 (15000)
I0203 20:27:04.925487 24365 net.cpp:67] Creating Layer drop4
I0203 20:27:04.925498 24365 net.cpp:394] drop4 <- fc4
I0203 20:27:04.925513 24365 net.cpp:345] drop4 -> fc4 (in-place)
I0203 20:27:04.925526 24365 net.cpp:96] Setting up drop4
I0203 20:27:04.925539 24365 net.cpp:103] Top shape: 50 300 1 1 (15000)
I0203 20:27:04.925552 24365 net.cpp:67] Creating Layer fc5
I0203 20:27:04.925564 24365 net.cpp:394] fc5 <- fc4
I0203 20:27:04.925576 24365 net.cpp:356] fc5 -> fc5
I0203 20:27:04.925591 24365 net.cpp:96] Setting up fc5
I0203 20:27:04.929824 24365 net.cpp:103] Top shape: 50 486 1 1 (24300)
I0203 20:27:04.929852 24365 net.cpp:67] Creating Layer fc5_fc5_0_split
I0203 20:27:04.929863 24365 net.cpp:394] fc5_fc5_0_split <- fc5
I0203 20:27:04.929878 24365 net.cpp:356] fc5_fc5_0_split -> fc5_fc5_0_split_0
I0203 20:27:04.929894 24365 net.cpp:356] fc5_fc5_0_split -> fc5_fc5_0_split_1
I0203 20:27:04.929911 24365 net.cpp:356] fc5_fc5_0_split -> fc5_fc5_0_split_2
I0203 20:27:04.929929 24365 net.cpp:96] Setting up fc5_fc5_0_split
I0203 20:27:04.929949 24365 net.cpp:103] Top shape: 50 486 1 1 (24300)
I0203 20:27:04.929975 24365 net.cpp:103] Top shape: 50 486 1 1 (24300)
I0203 20:27:04.929986 24365 net.cpp:103] Top shape: 50 486 1 1 (24300)
I0203 20:27:04.930001 24365 net.cpp:67] Creating Layer accuracy-top1
I0203 20:27:04.930012 24365 net.cpp:394] accuracy-top1 <- fc5_fc5_0_split_0
I0203 20:27:04.930024 24365 net.cpp:394] accuracy-top1 <- label_data_1_split_0
I0203 20:27:04.930037 24365 net.cpp:356] accuracy-top1 -> accuracy-top1
I0203 20:27:04.930052 24365 net.cpp:96] Setting up accuracy-top1
I0203 20:27:04.930066 24365 net.cpp:103] Top shape: 1 1 1 1 (1)
I0203 20:27:04.930083 24365 net.cpp:67] Creating Layer accuracy-top5
I0203 20:27:04.930095 24365 net.cpp:394] accuracy-top5 <- fc5_fc5_0_split_1
I0203 20:27:04.930106 24365 net.cpp:394] accuracy-top5 <- label_data_1_split_1
I0203 20:27:04.930119 24365 net.cpp:356] accuracy-top5 -> accuracy-top5
I0203 20:27:04.930135 24365 net.cpp:96] Setting up accuracy-top5
I0203 20:27:04.930146 24365 net.cpp:103] Top shape: 1 1 1 1 (1)
I0203 20:27:04.930162 24365 net.cpp:67] Creating Layer loss
I0203 20:27:04.930174 24365 net.cpp:394] loss <- fc5_fc5_0_split_2
I0203 20:27:04.930186 24365 net.cpp:394] loss <- label_data_1_split_2
I0203 20:27:04.930198 24365 net.cpp:356] loss -> loss
I0203 20:27:04.930220 24365 net.cpp:96] Setting up loss
I0203 20:27:04.930241 24365 net.cpp:103] Top shape: 1 1 1 1 (1)
I0203 20:27:04.930253 24365 net.cpp:109]     with loss weight 1
I0203 20:27:04.930274 24365 net.cpp:170] loss needs backward computation.
I0203 20:27:04.930284 24365 net.cpp:172] accuracy-top5 does not need backward computation.
I0203 20:27:04.930294 24365 net.cpp:172] accuracy-top1 does not need backward computation.
I0203 20:27:04.930305 24365 net.cpp:170] fc5_fc5_0_split needs backward computation.
…
