…
I0205 23:44:21.872251 19766 net.cpp:275] The NetState phase (0) differed from the phase (1) specified by a rule in layer data
I0205 23:44:21.872310 19766 net.cpp:275] The NetState phase (0) differed from the phase (1) specified by a rule in layer accuracy-top1
I0205 23:44:21.872331 19766 net.cpp:275] The NetState phase (0) differed from the phase (1) specified by a rule in layer accuracy-top5
I0205 23:44:21.872362 19766 net.cpp:39] Initializing net from parameters: 
name: "BUS_RIO"
layers {
  top: "data"
  top: "label"
  name: "data"
  type: HDF5_DATA
  hdf5_data_param {
    source: "/work/rfn216/bus_rio/train.h5.txt"
    batch_size: 50
  }
  include {
    phase: TRAIN
  }
}
layers {
  bottom: "data"
  top: "conv1-1"
  name: "conv1-1"
  type: CONVOLUTION
  blobs_lr: 1
  blobs_lr: 2
  weight_decay: 1
  weight_decay: 0
  convolution_param {
    num_output: 64
    pad: 1
    weight_filler {
      type: "gaussian"
      std: 0.01
    }
    bias_filler {
      type: "constant"
      value: 0
    }
    kernel_h: 1
    kernel_w: 3
  }
}
layers {
  bottom: "conv1-1"
  top: "conv1-1"
  name: "relu1-1"
  type: RELU
}
layers {
  bottom: "conv1-1"
  top: "pool1"
  name: "pool1"
  type: POOLING
  pooling_param {
    pool: MAX
    kernel_h: 1
    kernel_w: 2
    stride_h: 1
    stride_w: 2
  }
}
layers {
  bottom: "pool1"
  top: "conv2-1"
  name: "conv2-1"
  type: CONVOLUTION
  blobs_lr: 1
  blobs_lr: 2
  weight_decay: 1
  weight_decay: 0
  convolution_param {
    num_output: 128
    pad: 1
    weight_filler {
      type: "gaussian"
      std: 0.01
    }
    bias_filler {
      type: "constant"
      value: 0
    }
    kernel_h: 1
    kernel_w: 3
  }
}
layers {
  bottom: "conv2-1"
  top: "conv2-1"
  name: "relu2-1"
  type: RELU
}
layers {
  bottom: "conv2-1"
  top: "pool2"
  name: "pool2"
  type: POOLING
  pooling_param {
    pool: MAX
    kernel_h: 1
    kernel_w: 2
    stride_h: 1
    stride_w: 2
  }
}
layers {
  bottom: "pool2"
  top: "fc3"
  name: "fc3"
  type: INNER_PRODUCT
  blobs_lr: 1
  blobs_lr: 2
  weight_decay: 1
  weight_decay: 0
  inner_product_param {
    num_output: 600
    weight_filler {
      type: "gaussian"
      std: 0.01
    }
    bias_filler {
      type: "constant"
      value: 1
    }
  }
}
layers {
  bottom: "fc3"
  top: "fc3"
  name: "relu3"
  type: RELU
}
layers {
  bottom: "fc3"
  top: "fc3"
  name: "drop3"
  type: DROPOUT
  dropout_param {
    dropout_ratio: 0.5
  }
}
layers {
  bottom: "fc3"
  top: "fc4"
  name: "fc4"
  type: INNER_PRODUCT
  blobs_lr: 1
  blobs_lr: 2
  weight_decay: 1
  weight_decay: 0
  inner_product_param {
    num_output: 600
    weight_filler {
      type: "gaussian"
      std: 0.01
    }
    bias_filler {
      type: "constant"
      value: 1
    }
  }
}
layers {
  bottom: "fc4"
  top: "fc4"
  name: "relu4"
  type: RELU
}
layers {
  bottom: "fc4"
  top: "fc4"
  name: "drop4"
  type: DROPOUT
  dropout_param {
    dropout_ratio: 0.5
  }
}
layers {
  bottom: "fc4"
  top: "fc5"
  name: "fc5"
  type: INNER_PRODUCT
  blobs_lr: 1
  blobs_lr: 2
  weight_decay: 1
  weight_decay: 0
  inner_product_param {
    num_output: 486
    weight_filler {
      type: "gaussian"
      std: 0.01
    }
    bias_filler {
      type: "constant"
      value: 0
    }
  }
}
layers {
  bottom: "fc5"
  bottom: "label"
  top: "loss"
  name: "loss"
  type: SOFTMAX_LOSS
}
state {
  phase: TRAIN
}
I0205 23:44:21.872776 19766 net.cpp:67] Creating Layer data
I0205 23:44:21.872812 19766 net.cpp:356] data -> data
I0205 23:44:21.872898 19766 net.cpp:356] data -> label
I0205 23:44:21.872959 19766 net.cpp:96] Setting up data
I0205 23:44:21.873031 19766 hdf5_data_layer.cpp:57] Loading filename from /work/rfn216/bus_rio/train.h5.txt
I0205 23:44:22.118758 19766 hdf5_data_layer.cpp:69] Number of files: 439093
I0205 23:44:22.122342 19766 hdf5_data_layer.cpp:81] output data size: 50,3,1,20
I0205 23:44:22.122396 19766 net.cpp:103] Top shape: 50 3 1 20 (3000)
I0205 23:44:22.122424 19766 net.cpp:103] Top shape: 50 1 1 1 (50)
I0205 23:44:22.122460 19766 net.cpp:67] Creating Layer conv1-1
I0205 23:44:22.122484 19766 net.cpp:394] conv1-1 <- data
I0205 23:44:22.122525 19766 net.cpp:356] conv1-1 -> conv1-1
I0205 23:44:22.122577 19766 net.cpp:96] Setting up conv1-1
I0205 23:44:22.123522 19766 net.cpp:103] Top shape: 50 64 3 20 (192000)
I0205 23:44:22.123605 19766 net.cpp:67] Creating Layer relu1-1
I0205 23:44:22.123628 19766 net.cpp:394] relu1-1 <- conv1-1
I0205 23:44:22.123648 19766 net.cpp:345] relu1-1 -> conv1-1 (in-place)
I0205 23:44:22.123674 19766 net.cpp:96] Setting up relu1-1
I0205 23:44:22.123700 19766 net.cpp:103] Top shape: 50 64 3 20 (192000)
I0205 23:44:22.123721 19766 net.cpp:67] Creating Layer pool1
I0205 23:44:22.123739 19766 net.cpp:394] pool1 <- conv1-1
I0205 23:44:22.123756 19766 net.cpp:356] pool1 -> pool1
I0205 23:44:22.123786 19766 net.cpp:96] Setting up pool1
I0205 23:44:22.123818 19766 net.cpp:103] Top shape: 50 64 3 10 (96000)
I0205 23:44:22.123843 19766 net.cpp:67] Creating Layer conv2-1
I0205 23:44:22.123860 19766 net.cpp:394] conv2-1 <- pool1
I0205 23:44:22.123880 19766 net.cpp:356] conv2-1 -> conv2-1
I0205 23:44:22.123904 19766 net.cpp:96] Setting up conv2-1
I0205 23:44:22.124876 19766 net.cpp:103] Top shape: 50 128 5 10 (320000)
I0205 23:44:22.124910 19766 net.cpp:67] Creating Layer relu2-1
I0205 23:44:22.124928 19766 net.cpp:394] relu2-1 <- conv2-1
I0205 23:44:22.124954 19766 net.cpp:345] relu2-1 -> conv2-1 (in-place)
I0205 23:44:22.124974 19766 net.cpp:96] Setting up relu2-1
I0205 23:44:22.124991 19766 net.cpp:103] Top shape: 50 128 5 10 (320000)
I0205 23:44:22.125010 19766 net.cpp:67] Creating Layer pool2
I0205 23:44:22.125025 19766 net.cpp:394] pool2 <- conv2-1
I0205 23:44:22.125041 19766 net.cpp:356] pool2 -> pool2
I0205 23:44:22.125061 19766 net.cpp:96] Setting up pool2
I0205 23:44:22.125080 19766 net.cpp:103] Top shape: 50 128 5 5 (160000)
I0205 23:44:22.125102 19766 net.cpp:67] Creating Layer fc3
I0205 23:44:22.125118 19766 net.cpp:394] fc3 <- pool2
I0205 23:44:22.125136 19766 net.cpp:356] fc3 -> fc3
I0205 23:44:22.125167 19766 net.cpp:96] Setting up fc3
I0205 23:44:22.200863 19766 net.cpp:103] Top shape: 50 600 1 1 (30000)
I0205 23:44:22.200908 19766 net.cpp:67] Creating Layer relu3
I0205 23:44:22.200928 19766 net.cpp:394] relu3 <- fc3
I0205 23:44:22.200947 19766 net.cpp:345] relu3 -> fc3 (in-place)
I0205 23:44:22.200968 19766 net.cpp:96] Setting up relu3
I0205 23:44:22.200984 19766 net.cpp:103] Top shape: 50 600 1 1 (30000)
I0205 23:44:22.201002 19766 net.cpp:67] Creating Layer drop3
I0205 23:44:22.201017 19766 net.cpp:394] drop3 <- fc3
I0205 23:44:22.201035 19766 net.cpp:345] drop3 -> fc3 (in-place)
I0205 23:44:22.201066 19766 net.cpp:96] Setting up drop3
I0205 23:44:22.201097 19766 net.cpp:103] Top shape: 50 600 1 1 (30000)
I0205 23:44:22.201119 19766 net.cpp:67] Creating Layer fc4
I0205 23:44:22.201135 19766 net.cpp:394] fc4 <- fc3
I0205 23:44:22.201154 19766 net.cpp:356] fc4 -> fc4
I0205 23:44:22.201176 19766 net.cpp:96] Setting up fc4
I0205 23:44:22.215695 19766 net.cpp:103] Top shape: 50 600 1 1 (30000)
I0205 23:44:22.215733 19766 net.cpp:67] Creating Layer relu4
I0205 23:44:22.215750 19766 net.cpp:394] relu4 <- fc4
I0205 23:44:22.215769 19766 net.cpp:345] relu4 -> fc4 (in-place)
I0205 23:44:22.215788 19766 net.cpp:96] Setting up relu4
I0205 23:44:22.215805 19766 net.cpp:103] Top shape: 50 600 1 1 (30000)
I0205 23:44:22.215822 19766 net.cpp:67] Creating Layer drop4
I0205 23:44:22.215864 19766 net.cpp:394] drop4 <- fc4
I0205 23:44:22.215911 19766 net.cpp:345] drop4 -> fc4 (in-place)
I0205 23:44:22.215932 19766 net.cpp:96] Setting up drop4
I0205 23:44:22.215950 19766 net.cpp:103] Top shape: 50 600 1 1 (30000)
I0205 23:44:22.215970 19766 net.cpp:67] Creating Layer fc5
I0205 23:44:22.215986 19766 net.cpp:394] fc5 <- fc4
I0205 23:44:22.216004 19766 net.cpp:356] fc5 -> fc5
I0205 23:44:22.216027 19766 net.cpp:96] Setting up fc5
I0205 23:44:22.227818 19766 net.cpp:103] Top shape: 50 486 1 1 (24300)
I0205 23:44:22.227879 19766 net.cpp:67] Creating Layer loss
I0205 23:44:22.227898 19766 net.cpp:394] loss <- fc5
I0205 23:44:22.227915 19766 net.cpp:394] loss <- label
I0205 23:44:22.227936 19766 net.cpp:356] loss -> loss
I0205 23:44:22.227962 19766 net.cpp:96] Setting up loss
I0205 23:44:22.227998 19766 net.cpp:103] Top shape: 1 1 1 1 (1)
I0205 23:44:22.228018 19766 net.cpp:109]     with loss weight 1
I0205 23:44:22.228081 19766 net.cpp:170] loss needs backward computation.
I0205 23:44:22.228104 19766 net.cpp:170] fc5 needs backward computation.
I0205 23:44:22.228121 19766 net.cpp:170] drop4 needs backward computation.
I0205 23:44:22.228135 19766 net.cpp:170] relu4 needs backward computation.
I0205 23:44:22.228149 19766 net.cpp:170] fc4 needs backward computation.
…
I0205 23:44:22.228377 19766 net.cpp:220] Memory required for data: 5949404
I0205 23:44:22.229856 19766 solver.cpp:151] Creating test net (#0) specified by net file: /home/rfn216/BusRio/train4.prototxt
I0205 23:44:22.229980 19766 net.cpp:275] The NetState phase (1) differed from the phase (0) specified by a rule in layer data
I0205 23:44:22.230046 19766 net.cpp:39] Initializing net from parameters: 
name: "BUS_RIO"
layers {
  top: "data"
  top: "label"
  name: "data"
  type: HDF5_DATA
  hdf5_data_param {
    source: "/work/rfn216/bus_rio/test.h5.txt"
    batch_size: 50
  }
  include {
    phase: TEST
  }
}
layers {
  bottom: "data"
  top: "conv1-1"
  name: "conv1-1"
  type: CONVOLUTION
  blobs_lr: 1
  blobs_lr: 2
  weight_decay: 1
  weight_decay: 0
  convolution_param {
    num_output: 64
    pad: 1
    weight_filler {
      type: "gaussian"
      std: 0.01
    }
    bias_filler {
      type: "constant"
      value: 0
    }
    kernel_h: 1
    kernel_w: 3
  }
}
layers {
  bottom: "conv1-1"
  top: "conv1-1"
  name: "relu1-1"
  type: RELU
}
layers {
  bottom: "conv1-1"
  top: "pool1"
  name: "pool1"
  type: POOLING
  pooling_param {
    pool: MAX
    kernel_h: 1
    kernel_w: 2
    stride_h: 1
    stride_w: 2
  }
}
layers {
  bottom: "pool1"
  top: "conv2-1"
  name: "conv2-1"
  type: CONVOLUTION
  blobs_lr: 1
  blobs_lr: 2
  weight_decay: 1
  weight_decay: 0
  convolution_param {
    num_output: 128
    pad: 1
    weight_filler {
      type: "gaussian"
      std: 0.01
    }
    bias_filler {
      type: "constant"
      value: 0
    }
    kernel_h: 1
    kernel_w: 3
  }
}
layers {
  bottom: "conv2-1"
  top: "conv2-1"
  name: "relu2-1"
  type: RELU
}
layers {
  bottom: "conv2-1"
  top: "pool2"
  name: "pool2"
  type: POOLING
  pooling_param {
    pool: MAX
    kernel_h: 1
    kernel_w: 2
    stride_h: 1
    stride_w: 2
  }
}
layers {
  bottom: "pool2"
  top: "fc3"
  name: "fc3"
  type: INNER_PRODUCT
  blobs_lr: 1
  blobs_lr: 2
  weight_decay: 1
  weight_decay: 0
  inner_product_param {
    num_output: 600
    weight_filler {
      type: "gaussian"
      std: 0.01
    }
    bias_filler {
      type: "constant"
      value: 1
    }
  }
}
layers {
  bottom: "fc3"
  top: "fc3"
  name: "relu3"
  type: RELU
}
layers {
  bottom: "fc3"
  top: "fc3"
  name: "drop3"
  type: DROPOUT
  dropout_param {
    dropout_ratio: 0.5
  }
}
layers {
  bottom: "fc3"
  top: "fc4"
  name: "fc4"
  type: INNER_PRODUCT
  blobs_lr: 1
  blobs_lr: 2
  weight_decay: 1
  weight_decay: 0
  inner_product_param {
    num_output: 600
    weight_filler {
      type: "gaussian"
      std: 0.01
    }
    bias_filler {
      type: "constant"
      value: 1
    }
  }
}
layers {
  bottom: "fc4"
  top: "fc4"
  name: "relu4"
  type: RELU
}
layers {
  bottom: "fc4"
  top: "fc4"
  name: "drop4"
  type: DROPOUT
  dropout_param {
    dropout_ratio: 0.5
  }
}
layers {
  bottom: "fc4"
  top: "fc5"
  name: "fc5"
  type: INNER_PRODUCT
  blobs_lr: 1
  blobs_lr: 2
  weight_decay: 1
  weight_decay: 0
  inner_product_param {
    num_output: 486
    weight_filler {
      type: "gaussian"
      std: 0.01
    }
    bias_filler {
      type: "constant"
      value: 0
    }
  }
}
layers {
  bottom: "fc5"
  bottom: "label"
  top: "accuracy-top1"
  name: "accuracy-top1"
  type: ACCURACY
  include {
    phase: TEST
  }
}
layers {
  bottom: "fc5"
  bottom: "label"
  top: "accuracy-top5"
  name: "accuracy-top5"
  type: ACCURACY
  accuracy_param {
    top_k: 5
  }
  include {
    phase: TEST
  }
}
layers {
  bottom: "fc5"
  bottom: "label"
  top: "loss"
  name: "loss"
  type: SOFTMAX_LOSS
}
state {
  phase: TEST
}
I0205 23:44:22.230669 19766 net.cpp:67] Creating Layer data
I0205 23:44:22.230718 19766 net.cpp:356] data -> data
I0205 23:44:22.230762 19766 net.cpp:356] data -> label
I0205 23:44:22.230801 19766 net.cpp:96] Setting up data
I0205 23:44:22.230829 19766 hdf5_data_layer.cpp:57] Loading filename from /work/rfn216/bus_rio/test.h5.txt
I0205 23:44:22.283623 19766 hdf5_data_layer.cpp:69] Number of files: 90766
I0205 23:44:22.285222 19766 hdf5_data_layer.cpp:81] output data size: 50,3,1,20
I0205 23:44:22.285243 19766 net.cpp:103] Top shape: 50 3 1 20 (3000)
I0205 23:44:22.285259 19766 net.cpp:103] Top shape: 50 1 1 1 (50)
I0205 23:44:22.285286 19766 net.cpp:67] Creating Layer label_data_1_split
I0205 23:44:22.285305 19766 net.cpp:394] label_data_1_split <- label
I0205 23:44:22.285328 19766 net.cpp:356] label_data_1_split -> label_data_1_split_0
I0205 23:44:22.285357 19766 net.cpp:356] label_data_1_split -> label_data_1_split_1
I0205 23:44:22.285382 19766 net.cpp:356] label_data_1_split -> label_data_1_split_2
I0205 23:44:22.285403 19766 net.cpp:96] Setting up label_data_1_split
I0205 23:44:22.285425 19766 net.cpp:103] Top shape: 50 1 1 1 (50)
I0205 23:44:22.285442 19766 net.cpp:103] Top shape: 50 1 1 1 (50)
I0205 23:44:22.285459 19766 net.cpp:103] Top shape: 50 1 1 1 (50)
I0205 23:44:22.285481 19766 net.cpp:67] Creating Layer conv1-1
I0205 23:44:22.285498 19766 net.cpp:394] conv1-1 <- data
I0205 23:44:22.285518 19766 net.cpp:356] conv1-1 -> conv1-1
I0205 23:44:22.285542 19766 net.cpp:96] Setting up conv1-1
I0205 23:44:22.285608 19766 net.cpp:103] Top shape: 50 64 3 20 (192000)
I0205 23:44:22.285644 19766 net.cpp:67] Creating Layer relu1-1
I0205 23:44:22.285661 19766 net.cpp:394] relu1-1 <- conv1-1
I0205 23:44:22.285679 19766 net.cpp:345] relu1-1 -> conv1-1 (in-place)
I0205 23:44:22.285699 19766 net.cpp:96] Setting up relu1-1
I0205 23:44:22.285717 19766 net.cpp:103] Top shape: 50 64 3 20 (192000)
I0205 23:44:22.285737 19766 net.cpp:67] Creating Layer pool1
I0205 23:44:22.285753 19766 net.cpp:394] pool1 <- conv1-1
I0205 23:44:22.285794 19766 net.cpp:356] pool1 -> pool1
I0205 23:44:22.285847 19766 net.cpp:96] Setting up pool1
I0205 23:44:22.285869 19766 net.cpp:103] Top shape: 50 64 3 10 (96000)
I0205 23:44:22.285892 19766 net.cpp:67] Creating Layer conv2-1
I0205 23:44:22.285907 19766 net.cpp:394] conv2-1 <- pool1
I0205 23:44:22.285926 19766 net.cpp:356] conv2-1 -> conv2-1
I0205 23:44:22.285948 19766 net.cpp:96] Setting up conv2-1
I0205 23:44:22.286952 19766 net.cpp:103] Top shape: 50 128 5 10 (320000)
I0205 23:44:22.286988 19766 net.cpp:67] Creating Layer relu2-1
I0205 23:44:22.287006 19766 net.cpp:394] relu2-1 <- conv2-1
I0205 23:44:22.287024 19766 net.cpp:345] relu2-1 -> conv2-1 (in-place)
I0205 23:44:22.287044 19766 net.cpp:96] Setting up relu2-1
I0205 23:44:22.287060 19766 net.cpp:103] Top shape: 50 128 5 10 (320000)
I0205 23:44:22.287080 19766 net.cpp:67] Creating Layer pool2
I0205 23:44:22.287096 19766 net.cpp:394] pool2 <- conv2-1
I0205 23:44:22.287113 19766 net.cpp:356] pool2 -> pool2
I0205 23:44:22.287134 19766 net.cpp:96] Setting up pool2
I0205 23:44:22.287153 19766 net.cpp:103] Top shape: 50 128 5 5 (160000)
I0205 23:44:22.287176 19766 net.cpp:67] Creating Layer fc3
I0205 23:44:22.287192 19766 net.cpp:394] fc3 <- pool2
I0205 23:44:22.287211 19766 net.cpp:356] fc3 -> fc3
I0205 23:44:22.287232 19766 net.cpp:96] Setting up fc3
I0205 23:44:22.363390 19766 net.cpp:103] Top shape: 50 600 1 1 (30000)
I0205 23:44:22.363433 19766 net.cpp:67] Creating Layer relu3
I0205 23:44:22.363452 19766 net.cpp:394] relu3 <- fc3
I0205 23:44:22.363471 19766 net.cpp:345] relu3 -> fc3 (in-place)
I0205 23:44:22.363490 19766 net.cpp:96] Setting up relu3
I0205 23:44:22.363507 19766 net.cpp:103] Top shape: 50 600 1 1 (30000)
I0205 23:44:22.363526 19766 net.cpp:67] Creating Layer drop3
I0205 23:44:22.363541 19766 net.cpp:394] drop3 <- fc3
I0205 23:44:22.363559 19766 net.cpp:345] drop3 -> fc3 (in-place)
I0205 23:44:22.363587 19766 net.cpp:96] Setting up drop3
I0205 23:44:22.363605 19766 net.cpp:103] Top shape: 50 600 1 1 (30000)
I0205 23:44:22.363626 19766 net.cpp:67] Creating Layer fc4
I0205 23:44:22.363641 19766 net.cpp:394] fc4 <- fc3
I0205 23:44:22.363659 19766 net.cpp:356] fc4 -> fc4
I0205 23:44:22.363680 19766 net.cpp:96] Setting up fc4
I0205 23:44:22.378003 19766 net.cpp:103] Top shape: 50 600 1 1 (30000)
I0205 23:44:22.378041 19766 net.cpp:67] Creating Layer relu4
I0205 23:44:22.378057 19766 net.cpp:394] relu4 <- fc4
I0205 23:44:22.378075 19766 net.cpp:345] relu4 -> fc4 (in-place)
I0205 23:44:22.378094 19766 net.cpp:96] Setting up relu4
I0205 23:44:22.378111 19766 net.cpp:103] Top shape: 50 600 1 1 (30000)
I0205 23:44:22.378134 19766 net.cpp:67] Creating Layer drop4
I0205 23:44:22.378149 19766 net.cpp:394] drop4 <- fc4
I0205 23:44:22.378167 19766 net.cpp:345] drop4 -> fc4 (in-place)
I0205 23:44:22.378186 19766 net.cpp:96] Setting up drop4
I0205 23:44:22.378203 19766 net.cpp:103] Top shape: 50 600 1 1 (30000)
I0205 23:44:22.378223 19766 net.cpp:67] Creating Layer fc5
I0205 23:44:22.378239 19766 net.cpp:394] fc5 <- fc4
I0205 23:44:22.378260 19766 net.cpp:356] fc5 -> fc5
I0205 23:44:22.378281 19766 net.cpp:96] Setting up fc5
I0205 23:44:22.390051 19766 net.cpp:103] Top shape: 50 486 1 1 (24300)
I0205 23:44:22.390091 19766 net.cpp:67] Creating Layer fc5_fc5_0_split
I0205 23:44:22.390110 19766 net.cpp:394] fc5_fc5_0_split <- fc5
I0205 23:44:22.390130 19766 net.cpp:356] fc5_fc5_0_split -> fc5_fc5_0_split_0
I0205 23:44:22.390151 19766 net.cpp:356] fc5_fc5_0_split -> fc5_fc5_0_split_1
I0205 23:44:22.390175 19766 net.cpp:356] fc5_fc5_0_split -> fc5_fc5_0_split_2
I0205 23:44:22.390197 19766 net.cpp:96] Setting up fc5_fc5_0_split
I0205 23:44:22.390214 19766 net.cpp:103] Top shape: 50 486 1 1 (24300)
I0205 23:44:22.390230 19766 net.cpp:103] Top shape: 50 486 1 1 (24300)
I0205 23:44:22.390244 19766 net.cpp:103] Top shape: 50 486 1 1 (24300)
I0205 23:44:22.390266 19766 net.cpp:67] Creating Layer accuracy-top1
I0205 23:44:22.390282 19766 net.cpp:394] accuracy-top1 <- fc5_fc5_0_split_0
I0205 23:44:22.390300 19766 net.cpp:394] accuracy-top1 <- label_data_1_split_0
I0205 23:44:22.390341 19766 net.cpp:356] accuracy-top1 -> accuracy-top1
I0205 23:44:22.390388 19766 net.cpp:96] Setting up accuracy-top1
I0205 23:44:22.390410 19766 net.cpp:103] Top shape: 1 1 1 1 (1)
I0205 23:44:22.390434 19766 net.cpp:67] Creating Layer accuracy-top5
I0205 23:44:22.390450 19766 net.cpp:394] accuracy-top5 <- fc5_fc5_0_split_1
I0205 23:44:22.390466 19766 net.cpp:394] accuracy-top5 <- label_data_1_split_1
I0205 23:44:22.390485 19766 net.cpp:356] accuracy-top5 -> accuracy-top5
I0205 23:44:22.390507 19766 net.cpp:96] Setting up accuracy-top5
I0205 23:44:22.390525 19766 net.cpp:103] Top shape: 1 1 1 1 (1)
I0205 23:44:22.390549 19766 net.cpp:67] Creating Layer loss
I0205 23:44:22.390573 19766 net.cpp:394] loss <- fc5_fc5_0_split_2
I0205 23:44:22.390594 19766 net.cpp:394] loss <- label_data_1_split_2
I0205 23:44:22.390612 19766 net.cpp:356] loss -> loss
I0205 23:44:22.390632 19766 net.cpp:96] Setting up loss
I0205 23:44:22.390658 19766 net.cpp:103] Top shape: 1 1 1 1 (1)
I0205 23:44:22.390676 19766 net.cpp:109]     with loss weight 1
I0205 23:44:22.390712 19766 net.cpp:170] loss needs backward computation.
I0205 23:44:22.390729 19766 net.cpp:172] accuracy-top5 does not need backward computation.
I0205 23:44:22.390743 19766 net.cpp:172] accuracy-top1 does not need backward computation.
I0205 23:44:22.390758 19766 net.cpp:170] fc5_fc5_0_split needs backward computation.
…
