…
I0205 23:41:51.927479 26191 net.cpp:275] The NetState phase (0) differed from the phase (1) specified by a rule in layer data
I0205 23:41:51.927516 26191 net.cpp:275] The NetState phase (0) differed from the phase (1) specified by a rule in layer accuracy-top1
I0205 23:41:51.927532 26191 net.cpp:275] The NetState phase (0) differed from the phase (1) specified by a rule in layer accuracy-top5
I0205 23:41:51.927554 26191 net.cpp:39] Initializing net from parameters: 
name: "BUS_RIO"
layers {
  top: "data"
  top: "label"
  name: "data"
  type: HDF5_DATA
  hdf5_data_param {
    source: "/work/rfn216/bus_rio/train.h5.txt"
    batch_size: 50
  }
  include {
    phase: TRAIN
  }
}
layers {
  bottom: "data"
  top: "conv1-1"
  name: "conv1-1"
  type: CONVOLUTION
  blobs_lr: 1
  blobs_lr: 2
  weight_decay: 1
  weight_decay: 0
  convolution_param {
    num_output: 64
    pad: 1
    weight_filler {
      type: "gaussian"
      std: 0.01
    }
    bias_filler {
      type: "constant"
      value: 0
    }
    kernel_h: 1
    kernel_w: 5
  }
}
layers {
  bottom: "conv1-1"
  top: "conv1-1"
  name: "relu1-1"
  type: RELU
}
layers {
  bottom: "conv1-1"
  top: "pool1"
  name: "pool1"
  type: POOLING
  pooling_param {
    pool: MAX
    kernel_h: 1
    kernel_w: 2
    stride_h: 1
    stride_w: 2
  }
}
layers {
  bottom: "pool1"
  top: "conv2-1"
  name: "conv2-1"
  type: CONVOLUTION
  blobs_lr: 1
  blobs_lr: 2
  weight_decay: 1
  weight_decay: 0
  convolution_param {
    num_output: 128
    pad: 1
    weight_filler {
      type: "gaussian"
      std: 0.01
    }
    bias_filler {
      type: "constant"
      value: 0
    }
    kernel_h: 1
    kernel_w: 5
  }
}
layers {
  bottom: "conv2-1"
  top: "conv2-1"
  name: "relu2-1"
  type: RELU
}
layers {
  bottom: "conv2-1"
  top: "pool2"
  name: "pool2"
  type: POOLING
  pooling_param {
    pool: MAX
    kernel_h: 1
    kernel_w: 2
    stride_h: 1
    stride_w: 2
  }
}
layers {
  bottom: "pool2"
  top: "fc3"
  name: "fc3"
  type: INNER_PRODUCT
  blobs_lr: 1
  blobs_lr: 2
  weight_decay: 1
  weight_decay: 0
  inner_product_param {
    num_output: 300
    weight_filler {
      type: "gaussian"
      std: 0.01
    }
    bias_filler {
      type: "constant"
      value: 1
    }
  }
}
layers {
  bottom: "fc3"
  top: "fc3"
  name: "relu3"
  type: RELU
}
layers {
  bottom: "fc3"
  top: "fc3"
  name: "drop3"
  type: DROPOUT
  dropout_param {
    dropout_ratio: 0.5
  }
}
layers {
  bottom: "fc3"
  top: "fc4"
  name: "fc4"
  type: INNER_PRODUCT
  blobs_lr: 1
  blobs_lr: 2
  weight_decay: 1
  weight_decay: 0
  inner_product_param {
    num_output: 300
    weight_filler {
      type: "gaussian"
      std: 0.01
    }
    bias_filler {
      type: "constant"
      value: 1
    }
  }
}
layers {
  bottom: "fc4"
  top: "fc4"
  name: "relu4"
  type: RELU
}
layers {
  bottom: "fc4"
  top: "fc4"
  name: "drop4"
  type: DROPOUT
  dropout_param {
    dropout_ratio: 0.5
  }
}
layers {
  bottom: "fc4"
  top: "fc5"
  name: "fc5"
  type: INNER_PRODUCT
  blobs_lr: 1
  blobs_lr: 2
  weight_decay: 1
  weight_decay: 0
  inner_product_param {
    num_output: 486
    weight_filler {
      type: "gaussian"
      std: 0.01
    }
    bias_filler {
      type: "constant"
      value: 0
    }
  }
}
layers {
  bottom: "fc5"
  bottom: "label"
  top: "loss"
  name: "loss"
  type: SOFTMAX_LOSS
}
state {
  phase: TRAIN
}
I0205 23:41:51.927876 26191 net.cpp:67] Creating Layer data
I0205 23:41:51.927903 26191 net.cpp:356] data -> data
I0205 23:41:51.927969 26191 net.cpp:356] data -> label
I0205 23:41:51.928011 26191 net.cpp:96] Setting up data
I0205 23:41:51.928058 26191 hdf5_data_layer.cpp:57] Loading filename from /work/rfn216/bus_rio/train.h5.txt
I0205 23:41:52.105914 26191 hdf5_data_layer.cpp:69] Number of files: 439093
I0205 23:41:52.108947 26191 hdf5_data_layer.cpp:81] output data size: 50,3,1,20
I0205 23:41:52.108988 26191 net.cpp:103] Top shape: 50 3 1 20 (3000)
I0205 23:41:52.109009 26191 net.cpp:103] Top shape: 50 1 1 1 (50)
I0205 23:41:52.109038 26191 net.cpp:67] Creating Layer conv1-1
I0205 23:41:52.109058 26191 net.cpp:394] conv1-1 <- data
I0205 23:41:52.109091 26191 net.cpp:356] conv1-1 -> conv1-1
I0205 23:41:52.109132 26191 net.cpp:96] Setting up conv1-1
I0205 23:41:52.109899 26191 net.cpp:103] Top shape: 50 64 3 18 (172800)
I0205 23:41:52.109956 26191 net.cpp:67] Creating Layer relu1-1
I0205 23:41:52.109974 26191 net.cpp:394] relu1-1 <- conv1-1
I0205 23:41:52.109992 26191 net.cpp:345] relu1-1 -> conv1-1 (in-place)
I0205 23:41:52.110012 26191 net.cpp:96] Setting up relu1-1
I0205 23:41:52.110031 26191 net.cpp:103] Top shape: 50 64 3 18 (172800)
I0205 23:41:52.110050 26191 net.cpp:67] Creating Layer pool1
I0205 23:41:52.110064 26191 net.cpp:394] pool1 <- conv1-1
I0205 23:41:52.110080 26191 net.cpp:356] pool1 -> pool1
I0205 23:41:52.110103 26191 net.cpp:96] Setting up pool1
I0205 23:41:52.110128 26191 net.cpp:103] Top shape: 50 64 3 9 (86400)
I0205 23:41:52.110149 26191 net.cpp:67] Creating Layer conv2-1
I0205 23:41:52.110163 26191 net.cpp:394] conv2-1 <- pool1
I0205 23:41:52.110179 26191 net.cpp:356] conv2-1 -> conv2-1
I0205 23:41:52.110198 26191 net.cpp:96] Setting up conv2-1
I0205 23:41:52.111479 26191 net.cpp:103] Top shape: 50 128 5 7 (224000)
I0205 23:41:52.111507 26191 net.cpp:67] Creating Layer relu2-1
I0205 23:41:52.111521 26191 net.cpp:394] relu2-1 <- conv2-1
I0205 23:41:52.111536 26191 net.cpp:345] relu2-1 -> conv2-1 (in-place)
I0205 23:41:52.111553 26191 net.cpp:96] Setting up relu2-1
I0205 23:41:52.111567 26191 net.cpp:103] Top shape: 50 128 5 7 (224000)
I0205 23:41:52.111582 26191 net.cpp:67] Creating Layer pool2
I0205 23:41:52.111595 26191 net.cpp:394] pool2 <- conv2-1
I0205 23:41:52.111610 26191 net.cpp:356] pool2 -> pool2
I0205 23:41:52.111626 26191 net.cpp:96] Setting up pool2
I0205 23:41:52.111641 26191 net.cpp:103] Top shape: 50 128 5 4 (128000)
I0205 23:41:52.111660 26191 net.cpp:67] Creating Layer fc3
I0205 23:41:52.111672 26191 net.cpp:394] fc3 <- pool2
I0205 23:41:52.111688 26191 net.cpp:356] fc3 -> fc3
I0205 23:41:52.111718 26191 net.cpp:96] Setting up fc3
I0205 23:41:52.135920 26191 net.cpp:103] Top shape: 50 300 1 1 (15000)
I0205 23:41:52.135970 26191 net.cpp:67] Creating Layer relu3
I0205 23:41:52.135985 26191 net.cpp:394] relu3 <- fc3
I0205 23:41:52.136001 26191 net.cpp:345] relu3 -> fc3 (in-place)
I0205 23:41:52.136018 26191 net.cpp:96] Setting up relu3
I0205 23:41:52.136031 26191 net.cpp:103] Top shape: 50 300 1 1 (15000)
I0205 23:41:52.136045 26191 net.cpp:67] Creating Layer drop3
I0205 23:41:52.136059 26191 net.cpp:394] drop3 <- fc3
I0205 23:41:52.136071 26191 net.cpp:345] drop3 -> fc3 (in-place)
I0205 23:41:52.136097 26191 net.cpp:96] Setting up drop3
I0205 23:41:52.136122 26191 net.cpp:103] Top shape: 50 300 1 1 (15000)
I0205 23:41:52.136140 26191 net.cpp:67] Creating Layer fc4
I0205 23:41:52.136153 26191 net.cpp:394] fc4 <- fc3
I0205 23:41:52.136183 26191 net.cpp:356] fc4 -> fc4
I0205 23:41:52.136201 26191 net.cpp:96] Setting up fc4
I0205 23:41:52.138993 26191 net.cpp:103] Top shape: 50 300 1 1 (15000)
I0205 23:41:52.139022 26191 net.cpp:67] Creating Layer relu4
I0205 23:41:52.139035 26191 net.cpp:394] relu4 <- fc4
I0205 23:41:52.139050 26191 net.cpp:345] relu4 -> fc4 (in-place)
I0205 23:41:52.139065 26191 net.cpp:96] Setting up relu4
I0205 23:41:52.139076 26191 net.cpp:103] Top shape: 50 300 1 1 (15000)
I0205 23:41:52.139091 26191 net.cpp:67] Creating Layer drop4
I0205 23:41:52.139114 26191 net.cpp:394] drop4 <- fc4
I0205 23:41:52.139158 26191 net.cpp:345] drop4 -> fc4 (in-place)
I0205 23:41:52.139174 26191 net.cpp:96] Setting up drop4
I0205 23:41:52.139188 26191 net.cpp:103] Top shape: 50 300 1 1 (15000)
I0205 23:41:52.139204 26191 net.cpp:67] Creating Layer fc5
I0205 23:41:52.139215 26191 net.cpp:394] fc5 <- fc4
I0205 23:41:52.139230 26191 net.cpp:356] fc5 -> fc5
I0205 23:41:52.139246 26191 net.cpp:96] Setting up fc5
I0205 23:41:52.143602 26191 net.cpp:103] Top shape: 50 486 1 1 (24300)
I0205 23:41:52.143638 26191 net.cpp:67] Creating Layer loss
I0205 23:41:52.143653 26191 net.cpp:394] loss <- fc5
I0205 23:41:52.143666 26191 net.cpp:394] loss <- label
I0205 23:41:52.143682 26191 net.cpp:356] loss -> loss
I0205 23:41:52.143702 26191 net.cpp:96] Setting up loss
I0205 23:41:52.143741 26191 net.cpp:103] Top shape: 1 1 1 1 (1)
I0205 23:41:52.143756 26191 net.cpp:109]     with loss weight 1
I0205 23:41:52.143810 26191 net.cpp:170] loss needs backward computation.
I0205 23:41:52.143826 26191 net.cpp:170] fc5 needs backward computation.
I0205 23:41:52.143839 26191 net.cpp:170] drop4 needs backward computation.
I0205 23:41:52.143851 26191 net.cpp:170] relu4 needs backward computation.
I0205 23:41:52.143862 26191 net.cpp:170] fc4 needs backward computation.
…
I0205 23:41:52.144040 26191 net.cpp:220] Memory required for data: 4501404
I0205 23:41:52.145097 26191 solver.cpp:151] Creating test net (#0) specified by net file: /home/rfn216/BusRio/train2.prototxt
I0205 23:41:52.145155 26191 net.cpp:275] The NetState phase (1) differed from the phase (0) specified by a rule in layer data
I0205 23:41:52.145185 26191 net.cpp:39] Initializing net from parameters: 
name: "BUS_RIO"
layers {
  top: "data"
  top: "label"
  name: "data"
  type: HDF5_DATA
  hdf5_data_param {
    source: "/work/rfn216/bus_rio/test.h5.txt"
    batch_size: 50
  }
  include {
    phase: TEST
  }
}
layers {
  bottom: "data"
  top: "conv1-1"
  name: "conv1-1"
  type: CONVOLUTION
  blobs_lr: 1
  blobs_lr: 2
  weight_decay: 1
  weight_decay: 0
  convolution_param {
    num_output: 64
    pad: 1
    weight_filler {
      type: "gaussian"
      std: 0.01
    }
    bias_filler {
      type: "constant"
      value: 0
    }
    kernel_h: 1
    kernel_w: 5
  }
}
layers {
  bottom: "conv1-1"
  top: "conv1-1"
  name: "relu1-1"
  type: RELU
}
layers {
  bottom: "conv1-1"
  top: "pool1"
  name: "pool1"
  type: POOLING
  pooling_param {
    pool: MAX
    kernel_h: 1
    kernel_w: 2
    stride_h: 1
    stride_w: 2
  }
}
layers {
  bottom: "pool1"
  top: "conv2-1"
  name: "conv2-1"
  type: CONVOLUTION
  blobs_lr: 1
  blobs_lr: 2
  weight_decay: 1
  weight_decay: 0
  convolution_param {
    num_output: 128
    pad: 1
    weight_filler {
      type: "gaussian"
      std: 0.01
    }
    bias_filler {
      type: "constant"
      value: 0
    }
    kernel_h: 1
    kernel_w: 5
  }
}
layers {
  bottom: "conv2-1"
  top: "conv2-1"
  name: "relu2-1"
  type: RELU
}
layers {
  bottom: "conv2-1"
  top: "pool2"
  name: "pool2"
  type: POOLING
  pooling_param {
    pool: MAX
    kernel_h: 1
    kernel_w: 2
    stride_h: 1
    stride_w: 2
  }
}
layers {
  bottom: "pool2"
  top: "fc3"
  name: "fc3"
  type: INNER_PRODUCT
  blobs_lr: 1
  blobs_lr: 2
  weight_decay: 1
  weight_decay: 0
  inner_product_param {
    num_output: 300
    weight_filler {
      type: "gaussian"
      std: 0.01
    }
    bias_filler {
      type: "constant"
      value: 1
    }
  }
}
layers {
  bottom: "fc3"
  top: "fc3"
  name: "relu3"
  type: RELU
}
layers {
  bottom: "fc3"
  top: "fc3"
  name: "drop3"
  type: DROPOUT
  dropout_param {
    dropout_ratio: 0.5
  }
}
layers {
  bottom: "fc3"
  top: "fc4"
  name: "fc4"
  type: INNER_PRODUCT
  blobs_lr: 1
  blobs_lr: 2
  weight_decay: 1
  weight_decay: 0
  inner_product_param {
    num_output: 300
    weight_filler {
      type: "gaussian"
      std: 0.01
    }
    bias_filler {
      type: "constant"
      value: 1
    }
  }
}
layers {
  bottom: "fc4"
  top: "fc4"
  name: "relu4"
  type: RELU
}
layers {
  bottom: "fc4"
  top: "fc4"
  name: "drop4"
  type: DROPOUT
  dropout_param {
    dropout_ratio: 0.5
  }
}
layers {
  bottom: "fc4"
  top: "fc5"
  name: "fc5"
  type: INNER_PRODUCT
  blobs_lr: 1
  blobs_lr: 2
  weight_decay: 1
  weight_decay: 0
  inner_product_param {
    num_output: 486
    weight_filler {
      type: "gaussian"
      std: 0.01
    }
    bias_filler {
      type: "constant"
      value: 0
    }
  }
}
layers {
  bottom: "fc5"
  bottom: "label"
  top: "accuracy-top1"
  name: "accuracy-top1"
  type: ACCURACY
  include {
    phase: TEST
  }
}
layers {
  bottom: "fc5"
  bottom: "label"
  top: "accuracy-top5"
  name: "accuracy-top5"
  type: ACCURACY
  accuracy_param {
    top_k: 5
  }
  include {
    phase: TEST
  }
}
layers {
  bottom: "fc5"
  bottom: "label"
  top: "loss"
  name: "loss"
  type: SOFTMAX_LOSS
}
state {
  phase: TEST
}
I0205 23:41:52.145484 26191 net.cpp:67] Creating Layer data
I0205 23:41:52.145510 26191 net.cpp:356] data -> data
I0205 23:41:52.145534 26191 net.cpp:356] data -> label
I0205 23:41:52.145552 26191 net.cpp:96] Setting up data
I0205 23:41:52.145566 26191 hdf5_data_layer.cpp:57] Loading filename from /work/rfn216/bus_rio/test.h5.txt
I0205 23:41:52.184247 26191 hdf5_data_layer.cpp:69] Number of files: 90766
I0205 23:41:52.185971 26191 hdf5_data_layer.cpp:81] output data size: 50,3,1,20
I0205 23:41:52.185988 26191 net.cpp:103] Top shape: 50 3 1 20 (3000)
I0205 23:41:52.186003 26191 net.cpp:103] Top shape: 50 1 1 1 (50)
I0205 23:41:52.186029 26191 net.cpp:67] Creating Layer label_data_1_split
I0205 23:41:52.186044 26191 net.cpp:394] label_data_1_split <- label
I0205 23:41:52.186063 26191 net.cpp:356] label_data_1_split -> label_data_1_split_0
I0205 23:41:52.186089 26191 net.cpp:356] label_data_1_split -> label_data_1_split_1
I0205 23:41:52.186106 26191 net.cpp:356] label_data_1_split -> label_data_1_split_2
I0205 23:41:52.186125 26191 net.cpp:96] Setting up label_data_1_split
I0205 23:41:52.186144 26191 net.cpp:103] Top shape: 50 1 1 1 (50)
I0205 23:41:52.186158 26191 net.cpp:103] Top shape: 50 1 1 1 (50)
I0205 23:41:52.186172 26191 net.cpp:103] Top shape: 50 1 1 1 (50)
I0205 23:41:52.186192 26191 net.cpp:67] Creating Layer conv1-1
I0205 23:41:52.186205 26191 net.cpp:394] conv1-1 <- data
I0205 23:41:52.186221 26191 net.cpp:356] conv1-1 -> conv1-1
I0205 23:41:52.186240 26191 net.cpp:96] Setting up conv1-1
I0205 23:41:52.186305 26191 net.cpp:103] Top shape: 50 64 3 18 (172800)
I0205 23:41:52.186333 26191 net.cpp:67] Creating Layer relu1-1
I0205 23:41:52.186348 26191 net.cpp:394] relu1-1 <- conv1-1
I0205 23:41:52.186363 26191 net.cpp:345] relu1-1 -> conv1-1 (in-place)
I0205 23:41:52.186379 26191 net.cpp:96] Setting up relu1-1
I0205 23:41:52.186393 26191 net.cpp:103] Top shape: 50 64 3 18 (172800)
I0205 23:41:52.186410 26191 net.cpp:67] Creating Layer pool1
I0205 23:41:52.186424 26191 net.cpp:394] pool1 <- conv1-1
I0205 23:41:52.186453 26191 net.cpp:356] pool1 -> pool1
I0205 23:41:52.186503 26191 net.cpp:96] Setting up pool1
I0205 23:41:52.186522 26191 net.cpp:103] Top shape: 50 64 3 9 (86400)
I0205 23:41:52.186538 26191 net.cpp:67] Creating Layer conv2-1
I0205 23:41:52.186553 26191 net.cpp:394] conv2-1 <- pool1
I0205 23:41:52.186568 26191 net.cpp:356] conv2-1 -> conv2-1
I0205 23:41:52.186585 26191 net.cpp:96] Setting up conv2-1
I0205 23:41:52.187868 26191 net.cpp:103] Top shape: 50 128 5 7 (224000)
I0205 23:41:52.187897 26191 net.cpp:67] Creating Layer relu2-1
I0205 23:41:52.187912 26191 net.cpp:394] relu2-1 <- conv2-1
I0205 23:41:52.187927 26191 net.cpp:345] relu2-1 -> conv2-1 (in-place)
I0205 23:41:52.187942 26191 net.cpp:96] Setting up relu2-1
I0205 23:41:52.187955 26191 net.cpp:103] Top shape: 50 128 5 7 (224000)
I0205 23:41:52.187970 26191 net.cpp:67] Creating Layer pool2
I0205 23:41:52.187984 26191 net.cpp:394] pool2 <- conv2-1
I0205 23:41:52.187999 26191 net.cpp:356] pool2 -> pool2
I0205 23:41:52.188016 26191 net.cpp:96] Setting up pool2
I0205 23:41:52.188031 26191 net.cpp:103] Top shape: 50 128 5 4 (128000)
I0205 23:41:52.188051 26191 net.cpp:67] Creating Layer fc3
I0205 23:41:52.188065 26191 net.cpp:394] fc3 <- pool2
I0205 23:41:52.188079 26191 net.cpp:356] fc3 -> fc3
I0205 23:41:52.188097 26191 net.cpp:96] Setting up fc3
I0205 23:41:52.212950 26191 net.cpp:103] Top shape: 50 300 1 1 (15000)
I0205 23:41:52.212990 26191 net.cpp:67] Creating Layer relu3
I0205 23:41:52.213006 26191 net.cpp:394] relu3 <- fc3
I0205 23:41:52.213021 26191 net.cpp:345] relu3 -> fc3 (in-place)
I0205 23:41:52.213037 26191 net.cpp:96] Setting up relu3
I0205 23:41:52.213050 26191 net.cpp:103] Top shape: 50 300 1 1 (15000)
I0205 23:41:52.213065 26191 net.cpp:67] Creating Layer drop3
I0205 23:41:52.213078 26191 net.cpp:394] drop3 <- fc3
I0205 23:41:52.213093 26191 net.cpp:345] drop3 -> fc3 (in-place)
I0205 23:41:52.213109 26191 net.cpp:96] Setting up drop3
I0205 23:41:52.213122 26191 net.cpp:103] Top shape: 50 300 1 1 (15000)
I0205 23:41:52.213138 26191 net.cpp:67] Creating Layer fc4
I0205 23:41:52.213151 26191 net.cpp:394] fc4 <- fc3
I0205 23:41:52.213167 26191 net.cpp:356] fc4 -> fc4
I0205 23:41:52.213184 26191 net.cpp:96] Setting up fc4
I0205 23:41:52.215991 26191 net.cpp:103] Top shape: 50 300 1 1 (15000)
I0205 23:41:52.216017 26191 net.cpp:67] Creating Layer relu4
I0205 23:41:52.216034 26191 net.cpp:394] relu4 <- fc4
I0205 23:41:52.216048 26191 net.cpp:345] relu4 -> fc4 (in-place)
I0205 23:41:52.216063 26191 net.cpp:96] Setting up relu4
I0205 23:41:52.216075 26191 net.cpp:103] Top shape: 50 300 1 1 (15000)
I0205 23:41:52.216089 26191 net.cpp:67] Creating Layer drop4
I0205 23:41:52.216100 26191 net.cpp:394] drop4 <- fc4
I0205 23:41:52.216114 26191 net.cpp:345] drop4 -> fc4 (in-place)
I0205 23:41:52.216128 26191 net.cpp:96] Setting up drop4
I0205 23:41:52.216141 26191 net.cpp:103] Top shape: 50 300 1 1 (15000)
I0205 23:41:52.216158 26191 net.cpp:67] Creating Layer fc5
I0205 23:41:52.216171 26191 net.cpp:394] fc5 <- fc4
I0205 23:41:52.216186 26191 net.cpp:356] fc5 -> fc5
I0205 23:41:52.216202 26191 net.cpp:96] Setting up fc5
I0205 23:41:52.220746 26191 net.cpp:103] Top shape: 50 486 1 1 (24300)
I0205 23:41:52.220778 26191 net.cpp:67] Creating Layer fc5_fc5_0_split
I0205 23:41:52.220793 26191 net.cpp:394] fc5_fc5_0_split <- fc5
I0205 23:41:52.220806 26191 net.cpp:356] fc5_fc5_0_split -> fc5_fc5_0_split_0
I0205 23:41:52.220823 26191 net.cpp:356] fc5_fc5_0_split -> fc5_fc5_0_split_1
I0205 23:41:52.220839 26191 net.cpp:356] fc5_fc5_0_split -> fc5_fc5_0_split_2
I0205 23:41:52.220854 26191 net.cpp:96] Setting up fc5_fc5_0_split
I0205 23:41:52.220868 26191 net.cpp:103] Top shape: 50 486 1 1 (24300)
I0205 23:41:52.220880 26191 net.cpp:103] Top shape: 50 486 1 1 (24300)
I0205 23:41:52.220890 26191 net.cpp:103] Top shape: 50 486 1 1 (24300)
I0205 23:41:52.220909 26191 net.cpp:67] Creating Layer accuracy-top1
I0205 23:41:52.220923 26191 net.cpp:394] accuracy-top1 <- fc5_fc5_0_split_0
I0205 23:41:52.220937 26191 net.cpp:394] accuracy-top1 <- label_data_1_split_0
I0205 23:41:52.220959 26191 net.cpp:356] accuracy-top1 -> accuracy-top1
I0205 23:41:52.220994 26191 net.cpp:96] Setting up accuracy-top1
I0205 23:41:52.221015 26191 net.cpp:103] Top shape: 1 1 1 1 (1)
I0205 23:41:52.221032 26191 net.cpp:67] Creating Layer accuracy-top5
I0205 23:41:52.221045 26191 net.cpp:394] accuracy-top5 <- fc5_fc5_0_split_1
I0205 23:41:52.221056 26191 net.cpp:394] accuracy-top5 <- label_data_1_split_1
I0205 23:41:52.221071 26191 net.cpp:356] accuracy-top5 -> accuracy-top5
I0205 23:41:52.221088 26191 net.cpp:96] Setting up accuracy-top5
I0205 23:41:52.221102 26191 net.cpp:103] Top shape: 1 1 1 1 (1)
I0205 23:41:52.221119 26191 net.cpp:67] Creating Layer loss
I0205 23:41:52.221132 26191 net.cpp:394] loss <- fc5_fc5_0_split_2
I0205 23:41:52.221145 26191 net.cpp:394] loss <- label_data_1_split_2
I0205 23:41:52.221158 26191 net.cpp:356] loss -> loss
I0205 23:41:52.221174 26191 net.cpp:96] Setting up loss
I0205 23:41:52.221195 26191 net.cpp:103] Top shape: 1 1 1 1 (1)
I0205 23:41:52.221207 26191 net.cpp:109]     with loss weight 1
I0205 23:41:52.221230 26191 net.cpp:170] loss needs backward computation.
I0205 23:41:52.221241 26191 net.cpp:172] accuracy-top5 does not need backward computation.
I0205 23:41:52.221252 26191 net.cpp:172] accuracy-top1 does not need backward computation.
I0205 23:41:52.221263 26191 net.cpp:170] fc5_fc5_0_split needs backward computation.
…
