…
I0202 11:51:16.122104 28230 net.cpp:276] The NetState phase (0) differed from the phase (1) specified by a rule in layer data
I0202 11:51:16.122136 28230 net.cpp:276] The NetState phase (0) differed from the phase (1) specified by a rule in layer accuracy-top1
I0202 11:51:16.122141 28230 net.cpp:276] The NetState phase (0) differed from the phase (1) specified by a rule in layer accuracy-top5
I0202 11:51:16.122364 28230 net.cpp:39] Initializing net from parameters: 
name: "BUS_RIO"
layers {
  top: "data"
  top: "label"
  name: "data"
  type: HDF5_DATA
  hdf5_data_param {
    source: "/home/rfn/NYU/BusRio/hdf5/train.h5.txt"
    batch_size: 50
  }
  include {
    phase: TRAIN
  }
}
layers {
  bottom: "data"
  top: "conv1"
  name: "conv1"
  type: CONVOLUTION
  blobs_lr: 1
  blobs_lr: 2
  weight_decay: 1
  weight_decay: 0
  convolution_param {
    num_output: 64
    weight_filler {
      type: "gaussian"
      std: 0.01
    }
    bias_filler {
      type: "constant"
      value: 0
    }
    kernel_h: 1
    kernel_w: 3
  }
}
layers {
  bottom: "conv1"
  top: "conv1"
  name: "relu1"
  type: RELU
}
layers {
  bottom: "conv1"
  top: "pool1"
  name: "pool1"
  type: POOLING
  pooling_param {
    pool: MAX
    kernel_h: 1
    kernel_w: 2
    stride_h: 1
    stride_w: 2
  }
}
layers {
  bottom: "pool1"
  top: "conv2"
  name: "conv2"
  type: CONVOLUTION
  blobs_lr: 1
  blobs_lr: 2
  weight_decay: 1
  weight_decay: 0
  convolution_param {
    num_output: 128
    weight_filler {
      type: "gaussian"
      std: 0.01
    }
    bias_filler {
      type: "constant"
      value: 0
    }
    kernel_h: 1
    kernel_w: 3
  }
}
layers {
  bottom: "conv2"
  top: "conv2"
  name: "relu2"
  type: RELU
}
layers {
  bottom: "conv2"
  top: "pool2"
  name: "pool2"
  type: POOLING
  pooling_param {
    pool: MAX
    kernel_h: 1
    kernel_w: 2
    stride_h: 1
    stride_w: 2
  }
}
layers {
  bottom: "pool2"
  top: "fc3"
  name: "fc3"
  type: INNER_PRODUCT
  blobs_lr: 1
  blobs_lr: 2
  weight_decay: 1
  weight_decay: 0
  inner_product_param {
    num_output: 300
    weight_filler {
      type: "gaussian"
      std: 0.01
    }
    bias_filler {
      type: "constant"
      value: 1
    }
  }
}
layers {
  bottom: "fc3"
  top: "fc3"
  name: "relu3"
  type: RELU
}
layers {
  bottom: "fc3"
  top: "fc3"
  name: "drop3"
  type: DROPOUT
  dropout_param {
    dropout_ratio: 0.5
  }
}
layers {
  bottom: "fc3"
  top: "fc4"
  name: "fc4"
  type: INNER_PRODUCT
  blobs_lr: 1
  blobs_lr: 2
  weight_decay: 1
  weight_decay: 0
  inner_product_param {
    num_output: 300
    weight_filler {
      type: "gaussian"
      std: 0.01
    }
    bias_filler {
      type: "constant"
      value: 1
    }
  }
}
layers {
  bottom: "fc4"
  top: "fc4"
  name: "relu4"
  type: RELU
}
layers {
  bottom: "fc4"
  top: "fc4"
  name: "drop4"
  type: DROPOUT
  dropout_param {
    dropout_ratio: 0.5
  }
}
layers {
  bottom: "fc4"
  top: "fc5"
  name: "fc5"
  type: INNER_PRODUCT
  blobs_lr: 1
  blobs_lr: 2
  weight_decay: 1
  weight_decay: 0
  inner_product_param {
    num_output: 486
    weight_filler {
      type: "gaussian"
      std: 0.01
    }
    bias_filler {
      type: "constant"
      value: 0
    }
  }
}
layers {
  bottom: "fc5"
  bottom: "label"
  top: "loss"
  name: "loss"
  type: SOFTMAX_LOSS
}
state {
  phase: TRAIN
}
I0202 11:51:16.122436 28230 layer_factory.hpp:78] Creating layer data
I0202 11:51:16.122447 28230 net.cpp:69] Creating Layer data
I0202 11:51:16.122459 28230 net.cpp:357] data -> data
I0202 11:51:16.122489 28230 net.cpp:357] data -> label
I0202 11:51:16.122514 28230 net.cpp:98] Setting up data
I0202 11:51:16.122529 28230 hdf5_data_layer.cpp:63] Loading list of HDF5 filenames from: /home/rfn/NYU/BusRio/hdf5/train.h5.txt
I0202 11:51:16.124189 28230 hdf5_data_layer.cpp:77] Number of HDF5 files: 5689
I0202 11:51:16.125263 28230 net.cpp:105] Top shape: 50 3 1 20 (3000)
I0202 11:51:16.125277 28230 net.cpp:105] Top shape: 50 1 1 1 (50)
I0202 11:51:16.125291 28230 layer_factory.hpp:78] Creating layer conv1
I0202 11:51:16.125303 28230 net.cpp:69] Creating Layer conv1
I0202 11:51:16.125308 28230 net.cpp:395] conv1 <- data
I0202 11:51:16.125329 28230 net.cpp:357] conv1 -> conv1
I0202 11:51:16.125346 28230 net.cpp:98] Setting up conv1
I0202 11:51:16.125793 28230 net.cpp:105] Top shape: 50 64 1 18 (57600)
I0202 11:51:16.125819 28230 layer_factory.hpp:78] Creating layer relu1
I0202 11:51:16.125826 28230 net.cpp:69] Creating Layer relu1
I0202 11:51:16.125830 28230 net.cpp:395] relu1 <- conv1
I0202 11:51:16.125838 28230 net.cpp:346] relu1 -> conv1 (in-place)
I0202 11:51:16.125855 28230 net.cpp:98] Setting up relu1
I0202 11:51:16.125871 28230 net.cpp:105] Top shape: 50 64 1 18 (57600)
I0202 11:51:16.125875 28230 layer_factory.hpp:78] Creating layer pool1
I0202 11:51:16.125880 28230 net.cpp:69] Creating Layer pool1
I0202 11:51:16.125885 28230 net.cpp:395] pool1 <- conv1
I0202 11:51:16.125900 28230 net.cpp:357] pool1 -> pool1
I0202 11:51:16.125905 28230 net.cpp:98] Setting up pool1
I0202 11:51:16.125926 28230 net.cpp:105] Top shape: 50 64 1 9 (28800)
I0202 11:51:16.125931 28230 layer_factory.hpp:78] Creating layer conv2
I0202 11:51:16.125936 28230 net.cpp:69] Creating Layer conv2
I0202 11:51:16.125941 28230 net.cpp:395] conv2 <- pool1
I0202 11:51:16.125946 28230 net.cpp:357] conv2 -> conv2
I0202 11:51:16.125953 28230 net.cpp:98] Setting up conv2
I0202 11:51:16.126593 28230 net.cpp:105] Top shape: 50 128 1 7 (44800)
I0202 11:51:16.126611 28230 layer_factory.hpp:78] Creating layer relu2
I0202 11:51:16.126616 28230 net.cpp:69] Creating Layer relu2
I0202 11:51:16.126620 28230 net.cpp:395] relu2 <- conv2
I0202 11:51:16.126624 28230 net.cpp:346] relu2 -> conv2 (in-place)
I0202 11:51:16.126631 28230 net.cpp:98] Setting up relu2
I0202 11:51:16.126644 28230 net.cpp:105] Top shape: 50 128 1 7 (44800)
I0202 11:51:16.126648 28230 layer_factory.hpp:78] Creating layer pool2
I0202 11:51:16.126652 28230 net.cpp:69] Creating Layer pool2
I0202 11:51:16.126665 28230 net.cpp:395] pool2 <- conv2
I0202 11:51:16.126670 28230 net.cpp:357] pool2 -> pool2
I0202 11:51:16.126677 28230 net.cpp:98] Setting up pool2
I0202 11:51:16.126696 28230 net.cpp:105] Top shape: 50 128 1 4 (25600)
I0202 11:51:16.126700 28230 layer_factory.hpp:78] Creating layer fc3
I0202 11:51:16.126716 28230 net.cpp:69] Creating Layer fc3
I0202 11:51:16.126720 28230 net.cpp:395] fc3 <- pool2
I0202 11:51:16.126726 28230 net.cpp:357] fc3 -> fc3
I0202 11:51:16.126744 28230 net.cpp:98] Setting up fc3
I0202 11:51:16.130957 28230 net.cpp:105] Top shape: 50 300 1 1 (15000)
I0202 11:51:16.130986 28230 layer_factory.hpp:78] Creating layer relu3
I0202 11:51:16.130993 28230 net.cpp:69] Creating Layer relu3
I0202 11:51:16.130997 28230 net.cpp:395] relu3 <- fc3
I0202 11:51:16.131003 28230 net.cpp:346] relu3 -> fc3 (in-place)
I0202 11:51:16.131011 28230 net.cpp:98] Setting up relu3
I0202 11:51:16.131016 28230 net.cpp:105] Top shape: 50 300 1 1 (15000)
I0202 11:51:16.131019 28230 layer_factory.hpp:78] Creating layer drop3
I0202 11:51:16.131027 28230 net.cpp:69] Creating Layer drop3
I0202 11:51:16.131031 28230 net.cpp:395] drop3 <- fc3
I0202 11:51:16.131038 28230 net.cpp:346] drop3 -> fc3 (in-place)
I0202 11:51:16.131043 28230 net.cpp:98] Setting up drop3
I0202 11:51:16.131049 28230 net.cpp:105] Top shape: 50 300 1 1 (15000)
I0202 11:51:16.131054 28230 layer_factory.hpp:78] Creating layer fc4
I0202 11:51:16.131060 28230 net.cpp:69] Creating Layer fc4
I0202 11:51:16.131064 28230 net.cpp:395] fc4 <- fc3
I0202 11:51:16.131078 28230 net.cpp:357] fc4 -> fc4
I0202 11:51:16.131083 28230 net.cpp:98] Setting up fc4
I0202 11:51:16.134191 28230 net.cpp:105] Top shape: 50 300 1 1 (15000)
I0202 11:51:16.134210 28230 layer_factory.hpp:78] Creating layer relu4
I0202 11:51:16.134218 28230 net.cpp:69] Creating Layer relu4
I0202 11:51:16.134227 28230 net.cpp:395] relu4 <- fc4
I0202 11:51:16.134235 28230 net.cpp:346] relu4 -> fc4 (in-place)
I0202 11:51:16.134245 28230 net.cpp:98] Setting up relu4
I0202 11:51:16.134255 28230 net.cpp:105] Top shape: 50 300 1 1 (15000)
I0202 11:51:16.134263 28230 layer_factory.hpp:78] Creating layer drop4
I0202 11:51:16.134273 28230 net.cpp:69] Creating Layer drop4
I0202 11:51:16.134280 28230 net.cpp:395] drop4 <- fc4
I0202 11:51:16.134292 28230 net.cpp:346] drop4 -> fc4 (in-place)
I0202 11:51:16.134302 28230 net.cpp:98] Setting up drop4
I0202 11:51:16.134311 28230 net.cpp:105] Top shape: 50 300 1 1 (15000)
I0202 11:51:16.134317 28230 layer_factory.hpp:78] Creating layer fc5
I0202 11:51:16.134328 28230 net.cpp:69] Creating Layer fc5
I0202 11:51:16.134335 28230 net.cpp:395] fc5 <- fc4
I0202 11:51:16.134346 28230 net.cpp:357] fc5 -> fc5
I0202 11:51:16.134358 28230 net.cpp:98] Setting up fc5
I0202 11:51:16.138289 28230 net.cpp:105] Top shape: 50 486 1 1 (24300)
I0202 11:51:16.138317 28230 layer_factory.hpp:78] Creating layer loss
I0202 11:51:16.138326 28230 net.cpp:69] Creating Layer loss
I0202 11:51:16.138331 28230 net.cpp:395] loss <- fc5
I0202 11:51:16.138336 28230 net.cpp:395] loss <- label
I0202 11:51:16.138347 28230 net.cpp:357] loss -> loss
I0202 11:51:16.138368 28230 net.cpp:98] Setting up loss
I0202 11:51:16.138381 28230 layer_factory.hpp:78] Creating layer loss
I0202 11:51:16.138504 28230 net.cpp:105] Top shape: 1 1 1 1 (1)
I0202 11:51:16.138512 28230 net.cpp:111]     with loss weight 1
I0202 11:51:16.138545 28230 net.cpp:172] loss needs backward computation.
I0202 11:51:16.138553 28230 net.cpp:172] fc5 needs backward computation.
I0202 11:51:16.138561 28230 net.cpp:172] drop4 needs backward computation.
I0202 11:51:16.138567 28230 net.cpp:172] relu4 needs backward computation.
I0202 11:51:16.138573 28230 net.cpp:172] fc4 needs backward computation.
…
I0202 11:51:16.138685 28230 net.cpp:223] Memory required for data: 1506204
I0202 11:51:16.139277 28230 solver.cpp:154] Creating test net (#0) specified by net file: /home/rfn/NYU/BusRio/codes/textxml/caffe/train.prototxt
I0202 11:51:16.139314 28230 net.cpp:276] The NetState phase (1) differed from the phase (0) specified by a rule in layer data
I0202 11:51:16.139549 28230 net.cpp:39] Initializing net from parameters: 
name: "BUS_RIO"
layers {
  top: "data"
  top: "label"
  name: "data"
  type: HDF5_DATA
  hdf5_data_param {
    source: "/home/rfn/NYU/BusRio/hdf5/test.h5.txt"
    batch_size: 50
  }
  include {
    phase: TEST
  }
}
layers {
  bottom: "data"
  top: "conv1"
  name: "conv1"
  type: CONVOLUTION
  blobs_lr: 1
  blobs_lr: 2
  weight_decay: 1
  weight_decay: 0
  convolution_param {
    num_output: 64
    weight_filler {
      type: "gaussian"
      std: 0.01
    }
    bias_filler {
      type: "constant"
      value: 0
    }
    kernel_h: 1
    kernel_w: 3
  }
}
layers {
  bottom: "conv1"
  top: "conv1"
  name: "relu1"
  type: RELU
}
layers {
  bottom: "conv1"
  top: "pool1"
  name: "pool1"
  type: POOLING
  pooling_param {
    pool: MAX
    kernel_h: 1
    kernel_w: 2
    stride_h: 1
    stride_w: 2
  }
}
layers {
  bottom: "pool1"
  top: "conv2"
  name: "conv2"
  type: CONVOLUTION
  blobs_lr: 1
  blobs_lr: 2
  weight_decay: 1
  weight_decay: 0
  convolution_param {
    num_output: 128
    weight_filler {
      type: "gaussian"
      std: 0.01
    }
    bias_filler {
      type: "constant"
      value: 0
    }
    kernel_h: 1
    kernel_w: 3
  }
}
layers {
  bottom: "conv2"
  top: "conv2"
  name: "relu2"
  type: RELU
}
layers {
  bottom: "conv2"
  top: "pool2"
  name: "pool2"
  type: POOLING
  pooling_param {
    pool: MAX
    kernel_h: 1
    kernel_w: 2
    stride_h: 1
    stride_w: 2
  }
}
layers {
  bottom: "pool2"
  top: "fc3"
  name: "fc3"
  type: INNER_PRODUCT
  blobs_lr: 1
  blobs_lr: 2
  weight_decay: 1
  weight_decay: 0
  inner_product_param {
    num_output: 300
    weight_filler {
      type: "gaussian"
      std: 0.01
    }
    bias_filler {
      type: "constant"
      value: 1
    }
  }
}
layers {
  bottom: "fc3"
  top: "fc3"
  name: "relu3"
  type: RELU
}
layers {
  bottom: "fc3"
  top: "fc3"
  name: "drop3"
  type: DROPOUT
  dropout_param {
    dropout_ratio: 0.5
  }
}
layers {
  bottom: "fc3"
  top: "fc4"
  name: "fc4"
  type: INNER_PRODUCT
  blobs_lr: 1
  blobs_lr: 2
  weight_decay: 1
  weight_decay: 0
  inner_product_param {
    num_output: 300
    weight_filler {
      type: "gaussian"
      std: 0.01
    }
    bias_filler {
      type: "constant"
      value: 1
    }
  }
}
layers {
  bottom: "fc4"
  top: "fc4"
  name: "relu4"
  type: RELU
}
layers {
  bottom: "fc4"
  top: "fc4"
  name: "drop4"
  type: DROPOUT
  dropout_param {
    dropout_ratio: 0.5
  }
}
layers {
  bottom: "fc4"
  top: "fc5"
  name: "fc5"
  type: INNER_PRODUCT
  blobs_lr: 1
  blobs_lr: 2
  weight_decay: 1
  weight_decay: 0
  inner_product_param {
    num_output: 486
    weight_filler {
      type: "gaussian"
      std: 0.01
    }
    bias_filler {
      type: "constant"
      value: 0
    }
  }
}
layers {
  bottom: "fc5"
  bottom: "label"
  top: "accuracy-top1"
  name: "accuracy-top1"
  type: ACCURACY
  include {
    phase: TEST
  }
}
layers {
  bottom: "fc5"
  bottom: "label"
  top: "accuracy-top5"
  name: "accuracy-top5"
  type: ACCURACY
  accuracy_param {
    top_k: 5
  }
  include {
    phase: TEST
  }
}
layers {
  bottom: "fc5"
  bottom: "label"
  top: "loss"
  name: "loss"
  type: SOFTMAX_LOSS
}
state {
  phase: TEST
}
I0202 11:51:16.139648 28230 layer_factory.hpp:78] Creating layer data
I0202 11:51:16.139662 28230 net.cpp:69] Creating Layer data
I0202 11:51:16.139667 28230 net.cpp:357] data -> data
I0202 11:51:16.139677 28230 net.cpp:357] data -> label
I0202 11:51:16.139684 28230 net.cpp:98] Setting up data
I0202 11:51:16.139689 28230 hdf5_data_layer.cpp:63] Loading list of HDF5 filenames from: /home/rfn/NYU/BusRio/hdf5/test.h5.txt
I0202 11:51:16.139983 28230 hdf5_data_layer.cpp:77] Number of HDF5 files: 999
I0202 11:51:16.140390 28230 net.cpp:105] Top shape: 50 3 1 20 (3000)
I0202 11:51:16.140403 28230 net.cpp:105] Top shape: 50 1 1 1 (50)
I0202 11:51:16.140408 28230 layer_factory.hpp:78] Creating layer label_data_1_split
I0202 11:51:16.140416 28230 net.cpp:69] Creating Layer label_data_1_split
I0202 11:51:16.140421 28230 net.cpp:395] label_data_1_split <- label
I0202 11:51:16.140427 28230 net.cpp:357] label_data_1_split -> label_data_1_split_0
I0202 11:51:16.140435 28230 net.cpp:357] label_data_1_split -> label_data_1_split_1
I0202 11:51:16.140442 28230 net.cpp:357] label_data_1_split -> label_data_1_split_2
I0202 11:51:16.140449 28230 net.cpp:98] Setting up label_data_1_split
I0202 11:51:16.140455 28230 net.cpp:105] Top shape: 50 1 1 1 (50)
I0202 11:51:16.140458 28230 net.cpp:105] Top shape: 50 1 1 1 (50)
I0202 11:51:16.140462 28230 net.cpp:105] Top shape: 50 1 1 1 (50)
I0202 11:51:16.140467 28230 layer_factory.hpp:78] Creating layer conv1
I0202 11:51:16.140478 28230 net.cpp:69] Creating Layer conv1
I0202 11:51:16.140486 28230 net.cpp:395] conv1 <- data
I0202 11:51:16.140492 28230 net.cpp:357] conv1 -> conv1
I0202 11:51:16.140501 28230 net.cpp:98] Setting up conv1
I0202 11:51:16.140527 28230 net.cpp:105] Top shape: 50 64 1 18 (57600)
I0202 11:51:16.140535 28230 layer_factory.hpp:78] Creating layer relu1
I0202 11:51:16.140542 28230 net.cpp:69] Creating Layer relu1
I0202 11:51:16.140547 28230 net.cpp:395] relu1 <- conv1
I0202 11:51:16.140552 28230 net.cpp:346] relu1 -> conv1 (in-place)
I0202 11:51:16.140558 28230 net.cpp:98] Setting up relu1
I0202 11:51:16.140561 28230 net.cpp:105] Top shape: 50 64 1 18 (57600)
I0202 11:51:16.140566 28230 layer_factory.hpp:78] Creating layer pool1
I0202 11:51:16.140571 28230 net.cpp:69] Creating Layer pool1
I0202 11:51:16.140576 28230 net.cpp:395] pool1 <- conv1
I0202 11:51:16.140581 28230 net.cpp:357] pool1 -> pool1
I0202 11:51:16.140588 28230 net.cpp:98] Setting up pool1
I0202 11:51:16.140594 28230 net.cpp:105] Top shape: 50 64 1 9 (28800)
I0202 11:51:16.140597 28230 layer_factory.hpp:78] Creating layer conv2
I0202 11:51:16.140602 28230 net.cpp:69] Creating Layer conv2
I0202 11:51:16.140606 28230 net.cpp:395] conv2 <- pool1
I0202 11:51:16.140612 28230 net.cpp:357] conv2 -> conv2
I0202 11:51:16.140619 28230 net.cpp:98] Setting up conv2
I0202 11:51:16.141247 28230 net.cpp:105] Top shape: 50 128 1 7 (44800)
I0202 11:51:16.141254 28230 layer_factory.hpp:78] Creating layer relu2
I0202 11:51:16.141259 28230 net.cpp:69] Creating Layer relu2
I0202 11:51:16.141264 28230 net.cpp:395] relu2 <- conv2
I0202 11:51:16.141269 28230 net.cpp:346] relu2 -> conv2 (in-place)
I0202 11:51:16.141274 28230 net.cpp:98] Setting up relu2
I0202 11:51:16.141279 28230 net.cpp:105] Top shape: 50 128 1 7 (44800)
I0202 11:51:16.141283 28230 layer_factory.hpp:78] Creating layer pool2
I0202 11:51:16.141288 28230 net.cpp:69] Creating Layer pool2
I0202 11:51:16.141293 28230 net.cpp:395] pool2 <- conv2
I0202 11:51:16.141297 28230 net.cpp:357] pool2 -> pool2
I0202 11:51:16.141304 28230 net.cpp:98] Setting up pool2
I0202 11:51:16.141309 28230 net.cpp:105] Top shape: 50 128 1 4 (25600)
I0202 11:51:16.141314 28230 layer_factory.hpp:78] Creating layer fc3
I0202 11:51:16.141320 28230 net.cpp:69] Creating Layer fc3
I0202 11:51:16.141324 28230 net.cpp:395] fc3 <- pool2
I0202 11:51:16.141330 28230 net.cpp:357] fc3 -> fc3
I0202 11:51:16.141336 28230 net.cpp:98] Setting up fc3
I0202 11:51:16.145278 28230 net.cpp:105] Top shape: 50 300 1 1 (15000)
I0202 11:51:16.145300 28230 layer_factory.hpp:78] Creating layer relu3
I0202 11:51:16.145305 28230 net.cpp:69] Creating Layer relu3
I0202 11:51:16.145319 28230 net.cpp:395] relu3 <- fc3
I0202 11:51:16.145324 28230 net.cpp:346] relu3 -> fc3 (in-place)
I0202 11:51:16.145329 28230 net.cpp:98] Setting up relu3
I0202 11:51:16.145334 28230 net.cpp:105] Top shape: 50 300 1 1 (15000)
I0202 11:51:16.145336 28230 layer_factory.hpp:78] Creating layer drop3
I0202 11:51:16.145341 28230 net.cpp:69] Creating Layer drop3
I0202 11:51:16.145346 28230 net.cpp:395] drop3 <- fc3
I0202 11:51:16.145351 28230 net.cpp:346] drop3 -> fc3 (in-place)
I0202 11:51:16.145356 28230 net.cpp:98] Setting up drop3
I0202 11:51:16.145361 28230 net.cpp:105] Top shape: 50 300 1 1 (15000)
I0202 11:51:16.145364 28230 layer_factory.hpp:78] Creating layer fc4
I0202 11:51:16.145370 28230 net.cpp:69] Creating Layer fc4
I0202 11:51:16.145387 28230 net.cpp:395] fc4 <- fc3
I0202 11:51:16.145392 28230 net.cpp:357] fc4 -> fc4
I0202 11:51:16.145398 28230 net.cpp:98] Setting up fc4
I0202 11:51:16.148179 28230 net.cpp:105] Top shape: 50 300 1 1 (15000)
I0202 11:51:16.148207 28230 layer_factory.hpp:78] Creating layer relu4
I0202 11:51:16.148216 28230 net.cpp:69] Creating Layer relu4
I0202 11:51:16.148222 28230 net.cpp:395] relu4 <- fc4
I0202 11:51:16.148247 28230 net.cpp:346] relu4 -> fc4 (in-place)
I0202 11:51:16.148257 28230 net.cpp:98] Setting up relu4
I0202 11:51:16.148272 28230 net.cpp:105] Top shape: 50 300 1 1 (15000)
I0202 11:51:16.148283 28230 layer_factory.hpp:78] Creating layer drop4
I0202 11:51:16.148289 28230 net.cpp:69] Creating Layer drop4
I0202 11:51:16.148301 28230 net.cpp:395] drop4 <- fc4
I0202 11:51:16.148319 28230 net.cpp:346] drop4 -> fc4 (in-place)
I0202 11:51:16.148337 28230 net.cpp:98] Setting up drop4
I0202 11:51:16.148354 28230 net.cpp:105] Top shape: 50 300 1 1 (15000)
I0202 11:51:16.148358 28230 layer_factory.hpp:78] Creating layer fc5
I0202 11:51:16.148367 28230 net.cpp:69] Creating Layer fc5
I0202 11:51:16.148373 28230 net.cpp:395] fc5 <- fc4
I0202 11:51:16.148392 28230 net.cpp:357] fc5 -> fc5
I0202 11:51:16.148413 28230 net.cpp:98] Setting up fc5
I0202 11:51:16.152951 28230 net.cpp:105] Top shape: 50 486 1 1 (24300)
I0202 11:51:16.152984 28230 layer_factory.hpp:78] Creating layer fc5_fc5_0_split
I0202 11:51:16.152992 28230 net.cpp:69] Creating Layer fc5_fc5_0_split
I0202 11:51:16.152997 28230 net.cpp:395] fc5_fc5_0_split <- fc5
I0202 11:51:16.153018 28230 net.cpp:357] fc5_fc5_0_split -> fc5_fc5_0_split_0
I0202 11:51:16.153030 28230 net.cpp:357] fc5_fc5_0_split -> fc5_fc5_0_split_1
I0202 11:51:16.153067 28230 net.cpp:357] fc5_fc5_0_split -> fc5_fc5_0_split_2
I0202 11:51:16.153086 28230 net.cpp:98] Setting up fc5_fc5_0_split
I0202 11:51:16.153092 28230 net.cpp:105] Top shape: 50 486 1 1 (24300)
I0202 11:51:16.153098 28230 net.cpp:105] Top shape: 50 486 1 1 (24300)
I0202 11:51:16.153115 28230 net.cpp:105] Top shape: 50 486 1 1 (24300)
I0202 11:51:16.153120 28230 layer_factory.hpp:78] Creating layer accuracy-top1
I0202 11:51:16.153143 28230 net.cpp:69] Creating Layer accuracy-top1
I0202 11:51:16.153152 28230 net.cpp:395] accuracy-top1 <- fc5_fc5_0_split_0
I0202 11:51:16.153172 28230 net.cpp:395] accuracy-top1 <- label_data_1_split_0
I0202 11:51:16.153182 28230 net.cpp:357] accuracy-top1 -> accuracy-top1
I0202 11:51:16.153194 28230 net.cpp:98] Setting up accuracy-top1
I0202 11:51:16.153203 28230 net.cpp:105] Top shape: 1 1 1 1 (1)
I0202 11:51:16.153211 28230 layer_factory.hpp:78] Creating layer accuracy-top5
I0202 11:51:16.153221 28230 net.cpp:69] Creating Layer accuracy-top5
I0202 11:51:16.153229 28230 net.cpp:395] accuracy-top5 <- fc5_fc5_0_split_1
I0202 11:51:16.153236 28230 net.cpp:395] accuracy-top5 <- label_data_1_split_1
I0202 11:51:16.153249 28230 net.cpp:357] accuracy-top5 -> accuracy-top5
I0202 11:51:16.153260 28230 net.cpp:98] Setting up accuracy-top5
I0202 11:51:16.153270 28230 net.cpp:105] Top shape: 1 1 1 1 (1)
I0202 11:51:16.153285 28230 layer_factory.hpp:78] Creating layer loss
I0202 11:51:16.153302 28230 net.cpp:69] Creating Layer loss
I0202 11:51:16.153311 28230 net.cpp:395] loss <- fc5_fc5_0_split_2
I0202 11:51:16.153319 28230 net.cpp:395] loss <- label_data_1_split_2
I0202 11:51:16.153328 28230 net.cpp:357] loss -> loss
I0202 11:51:16.153339 28230 net.cpp:98] Setting up loss
I0202 11:51:16.153347 28230 layer_factory.hpp:78] Creating layer loss
I0202 11:51:16.153390 28230 net.cpp:105] Top shape: 1 1 1 1 (1)
I0202 11:51:16.153398 28230 net.cpp:111]     with loss weight 1
I0202 11:51:16.153406 28230 net.cpp:172] loss needs backward computation.
I0202 11:51:16.153411 28230 net.cpp:174] accuracy-top5 does not need backward computation.
I0202 11:51:16.153415 28230 net.cpp:174] accuracy-top1 does not need backward computation.
I0202 11:51:16.153419 28230 net.cpp:172] fc5_fc5_0_split needs backward computation.
…
