…
I0329 21:58:32.517969 29912 net.cpp:275] The NetState phase (0) differed from the phase (1) specified by a rule in layer data
I0329 21:58:32.518033 29912 net.cpp:275] The NetState phase (0) differed from the phase (1) specified by a rule in layer accuracy-top1
I0329 21:58:32.518055 29912 net.cpp:275] The NetState phase (0) differed from the phase (1) specified by a rule in layer accuracy-top5
I0329 21:58:32.518085 29912 net.cpp:39] Initializing net from parameters: 
name: "BUS_RIO"
layers {
  top: "data"
  top: "label"
  name: "data"
  type: HDF5_DATA
  hdf5_data_param {
    source: "/work/rfn216/bus_rio/train_with_null_lines.h5.txt"
    batch_size: 50
  }
  include {
    phase: TRAIN
  }
}
layers {
  bottom: "data"
  top: "conv1-1"
  name: "conv1-1"
  type: CONVOLUTION
  blobs_lr: 1
  blobs_lr: 2
  weight_decay: 1
  weight_decay: 0
  convolution_param {
    num_output: 64
    weight_filler {
      type: "gaussian"
      std: 0.01
    }
    bias_filler {
      type: "constant"
      value: 0
    }
    pad_h: 0
    pad_w: 1
    kernel_h: 1
    kernel_w: 3
  }
}
layers {
  bottom: "conv1-1"
  top: "conv1-1"
  name: "relu1-1"
  type: RELU
}
layers {
  bottom: "conv1-1"
  top: "conv1-2"
  name: "conv1-2"
  type: CONVOLUTION
  blobs_lr: 1
  blobs_lr: 2
  weight_decay: 1
  weight_decay: 0
  convolution_param {
    num_output: 64
    weight_filler {
      type: "gaussian"
      std: 0.01
    }
    bias_filler {
      type: "constant"
      value: 0
    }
    pad_h: 0
    pad_w: 1
    kernel_h: 1
    kernel_w: 3
  }
}
layers {
  bottom: "conv1-2"
  top: "conv1-2"
  name: "relu1-2"
  type: RELU
}
layers {
  bottom: "conv1-2"
  top: "conv1-3"
  name: "conv1-3"
  type: CONVOLUTION
  blobs_lr: 1
  blobs_lr: 2
  weight_decay: 1
  weight_decay: 0
  convolution_param {
    num_output: 64
    weight_filler {
      type: "gaussian"
      std: 0.01
    }
    bias_filler {
      type: "constant"
      value: 0
    }
    pad_h: 0
    pad_w: 1
    kernel_h: 1
    kernel_w: 3
  }
}
layers {
  bottom: "conv1-3"
  top: "conv1-3"
  name: "relu1-3"
  type: RELU
}
layers {
  bottom: "conv1-3"
  top: "pool1"
  name: "pool1"
  type: POOLING
  pooling_param {
    pool: MAX
    kernel_h: 1
    kernel_w: 2
    stride_h: 1
    stride_w: 2
  }
}
layers {
  bottom: "pool1"
  top: "conv2-1"
  name: "conv2-1"
  type: CONVOLUTION
  blobs_lr: 1
  blobs_lr: 2
  weight_decay: 1
  weight_decay: 0
  convolution_param {
    num_output: 128
    weight_filler {
      type: "gaussian"
      std: 0.01
    }
    bias_filler {
      type: "constant"
      value: 0
    }
    pad_h: 0
    pad_w: 1
    kernel_h: 1
    kernel_w: 3
  }
}
layers {
  bottom: "conv2-1"
  top: "conv2-1"
  name: "relu2-1"
  type: RELU
}
layers {
  bottom: "conv2-1"
  top: "conv2-2"
  name: "conv2-2"
  type: CONVOLUTION
  blobs_lr: 1
  blobs_lr: 2
  weight_decay: 1
  weight_decay: 0
  convolution_param {
    num_output: 128
    weight_filler {
      type: "gaussian"
      std: 0.01
    }
    bias_filler {
      type: "constant"
      value: 0
    }
    pad_h: 0
    pad_w: 1
    kernel_h: 1
    kernel_w: 3
  }
}
layers {
  bottom: "conv2-2"
  top: "conv2-2"
  name: "relu2-2"
  type: RELU
}
layers {
  bottom: "conv2-2"
  top: "conv2-3"
  name: "conv2-3"
  type: CONVOLUTION
  blobs_lr: 1
  blobs_lr: 2
  weight_decay: 1
  weight_decay: 0
  convolution_param {
    num_output: 128
    weight_filler {
      type: "gaussian"
      std: 0.01
    }
    bias_filler {
      type: "constant"
      value: 0
    }
    pad_h: 0
    pad_w: 1
    kernel_h: 1
    kernel_w: 3
  }
}
layers {
  bottom: "conv2-3"
  top: "conv2-3"
  name: "relu2-3"
  type: RELU
}
layers {
  bottom: "conv2-3"
  top: "pool2"
  name: "pool2"
  type: POOLING
  pooling_param {
    pool: MAX
    kernel_h: 1
    kernel_w: 2
    stride_h: 1
    stride_w: 2
  }
}
layers {
  bottom: "pool2"
  top: "fc3"
  name: "fc3"
  type: INNER_PRODUCT
  blobs_lr: 1
  blobs_lr: 2
  weight_decay: 1
  weight_decay: 0
  inner_product_param {
    num_output: 2000
    weight_filler {
      type: "gaussian"
      std: 0.01
    }
    bias_filler {
      type: "constant"
      value: 1
    }
  }
}
layers {
  bottom: "fc3"
  top: "fc3"
  name: "relu3"
  type: RELU
}
layers {
  bottom: "fc3"
  top: "fc3"
  name: "drop3"
  type: DROPOUT
  dropout_param {
    dropout_ratio: 0.5
  }
}
layers {
  bottom: "fc3"
  top: "fc4"
  name: "fc4"
  type: INNER_PRODUCT
  blobs_lr: 1
  blobs_lr: 2
  weight_decay: 1
  weight_decay: 0
  inner_product_param {
    num_output: 2000
    weight_filler {
      type: "gaussian"
      std: 0.01
    }
    bias_filler {
      type: "constant"
      value: 1
    }
  }
}
layers {
  bottom: "fc4"
  top: "fc4"
  name: "relu4"
  type: RELU
}
layers {
  bottom: "fc4"
  top: "fc4"
  name: "drop4"
  type: DROPOUT
  dropout_param {
    dropout_ratio: 0.5
  }
}
layers {
  bottom: "fc4"
  top: "fc5"
  name: "fc5-new"
  type: INNER_PRODUCT
  blobs_lr: 10
  blobs_lr: 20
  weight_decay: 1
  weight_decay: 0
  inner_product_param {
    num_output: 487
    weight_filler {
      type: "gaussian"
      std: 0.01
    }
    bias_filler {
      type: "constant"
      value: 0
    }
  }
}
layers {
  bottom: "fc5"
  bottom: "label"
  top: "loss"
  name: "loss"
  type: SOFTMAX_LOSS
}
state {
  phase: TRAIN
}
I0329 21:58:32.518666 29912 net.cpp:67] Creating Layer data
I0329 21:58:32.518702 29912 net.cpp:356] data -> data
I0329 21:58:32.518790 29912 net.cpp:356] data -> label
I0329 21:58:32.518827 29912 net.cpp:96] Setting up data
I0329 21:58:32.518851 29912 hdf5_data_layer.cpp:57] Loading filename from /work/rfn216/bus_rio/train_with_null_lines.h5.txt
I0329 21:58:33.671085 29912 hdf5_data_layer.cpp:69] Number of files: 624477
I0329 21:58:33.792737 29912 hdf5_data_layer.cpp:81] output data size: 50,3,1,20
I0329 21:58:33.792816 29912 net.cpp:103] Top shape: 50 3 1 20 (3000)
I0329 21:58:33.792861 29912 net.cpp:103] Top shape: 50 1 1 1 (50)
I0329 21:58:33.792913 29912 net.cpp:67] Creating Layer conv1-1
I0329 21:58:33.792949 29912 net.cpp:394] conv1-1 <- data
I0329 21:58:33.793009 29912 net.cpp:356] conv1-1 -> conv1-1
I0329 21:58:33.793084 29912 net.cpp:96] Setting up conv1-1
I0329 21:58:33.794699 29912 net.cpp:103] Top shape: 50 64 1 20 (64000)
I0329 21:58:33.794808 29912 net.cpp:67] Creating Layer relu1-1
I0329 21:58:33.794845 29912 net.cpp:394] relu1-1 <- conv1-1
I0329 21:58:33.794878 29912 net.cpp:345] relu1-1 -> conv1-1 (in-place)
I0329 21:58:33.794917 29912 net.cpp:96] Setting up relu1-1
I0329 21:58:33.794957 29912 net.cpp:103] Top shape: 50 64 1 20 (64000)
I0329 21:58:33.794994 29912 net.cpp:67] Creating Layer conv1-2
I0329 21:58:33.795022 29912 net.cpp:394] conv1-2 <- conv1-1
I0329 21:58:33.795053 29912 net.cpp:356] conv1-2 -> conv1-2
I0329 21:58:33.795089 29912 net.cpp:96] Setting up conv1-2
I0329 21:58:33.795923 29912 net.cpp:103] Top shape: 50 64 1 20 (64000)
I0329 21:58:33.795977 29912 net.cpp:67] Creating Layer relu1-2
I0329 21:58:33.796005 29912 net.cpp:394] relu1-2 <- conv1-2
I0329 21:58:33.796036 29912 net.cpp:345] relu1-2 -> conv1-2 (in-place)
I0329 21:58:33.796068 29912 net.cpp:96] Setting up relu1-2
I0329 21:58:33.796094 29912 net.cpp:103] Top shape: 50 64 1 20 (64000)
I0329 21:58:33.796126 29912 net.cpp:67] Creating Layer conv1-3
I0329 21:58:33.796152 29912 net.cpp:394] conv1-3 <- conv1-2
I0329 21:58:33.796183 29912 net.cpp:356] conv1-3 -> conv1-3
I0329 21:58:33.796238 29912 net.cpp:96] Setting up conv1-3
I0329 21:58:33.797117 29912 net.cpp:103] Top shape: 50 64 1 20 (64000)
I0329 21:58:33.797247 29912 net.cpp:67] Creating Layer relu1-3
I0329 21:58:33.797279 29912 net.cpp:394] relu1-3 <- conv1-3
I0329 21:58:33.797308 29912 net.cpp:345] relu1-3 -> conv1-3 (in-place)
I0329 21:58:33.797340 29912 net.cpp:96] Setting up relu1-3
I0329 21:58:33.797366 29912 net.cpp:103] Top shape: 50 64 1 20 (64000)
I0329 21:58:33.797397 29912 net.cpp:67] Creating Layer pool1
I0329 21:58:33.797422 29912 net.cpp:394] pool1 <- conv1-3
I0329 21:58:33.797451 29912 net.cpp:356] pool1 -> pool1
I0329 21:58:33.797498 29912 net.cpp:96] Setting up pool1
I0329 21:58:33.797551 29912 net.cpp:103] Top shape: 50 64 1 10 (32000)
I0329 21:58:33.797593 29912 net.cpp:67] Creating Layer conv2-1
I0329 21:58:33.797621 29912 net.cpp:394] conv2-1 <- pool1
I0329 21:58:33.797652 29912 net.cpp:356] conv2-1 -> conv2-1
I0329 21:58:33.797687 29912 net.cpp:96] Setting up conv2-1
I0329 21:58:33.798727 29912 net.cpp:103] Top shape: 50 128 1 10 (64000)
I0329 21:58:33.798749 29912 net.cpp:67] Creating Layer relu2-1
I0329 21:58:33.798761 29912 net.cpp:394] relu2-1 <- conv2-1
I0329 21:58:33.798774 29912 net.cpp:345] relu2-1 -> conv2-1 (in-place)
I0329 21:58:33.798789 29912 net.cpp:96] Setting up relu2-1
I0329 21:58:33.798799 29912 net.cpp:103] Top shape: 50 128 1 10 (64000)
I0329 21:58:33.798813 29912 net.cpp:67] Creating Layer conv2-2
I0329 21:58:33.798825 29912 net.cpp:394] conv2-2 <- conv2-1
I0329 21:58:33.798837 29912 net.cpp:356] conv2-2 -> conv2-2
I0329 21:58:33.798852 29912 net.cpp:96] Setting up conv2-2
I0329 21:58:33.800220 29912 net.cpp:103] Top shape: 50 128 1 10 (64000)
I0329 21:58:33.800246 29912 net.cpp:67] Creating Layer relu2-2
I0329 21:58:33.800258 29912 net.cpp:394] relu2-2 <- conv2-2
I0329 21:58:33.800271 29912 net.cpp:345] relu2-2 -> conv2-2 (in-place)
I0329 21:58:33.800285 29912 net.cpp:96] Setting up relu2-2
I0329 21:58:33.800297 29912 net.cpp:103] Top shape: 50 128 1 10 (64000)
I0329 21:58:33.800310 29912 net.cpp:67] Creating Layer conv2-3
I0329 21:58:33.800323 29912 net.cpp:394] conv2-3 <- conv2-2
I0329 21:58:33.800335 29912 net.cpp:356] conv2-3 -> conv2-3
I0329 21:58:33.800351 29912 net.cpp:96] Setting up conv2-3
I0329 21:58:33.801789 29912 net.cpp:103] Top shape: 50 128 1 10 (64000)
I0329 21:58:33.801812 29912 net.cpp:67] Creating Layer relu2-3
I0329 21:58:33.801825 29912 net.cpp:394] relu2-3 <- conv2-3
I0329 21:58:33.801837 29912 net.cpp:345] relu2-3 -> conv2-3 (in-place)
I0329 21:58:33.801851 29912 net.cpp:96] Setting up relu2-3
I0329 21:58:33.801862 29912 net.cpp:103] Top shape: 50 128 1 10 (64000)
I0329 21:58:33.801875 29912 net.cpp:67] Creating Layer pool2
I0329 21:58:33.801887 29912 net.cpp:394] pool2 <- conv2-3
I0329 21:58:33.801898 29912 net.cpp:356] pool2 -> pool2
I0329 21:58:33.801913 29912 net.cpp:96] Setting up pool2
I0329 21:58:33.801925 29912 net.cpp:103] Top shape: 50 128 1 5 (32000)
I0329 21:58:33.801941 29912 net.cpp:67] Creating Layer fc3
I0329 21:58:33.801952 29912 net.cpp:394] fc3 <- pool2
I0329 21:58:33.801965 29912 net.cpp:356] fc3 -> fc3
I0329 21:58:33.801995 29912 net.cpp:96] Setting up fc3
I0329 21:58:33.838582 29912 net.cpp:103] Top shape: 50 2000 1 1 (100000)
I0329 21:58:33.838611 29912 net.cpp:67] Creating Layer relu3
I0329 21:58:33.838624 29912 net.cpp:394] relu3 <- fc3
I0329 21:58:33.838637 29912 net.cpp:345] relu3 -> fc3 (in-place)
I0329 21:58:33.838651 29912 net.cpp:96] Setting up relu3
I0329 21:58:33.838662 29912 net.cpp:103] Top shape: 50 2000 1 1 (100000)
I0329 21:58:33.838675 29912 net.cpp:67] Creating Layer drop3
I0329 21:58:33.838687 29912 net.cpp:394] drop3 <- fc3
I0329 21:58:33.838699 29912 net.cpp:345] drop3 -> fc3 (in-place)
I0329 21:58:33.838721 29912 net.cpp:96] Setting up drop3
I0329 21:58:33.838742 29912 net.cpp:103] Top shape: 50 2000 1 1 (100000)
I0329 21:58:33.838758 29912 net.cpp:67] Creating Layer fc4
I0329 21:58:33.838769 29912 net.cpp:394] fc4 <- fc3
I0329 21:58:33.838783 29912 net.cpp:356] fc4 -> fc4
I0329 21:58:33.838798 29912 net.cpp:96] Setting up fc4
I0329 21:58:33.951609 29912 net.cpp:103] Top shape: 50 2000 1 1 (100000)
I0329 21:58:33.951712 29912 net.cpp:67] Creating Layer relu4
I0329 21:58:33.951728 29912 net.cpp:394] relu4 <- fc4
I0329 21:58:33.951743 29912 net.cpp:345] relu4 -> fc4 (in-place)
I0329 21:58:33.951761 29912 net.cpp:96] Setting up relu4
I0329 21:58:33.951773 29912 net.cpp:103] Top shape: 50 2000 1 1 (100000)
I0329 21:58:33.951787 29912 net.cpp:67] Creating Layer drop4
I0329 21:58:33.951798 29912 net.cpp:394] drop4 <- fc4
I0329 21:58:33.951810 29912 net.cpp:345] drop4 -> fc4 (in-place)
I0329 21:58:33.951823 29912 net.cpp:96] Setting up drop4
I0329 21:58:33.951835 29912 net.cpp:103] Top shape: 50 2000 1 1 (100000)
I0329 21:58:33.951851 29912 net.cpp:67] Creating Layer fc5-new
I0329 21:58:33.951863 29912 net.cpp:394] fc5-new <- fc4
I0329 21:58:33.951875 29912 net.cpp:356] fc5-new -> fc5
I0329 21:58:33.951891 29912 net.cpp:96] Setting up fc5-new
I0329 21:58:33.979626 29912 net.cpp:103] Top shape: 50 487 1 1 (24350)
I0329 21:58:33.979672 29912 net.cpp:67] Creating Layer loss
I0329 21:58:33.979686 29912 net.cpp:394] loss <- fc5
I0329 21:58:33.979699 29912 net.cpp:394] loss <- label
I0329 21:58:33.979714 29912 net.cpp:356] loss -> loss
I0329 21:58:33.979735 29912 net.cpp:96] Setting up loss
I0329 21:58:33.979766 29912 net.cpp:103] Top shape: 1 1 1 1 (1)
I0329 21:58:33.979779 29912 net.cpp:109]     with loss weight 1
I0329 21:58:33.979838 29912 net.cpp:170] loss needs backward computation.
I0329 21:58:33.979854 29912 net.cpp:170] fc5-new needs backward computation.
I0329 21:58:33.979866 29912 net.cpp:170] drop4 needs backward computation.
I0329 21:58:33.979876 29912 net.cpp:170] relu4 needs backward computation.
I0329 21:58:33.979887 29912 net.cpp:170] fc4 needs backward computation.
…
I0329 21:58:33.980149 29912 net.cpp:220] Memory required for data: 5837604
I0329 21:58:33.982280 29912 solver.cpp:151] Creating test net (#0) specified by net file: /home/rfn216/BusRio/train8.prototxt
I0329 21:58:33.982421 29912 net.cpp:275] The NetState phase (1) differed from the phase (0) specified by a rule in layer data
I0329 21:58:33.982493 29912 net.cpp:39] Initializing net from parameters: 
name: "BUS_RIO"
layers {
  top: "data"
  top: "label"
  name: "data"
  type: HDF5_DATA
  hdf5_data_param {
    source: "/work/rfn216/bus_rio/test_with_null_lines.h5.txt"
    batch_size: 50
  }
  include {
    phase: TEST
  }
}
layers {
  bottom: "data"
  top: "conv1-1"
  name: "conv1-1"
  type: CONVOLUTION
  blobs_lr: 1
  blobs_lr: 2
  weight_decay: 1
  weight_decay: 0
  convolution_param {
    num_output: 64
    weight_filler {
      type: "gaussian"
      std: 0.01
    }
    bias_filler {
      type: "constant"
      value: 0
    }
    pad_h: 0
    pad_w: 1
    kernel_h: 1
    kernel_w: 3
  }
}
layers {
  bottom: "conv1-1"
  top: "conv1-1"
  name: "relu1-1"
  type: RELU
}
layers {
  bottom: "conv1-1"
  top: "conv1-2"
  name: "conv1-2"
  type: CONVOLUTION
  blobs_lr: 1
  blobs_lr: 2
  weight_decay: 1
  weight_decay: 0
  convolution_param {
    num_output: 64
    weight_filler {
      type: "gaussian"
      std: 0.01
    }
    bias_filler {
      type: "constant"
      value: 0
    }
    pad_h: 0
    pad_w: 1
    kernel_h: 1
    kernel_w: 3
  }
}
layers {
  bottom: "conv1-2"
  top: "conv1-2"
  name: "relu1-2"
  type: RELU
}
layers {
  bottom: "conv1-2"
  top: "conv1-3"
  name: "conv1-3"
  type: CONVOLUTION
  blobs_lr: 1
  blobs_lr: 2
  weight_decay: 1
  weight_decay: 0
  convolution_param {
    num_output: 64
    weight_filler {
      type: "gaussian"
      std: 0.01
    }
    bias_filler {
      type: "constant"
      value: 0
    }
    pad_h: 0
    pad_w: 1
    kernel_h: 1
    kernel_w: 3
  }
}
layers {
  bottom: "conv1-3"
  top: "conv1-3"
  name: "relu1-3"
  type: RELU
}
layers {
  bottom: "conv1-3"
  top: "pool1"
  name: "pool1"
  type: POOLING
  pooling_param {
    pool: MAX
    kernel_h: 1
    kernel_w: 2
    stride_h: 1
    stride_w: 2
  }
}
layers {
  bottom: "pool1"
  top: "conv2-1"
  name: "conv2-1"
  type: CONVOLUTION
  blobs_lr: 1
  blobs_lr: 2
  weight_decay: 1
  weight_decay: 0
  convolution_param {
    num_output: 128
    weight_filler {
      type: "gaussian"
      std: 0.01
    }
    bias_filler {
      type: "constant"
      value: 0
    }
    pad_h: 0
    pad_w: 1
    kernel_h: 1
    kernel_w: 3
  }
}
layers {
  bottom: "conv2-1"
  top: "conv2-1"
  name: "relu2-1"
  type: RELU
}
layers {
  bottom: "conv2-1"
  top: "conv2-2"
  name: "conv2-2"
  type: CONVOLUTION
  blobs_lr: 1
  blobs_lr: 2
  weight_decay: 1
  weight_decay: 0
  convolution_param {
    num_output: 128
    weight_filler {
      type: "gaussian"
      std: 0.01
    }
    bias_filler {
      type: "constant"
      value: 0
    }
    pad_h: 0
    pad_w: 1
    kernel_h: 1
    kernel_w: 3
  }
}
layers {
  bottom: "conv2-2"
  top: "conv2-2"
  name: "relu2-2"
  type: RELU
}
layers {
  bottom: "conv2-2"
  top: "conv2-3"
  name: "conv2-3"
  type: CONVOLUTION
  blobs_lr: 1
  blobs_lr: 2
  weight_decay: 1
  weight_decay: 0
  convolution_param {
    num_output: 128
    weight_filler {
      type: "gaussian"
      std: 0.01
    }
    bias_filler {
      type: "constant"
      value: 0
    }
    pad_h: 0
    pad_w: 1
    kernel_h: 1
    kernel_w: 3
  }
}
layers {
  bottom: "conv2-3"
  top: "conv2-3"
  name: "relu2-3"
  type: RELU
}
layers {
  bottom: "conv2-3"
  top: "pool2"
  name: "pool2"
  type: POOLING
  pooling_param {
    pool: MAX
    kernel_h: 1
    kernel_w: 2
    stride_h: 1
    stride_w: 2
  }
}
layers {
  bottom: "pool2"
  top: "fc3"
  name: "fc3"
  type: INNER_PRODUCT
  blobs_lr: 1
  blobs_lr: 2
  weight_decay: 1
  weight_decay: 0
  inner_product_param {
    num_output: 2000
    weight_filler {
      type: "gaussian"
      std: 0.01
    }
    bias_filler {
      type: "constant"
      value: 1
    }
  }
}
layers {
  bottom: "fc3"
  top: "fc3"
  name: "relu3"
  type: RELU
}
layers {
  bottom: "fc3"
  top: "fc3"
  name: "drop3"
  type: DROPOUT
  dropout_param {
    dropout_ratio: 0.5
  }
}
layers {
  bottom: "fc3"
  top: "fc4"
  name: "fc4"
  type: INNER_PRODUCT
  blobs_lr: 1
  blobs_lr: 2
  weight_decay: 1
  weight_decay: 0
  inner_product_param {
    num_output: 2000
    weight_filler {
      type: "gaussian"
      std: 0.01
    }
    bias_filler {
      type: "constant"
      value: 1
    }
  }
}
layers {
  bottom: "fc4"
  top: "fc4"
  name: "relu4"
  type: RELU
}
layers {
  bottom: "fc4"
  top: "fc4"
  name: "drop4"
  type: DROPOUT
  dropout_param {
    dropout_ratio: 0.5
  }
}
layers {
  bottom: "fc4"
  top: "fc5"
  name: "fc5-new"
  type: INNER_PRODUCT
  blobs_lr: 10
  blobs_lr: 20
  weight_decay: 1
  weight_decay: 0
  inner_product_param {
    num_output: 487
    weight_filler {
      type: "gaussian"
      std: 0.01
    }
    bias_filler {
      type: "constant"
      value: 0
    }
  }
}
layers {
  bottom: "fc5"
  bottom: "label"
  top: "accuracy-top1"
  name: "accuracy-top1"
  type: ACCURACY
  include {
    phase: TEST
  }
}
layers {
  bottom: "fc5"
  bottom: "label"
  top: "accuracy-top5"
  name: "accuracy-top5"
  type: ACCURACY
  accuracy_param {
    top_k: 5
  }
  include {
    phase: TEST
  }
}
layers {
  bottom: "fc5"
  bottom: "label"
  top: "loss"
  name: "loss"
  type: SOFTMAX_LOSS
}
state {
  phase: TEST
}
I0329 21:58:33.983275 29912 net.cpp:67] Creating Layer data
I0329 21:58:33.983310 29912 net.cpp:356] data -> data
I0329 21:58:33.983355 29912 net.cpp:356] data -> label
I0329 21:58:33.983393 29912 net.cpp:96] Setting up data
I0329 21:58:33.983422 29912 hdf5_data_layer.cpp:57] Loading filename from /work/rfn216/bus_rio/test_with_null_lines.h5.txt
I0329 21:58:34.090101 29912 hdf5_data_layer.cpp:69] Number of files: 231822
I0329 21:58:34.111150 29912 hdf5_data_layer.cpp:81] output data size: 50,3,1,20
I0329 21:58:34.111166 29912 net.cpp:103] Top shape: 50 3 1 20 (3000)
I0329 21:58:34.111178 29912 net.cpp:103] Top shape: 50 1 1 1 (50)
I0329 21:58:34.111202 29912 net.cpp:67] Creating Layer label_data_1_split
I0329 21:58:34.111215 29912 net.cpp:394] label_data_1_split <- label
I0329 21:58:34.111237 29912 net.cpp:356] label_data_1_split -> label_data_1_split_0
I0329 21:58:34.111260 29912 net.cpp:356] label_data_1_split -> label_data_1_split_1
I0329 21:58:34.111277 29912 net.cpp:356] label_data_1_split -> label_data_1_split_2
I0329 21:58:34.111292 29912 net.cpp:96] Setting up label_data_1_split
I0329 21:58:34.111310 29912 net.cpp:103] Top shape: 50 1 1 1 (50)
I0329 21:58:34.111322 29912 net.cpp:103] Top shape: 50 1 1 1 (50)
I0329 21:58:34.111333 29912 net.cpp:103] Top shape: 50 1 1 1 (50)
I0329 21:58:34.111351 29912 net.cpp:67] Creating Layer conv1-1
I0329 21:58:34.111364 29912 net.cpp:394] conv1-1 <- data
I0329 21:58:34.111378 29912 net.cpp:356] conv1-1 -> conv1-1
I0329 21:58:34.111395 29912 net.cpp:96] Setting up conv1-1
I0329 21:58:34.111443 29912 net.cpp:103] Top shape: 50 64 1 20 (64000)
I0329 21:58:34.111469 29912 net.cpp:67] Creating Layer relu1-1
I0329 21:58:34.111482 29912 net.cpp:394] relu1-1 <- conv1-1
I0329 21:58:34.111495 29912 net.cpp:345] relu1-1 -> conv1-1 (in-place)
I0329 21:58:34.111510 29912 net.cpp:96] Setting up relu1-1
I0329 21:58:34.111522 29912 net.cpp:103] Top shape: 50 64 1 20 (64000)
I0329 21:58:34.111538 29912 net.cpp:67] Creating Layer conv1-2
I0329 21:58:34.111549 29912 net.cpp:394] conv1-2 <- conv1-1
I0329 21:58:34.111563 29912 net.cpp:356] conv1-2 -> conv1-2
I0329 21:58:34.111578 29912 net.cpp:96] Setting up conv1-2
I0329 21:58:34.111933 29912 net.cpp:103] Top shape: 50 64 1 20 (64000)
I0329 21:58:34.111955 29912 net.cpp:67] Creating Layer relu1-2
I0329 21:58:34.111968 29912 net.cpp:394] relu1-2 <- conv1-2
I0329 21:58:34.111980 29912 net.cpp:345] relu1-2 -> conv1-2 (in-place)
I0329 21:58:34.111994 29912 net.cpp:96] Setting up relu1-2
I0329 21:58:34.112005 29912 net.cpp:103] Top shape: 50 64 1 20 (64000)
I0329 21:58:34.112020 29912 net.cpp:67] Creating Layer conv1-3
I0329 21:58:34.112031 29912 net.cpp:394] conv1-3 <- conv1-2
I0329 21:58:34.112045 29912 net.cpp:356] conv1-3 -> conv1-3
I0329 21:58:34.112058 29912 net.cpp:96] Setting up conv1-3
I0329 21:58:34.112416 29912 net.cpp:103] Top shape: 50 64 1 20 (64000)
I0329 21:58:34.112439 29912 net.cpp:67] Creating Layer relu1-3
I0329 21:58:34.112452 29912 net.cpp:394] relu1-3 <- conv1-3
I0329 21:58:34.112465 29912 net.cpp:345] relu1-3 -> conv1-3 (in-place)
I0329 21:58:34.112479 29912 net.cpp:96] Setting up relu1-3
I0329 21:58:34.112496 29912 net.cpp:103] Top shape: 50 64 1 20 (64000)
I0329 21:58:34.112529 29912 net.cpp:67] Creating Layer pool1
I0329 21:58:34.112571 29912 net.cpp:394] pool1 <- conv1-3
I0329 21:58:34.112586 29912 net.cpp:356] pool1 -> pool1
I0329 21:58:34.112601 29912 net.cpp:96] Setting up pool1
I0329 21:58:34.112617 29912 net.cpp:103] Top shape: 50 64 1 10 (32000)
I0329 21:58:34.112632 29912 net.cpp:67] Creating Layer conv2-1
I0329 21:58:34.112644 29912 net.cpp:394] conv2-1 <- pool1
I0329 21:58:34.112658 29912 net.cpp:356] conv2-1 -> conv2-1
I0329 21:58:34.112671 29912 net.cpp:96] Setting up conv2-1
I0329 21:58:34.113366 29912 net.cpp:103] Top shape: 50 128 1 10 (64000)
I0329 21:58:34.113389 29912 net.cpp:67] Creating Layer relu2-1
I0329 21:58:34.113401 29912 net.cpp:394] relu2-1 <- conv2-1
I0329 21:58:34.113414 29912 net.cpp:345] relu2-1 -> conv2-1 (in-place)
I0329 21:58:34.113426 29912 net.cpp:96] Setting up relu2-1
I0329 21:58:34.113438 29912 net.cpp:103] Top shape: 50 128 1 10 (64000)
I0329 21:58:34.113452 29912 net.cpp:67] Creating Layer conv2-2
I0329 21:58:34.113463 29912 net.cpp:394] conv2-2 <- conv2-1
I0329 21:58:34.113476 29912 net.cpp:356] conv2-2 -> conv2-2
I0329 21:58:34.113490 29912 net.cpp:96] Setting up conv2-2
I0329 21:58:34.114853 29912 net.cpp:103] Top shape: 50 128 1 10 (64000)
I0329 21:58:34.114878 29912 net.cpp:67] Creating Layer relu2-2
I0329 21:58:34.114892 29912 net.cpp:394] relu2-2 <- conv2-2
I0329 21:58:34.114903 29912 net.cpp:345] relu2-2 -> conv2-2 (in-place)
I0329 21:58:34.114917 29912 net.cpp:96] Setting up relu2-2
I0329 21:58:34.114928 29912 net.cpp:103] Top shape: 50 128 1 10 (64000)
I0329 21:58:34.114943 29912 net.cpp:67] Creating Layer conv2-3
I0329 21:58:34.114954 29912 net.cpp:394] conv2-3 <- conv2-2
I0329 21:58:34.114967 29912 net.cpp:356] conv2-3 -> conv2-3
I0329 21:58:34.114982 29912 net.cpp:96] Setting up conv2-3
I0329 21:58:34.116387 29912 net.cpp:103] Top shape: 50 128 1 10 (64000)
I0329 21:58:34.116411 29912 net.cpp:67] Creating Layer relu2-3
I0329 21:58:34.116422 29912 net.cpp:394] relu2-3 <- conv2-3
I0329 21:58:34.116436 29912 net.cpp:345] relu2-3 -> conv2-3 (in-place)
I0329 21:58:34.116449 29912 net.cpp:96] Setting up relu2-3
I0329 21:58:34.116461 29912 net.cpp:103] Top shape: 50 128 1 10 (64000)
I0329 21:58:34.116477 29912 net.cpp:67] Creating Layer pool2
I0329 21:58:34.116488 29912 net.cpp:394] pool2 <- conv2-3
I0329 21:58:34.116502 29912 net.cpp:356] pool2 -> pool2
I0329 21:58:34.116515 29912 net.cpp:96] Setting up pool2
I0329 21:58:34.116528 29912 net.cpp:103] Top shape: 50 128 1 5 (32000)
I0329 21:58:34.116547 29912 net.cpp:67] Creating Layer fc3
I0329 21:58:34.116559 29912 net.cpp:394] fc3 <- pool2
I0329 21:58:34.116574 29912 net.cpp:356] fc3 -> fc3
I0329 21:58:34.116588 29912 net.cpp:96] Setting up fc3
I0329 21:58:34.153301 29912 net.cpp:103] Top shape: 50 2000 1 1 (100000)
I0329 21:58:34.153332 29912 net.cpp:67] Creating Layer relu3
I0329 21:58:34.153345 29912 net.cpp:394] relu3 <- fc3
I0329 21:58:34.153358 29912 net.cpp:345] relu3 -> fc3 (in-place)
I0329 21:58:34.153373 29912 net.cpp:96] Setting up relu3
I0329 21:58:34.153383 29912 net.cpp:103] Top shape: 50 2000 1 1 (100000)
I0329 21:58:34.153398 29912 net.cpp:67] Creating Layer drop3
I0329 21:58:34.153408 29912 net.cpp:394] drop3 <- fc3
I0329 21:58:34.153425 29912 net.cpp:345] drop3 -> fc3 (in-place)
I0329 21:58:34.153440 29912 net.cpp:96] Setting up drop3
I0329 21:58:34.153452 29912 net.cpp:103] Top shape: 50 2000 1 1 (100000)
I0329 21:58:34.153466 29912 net.cpp:67] Creating Layer fc4
I0329 21:58:34.153478 29912 net.cpp:394] fc4 <- fc3
I0329 21:58:34.153491 29912 net.cpp:356] fc4 -> fc4
I0329 21:58:34.153506 29912 net.cpp:96] Setting up fc4
I0329 21:58:34.267993 29912 net.cpp:103] Top shape: 50 2000 1 1 (100000)
I0329 21:58:34.268059 29912 net.cpp:67] Creating Layer relu4
I0329 21:58:34.268072 29912 net.cpp:394] relu4 <- fc4
I0329 21:58:34.268087 29912 net.cpp:345] relu4 -> fc4 (in-place)
I0329 21:58:34.268105 29912 net.cpp:96] Setting up relu4
I0329 21:58:34.268116 29912 net.cpp:103] Top shape: 50 2000 1 1 (100000)
I0329 21:58:34.268131 29912 net.cpp:67] Creating Layer drop4
I0329 21:58:34.268159 29912 net.cpp:394] drop4 <- fc4
I0329 21:58:34.268174 29912 net.cpp:345] drop4 -> fc4 (in-place)
I0329 21:58:34.268215 29912 net.cpp:96] Setting up drop4
I0329 21:58:34.268239 29912 net.cpp:103] Top shape: 50 2000 1 1 (100000)
I0329 21:58:34.268257 29912 net.cpp:67] Creating Layer fc5-new
I0329 21:58:34.268270 29912 net.cpp:394] fc5-new <- fc4
I0329 21:58:34.268286 29912 net.cpp:356] fc5-new -> fc5
I0329 21:58:34.268303 29912 net.cpp:96] Setting up fc5-new
I0329 21:58:34.296120 29912 net.cpp:103] Top shape: 50 487 1 1 (24350)
I0329 21:58:34.296155 29912 net.cpp:67] Creating Layer fc5_fc5-new_0_split
I0329 21:58:34.296169 29912 net.cpp:394] fc5_fc5-new_0_split <- fc5
I0329 21:58:34.296182 29912 net.cpp:356] fc5_fc5-new_0_split -> fc5_fc5-new_0_split_0
I0329 21:58:34.296205 29912 net.cpp:356] fc5_fc5-new_0_split -> fc5_fc5-new_0_split_1
I0329 21:58:34.296221 29912 net.cpp:356] fc5_fc5-new_0_split -> fc5_fc5-new_0_split_2
I0329 21:58:34.296239 29912 net.cpp:96] Setting up fc5_fc5-new_0_split
I0329 21:58:34.296253 29912 net.cpp:103] Top shape: 50 487 1 1 (24350)
I0329 21:58:34.296264 29912 net.cpp:103] Top shape: 50 487 1 1 (24350)
I0329 21:58:34.296274 29912 net.cpp:103] Top shape: 50 487 1 1 (24350)
I0329 21:58:34.296288 29912 net.cpp:67] Creating Layer accuracy-top1
I0329 21:58:34.296300 29912 net.cpp:394] accuracy-top1 <- fc5_fc5-new_0_split_0
I0329 21:58:34.296313 29912 net.cpp:394] accuracy-top1 <- label_data_1_split_0
I0329 21:58:34.296327 29912 net.cpp:356] accuracy-top1 -> accuracy-top1
I0329 21:58:34.296342 29912 net.cpp:96] Setting up accuracy-top1
I0329 21:58:34.296360 29912 net.cpp:103] Top shape: 1 1 1 1 (1)
I0329 21:58:34.296375 29912 net.cpp:67] Creating Layer accuracy-top5
I0329 21:58:34.296386 29912 net.cpp:394] accuracy-top5 <- fc5_fc5-new_0_split_1
I0329 21:58:34.296398 29912 net.cpp:394] accuracy-top5 <- label_data_1_split_1
I0329 21:58:34.296413 29912 net.cpp:356] accuracy-top5 -> accuracy-top5
I0329 21:58:34.296428 29912 net.cpp:96] Setting up accuracy-top5
I0329 21:58:34.296440 29912 net.cpp:103] Top shape: 1 1 1 1 (1)
I0329 21:58:34.296454 29912 net.cpp:67] Creating Layer loss
I0329 21:58:34.296465 29912 net.cpp:394] loss <- fc5_fc5-new_0_split_2
I0329 21:58:34.296478 29912 net.cpp:394] loss <- label_data_1_split_2
I0329 21:58:34.296490 29912 net.cpp:356] loss -> loss
I0329 21:58:34.296504 29912 net.cpp:96] Setting up loss
I0329 21:58:34.296525 29912 net.cpp:103] Top shape: 1 1 1 1 (1)
I0329 21:58:34.296536 29912 net.cpp:109]     with loss weight 1
I0329 21:58:34.296562 29912 net.cpp:170] loss needs backward computation.
I0329 21:58:34.296574 29912 net.cpp:172] accuracy-top5 does not need backward computation.
I0329 21:58:34.296586 29912 net.cpp:172] accuracy-top1 does not need backward computation.
I0329 21:58:34.296596 29912 net.cpp:170] fc5_fc5-new_0_split needs backward computation.
…
