…
I0330 10:11:31.118386 14955 net.cpp:275] The NetState phase (0) differed from the phase (1) specified by a rule in layer data
I0330 10:11:31.118479 14955 net.cpp:275] The NetState phase (0) differed from the phase (1) specified by a rule in layer accuracy-top1
I0330 10:11:31.118500 14955 net.cpp:275] The NetState phase (0) differed from the phase (1) specified by a rule in layer accuracy-top5
I0330 10:11:31.118525 14955 net.cpp:39] Initializing net from parameters: 
name: "BUS_RIO"
layers {
  top: "data"
  top: "label"
  name: "data"
  type: HDF5_DATA
  hdf5_data_param {
    source: "/work/rfn216/bus_rio/train_with_null_lines.h5.txt"
    batch_size: 50
  }
  include {
    phase: TRAIN
  }
}
layers {
  bottom: "data"
  top: "conv1-1"
  name: "conv1-1"
  type: CONVOLUTION
  blobs_lr: 1
  blobs_lr: 2
  weight_decay: 1
  weight_decay: 0
  convolution_param {
    num_output: 64
    weight_filler {
      type: "gaussian"
      std: 0.01
    }
    bias_filler {
      type: "constant"
      value: 0
    }
    pad_h: 0
    pad_w: 1
    kernel_h: 1
    kernel_w: 3
  }
}
layers {
  bottom: "conv1-1"
  top: "conv1-1"
  name: "relu1-1"
  type: RELU
}
layers {
  bottom: "conv1-1"
  top: "conv1-2"
  name: "conv1-2"
  type: CONVOLUTION
  blobs_lr: 1
  blobs_lr: 2
  weight_decay: 1
  weight_decay: 0
  convolution_param {
    num_output: 64
    weight_filler {
      type: "gaussian"
      std: 0.01
    }
    bias_filler {
      type: "constant"
      value: 0
    }
    pad_h: 0
    pad_w: 1
    kernel_h: 1
    kernel_w: 3
  }
}
layers {
  bottom: "conv1-2"
  top: "conv1-2"
  name: "relu1-2"
  type: RELU
}
layers {
  bottom: "conv1-2"
  top: "conv1-3"
  name: "conv1-3"
  type: CONVOLUTION
  blobs_lr: 1
  blobs_lr: 2
  weight_decay: 1
  weight_decay: 0
  convolution_param {
    num_output: 64
    weight_filler {
      type: "gaussian"
      std: 0.01
    }
    bias_filler {
      type: "constant"
      value: 0
    }
    pad_h: 0
    pad_w: 1
    kernel_h: 1
    kernel_w: 3
  }
}
layers {
  bottom: "conv1-3"
  top: "conv1-3"
  name: "relu1-3"
  type: RELU
}
layers {
  bottom: "conv1-3"
  top: "pool1"
  name: "pool1"
  type: POOLING
  pooling_param {
    pool: MAX
    kernel_h: 1
    kernel_w: 2
    stride_h: 1
    stride_w: 2
  }
}
layers {
  bottom: "pool1"
  top: "conv2-1"
  name: "conv2-1"
  type: CONVOLUTION
  blobs_lr: 1
  blobs_lr: 2
  weight_decay: 1
  weight_decay: 0
  convolution_param {
    num_output: 128
    weight_filler {
      type: "gaussian"
      std: 0.01
    }
    bias_filler {
      type: "constant"
      value: 0
    }
    pad_h: 0
    pad_w: 1
    kernel_h: 1
    kernel_w: 3
  }
}
layers {
  bottom: "conv2-1"
  top: "conv2-1"
  name: "relu2-1"
  type: RELU
}
layers {
  bottom: "conv2-1"
  top: "conv2-2"
  name: "conv2-2"
  type: CONVOLUTION
  blobs_lr: 1
  blobs_lr: 2
  weight_decay: 1
  weight_decay: 0
  convolution_param {
    num_output: 128
    weight_filler {
      type: "gaussian"
      std: 0.01
    }
    bias_filler {
      type: "constant"
      value: 0
    }
    pad_h: 0
    pad_w: 1
    kernel_h: 1
    kernel_w: 3
  }
}
layers {
  bottom: "conv2-2"
  top: "conv2-2"
  name: "relu2-2"
  type: RELU
}
layers {
  bottom: "conv2-2"
  top: "conv2-3"
  name: "conv2-3"
  type: CONVOLUTION
  blobs_lr: 1
  blobs_lr: 2
  weight_decay: 1
  weight_decay: 0
  convolution_param {
    num_output: 128
    weight_filler {
      type: "gaussian"
      std: 0.01
    }
    bias_filler {
      type: "constant"
      value: 0
    }
    pad_h: 0
    pad_w: 1
    kernel_h: 1
    kernel_w: 3
  }
}
layers {
  bottom: "conv2-3"
  top: "conv2-3"
  name: "relu2-3"
  type: RELU
}
layers {
  bottom: "conv2-3"
  top: "pool2"
  name: "pool2"
  type: POOLING
  pooling_param {
    pool: MAX
    kernel_h: 1
    kernel_w: 2
    stride_h: 1
    stride_w: 2
  }
}
layers {
  bottom: "pool2"
  top: "fc3"
  name: "fc3"
  type: INNER_PRODUCT
  blobs_lr: 1
  blobs_lr: 2
  weight_decay: 1
  weight_decay: 0
  inner_product_param {
    num_output: 2000
    weight_filler {
      type: "gaussian"
      std: 0.01
    }
    bias_filler {
      type: "constant"
      value: 1
    }
  }
}
layers {
  bottom: "fc3"
  top: "fc3"
  name: "relu3"
  type: RELU
}
layers {
  bottom: "fc3"
  top: "fc3"
  name: "drop3"
  type: DROPOUT
  dropout_param {
    dropout_ratio: 0.5
  }
}
layers {
  bottom: "fc3"
  top: "fc4"
  name: "fc4"
  type: INNER_PRODUCT
  blobs_lr: 1
  blobs_lr: 2
  weight_decay: 1
  weight_decay: 0
  inner_product_param {
    num_output: 2000
    weight_filler {
      type: "gaussian"
      std: 0.01
    }
    bias_filler {
      type: "constant"
      value: 1
    }
  }
}
layers {
  bottom: "fc4"
  top: "fc4"
  name: "relu4"
  type: RELU
}
layers {
  bottom: "fc4"
  top: "fc4"
  name: "drop4"
  type: DROPOUT
  dropout_param {
    dropout_ratio: 0.5
  }
}
layers {
  bottom: "fc4"
  top: "fc5"
  name: "fc5-new"
  type: INNER_PRODUCT
  blobs_lr: 10
  blobs_lr: 20
  weight_decay: 1
  weight_decay: 0
  inner_product_param {
    num_output: 487
    weight_filler {
      type: "gaussian"
      std: 0.01
    }
    bias_filler {
      type: "constant"
      value: 0
    }
  }
}
layers {
  bottom: "fc5"
  bottom: "label"
  top: "loss"
  name: "loss"
  type: SOFTMAX_LOSS
}
state {
  phase: TRAIN
}
I0330 10:11:31.119004 14955 net.cpp:67] Creating Layer data
I0330 10:11:31.119031 14955 net.cpp:356] data -> data
I0330 10:11:31.119101 14955 net.cpp:356] data -> label
I0330 10:11:31.119128 14955 net.cpp:96] Setting up data
I0330 10:11:31.119146 14955 hdf5_data_layer.cpp:57] Loading filename from /work/rfn216/bus_rio/train_with_null_lines.h5.txt
I0330 10:11:33.499563 14955 hdf5_data_layer.cpp:69] Number of files: 624477
I0330 10:11:33.521678 14955 hdf5_data_layer.cpp:81] output data size: 50,3,1,20
I0330 10:11:33.521723 14955 net.cpp:103] Top shape: 50 3 1 20 (3000)
I0330 10:11:33.521759 14955 net.cpp:103] Top shape: 50 1 1 1 (50)
I0330 10:11:33.521785 14955 net.cpp:67] Creating Layer conv1-1
I0330 10:11:33.521803 14955 net.cpp:394] conv1-1 <- data
I0330 10:11:33.521836 14955 net.cpp:356] conv1-1 -> conv1-1
I0330 10:11:33.521875 14955 net.cpp:96] Setting up conv1-1
I0330 10:11:33.522642 14955 net.cpp:103] Top shape: 50 64 1 20 (64000)
I0330 10:11:33.522698 14955 net.cpp:67] Creating Layer relu1-1
I0330 10:11:33.522717 14955 net.cpp:394] relu1-1 <- conv1-1
I0330 10:11:33.522752 14955 net.cpp:345] relu1-1 -> conv1-1 (in-place)
I0330 10:11:33.522771 14955 net.cpp:96] Setting up relu1-1
I0330 10:11:33.522790 14955 net.cpp:103] Top shape: 50 64 1 20 (64000)
I0330 10:11:33.522809 14955 net.cpp:67] Creating Layer conv1-2
I0330 10:11:33.522820 14955 net.cpp:394] conv1-2 <- conv1-1
I0330 10:11:33.522835 14955 net.cpp:356] conv1-2 -> conv1-2
I0330 10:11:33.522851 14955 net.cpp:96] Setting up conv1-2
I0330 10:11:33.523218 14955 net.cpp:103] Top shape: 50 64 1 20 (64000)
I0330 10:11:33.523242 14955 net.cpp:67] Creating Layer relu1-2
I0330 10:11:33.523255 14955 net.cpp:394] relu1-2 <- conv1-2
I0330 10:11:33.523269 14955 net.cpp:345] relu1-2 -> conv1-2 (in-place)
I0330 10:11:33.523284 14955 net.cpp:96] Setting up relu1-2
I0330 10:11:33.523296 14955 net.cpp:103] Top shape: 50 64 1 20 (64000)
I0330 10:11:33.523313 14955 net.cpp:67] Creating Layer conv1-3
I0330 10:11:33.523324 14955 net.cpp:394] conv1-3 <- conv1-2
I0330 10:11:33.523339 14955 net.cpp:356] conv1-3 -> conv1-3
I0330 10:11:33.523355 14955 net.cpp:96] Setting up conv1-3
I0330 10:11:33.523742 14955 net.cpp:103] Top shape: 50 64 1 20 (64000)
I0330 10:11:33.523826 14955 net.cpp:67] Creating Layer relu1-3
I0330 10:11:33.523840 14955 net.cpp:394] relu1-3 <- conv1-3
I0330 10:11:33.523854 14955 net.cpp:345] relu1-3 -> conv1-3 (in-place)
I0330 10:11:33.523869 14955 net.cpp:96] Setting up relu1-3
I0330 10:11:33.523881 14955 net.cpp:103] Top shape: 50 64 1 20 (64000)
I0330 10:11:33.523896 14955 net.cpp:67] Creating Layer pool1
I0330 10:11:33.523908 14955 net.cpp:394] pool1 <- conv1-3
I0330 10:11:33.523921 14955 net.cpp:356] pool1 -> pool1
I0330 10:11:33.523943 14955 net.cpp:96] Setting up pool1
I0330 10:11:33.523967 14955 net.cpp:103] Top shape: 50 64 1 10 (32000)
I0330 10:11:33.523986 14955 net.cpp:67] Creating Layer conv2-1
I0330 10:11:33.523999 14955 net.cpp:394] conv2-1 <- pool1
I0330 10:11:33.524013 14955 net.cpp:356] conv2-1 -> conv2-1
I0330 10:11:33.524029 14955 net.cpp:96] Setting up conv2-1
I0330 10:11:33.524760 14955 net.cpp:103] Top shape: 50 128 1 10 (64000)
I0330 10:11:33.524785 14955 net.cpp:67] Creating Layer relu2-1
I0330 10:11:33.524797 14955 net.cpp:394] relu2-1 <- conv2-1
I0330 10:11:33.524811 14955 net.cpp:345] relu2-1 -> conv2-1 (in-place)
I0330 10:11:33.524826 14955 net.cpp:96] Setting up relu2-1
I0330 10:11:33.524837 14955 net.cpp:103] Top shape: 50 128 1 10 (64000)
I0330 10:11:33.524852 14955 net.cpp:67] Creating Layer conv2-2
I0330 10:11:33.524864 14955 net.cpp:394] conv2-2 <- conv2-1
I0330 10:11:33.524879 14955 net.cpp:356] conv2-2 -> conv2-2
I0330 10:11:33.524894 14955 net.cpp:96] Setting up conv2-2
I0330 10:11:33.526305 14955 net.cpp:103] Top shape: 50 128 1 10 (64000)
I0330 10:11:33.526332 14955 net.cpp:67] Creating Layer relu2-2
I0330 10:11:33.526345 14955 net.cpp:394] relu2-2 <- conv2-2
I0330 10:11:33.526360 14955 net.cpp:345] relu2-2 -> conv2-2 (in-place)
I0330 10:11:33.526374 14955 net.cpp:96] Setting up relu2-2
I0330 10:11:33.526386 14955 net.cpp:103] Top shape: 50 128 1 10 (64000)
I0330 10:11:33.526401 14955 net.cpp:67] Creating Layer conv2-3
I0330 10:11:33.526413 14955 net.cpp:394] conv2-3 <- conv2-2
I0330 10:11:33.526427 14955 net.cpp:356] conv2-3 -> conv2-3
I0330 10:11:33.526444 14955 net.cpp:96] Setting up conv2-3
I0330 10:11:33.527937 14955 net.cpp:103] Top shape: 50 128 1 10 (64000)
I0330 10:11:33.527963 14955 net.cpp:67] Creating Layer relu2-3
I0330 10:11:33.527976 14955 net.cpp:394] relu2-3 <- conv2-3
I0330 10:11:33.527990 14955 net.cpp:345] relu2-3 -> conv2-3 (in-place)
I0330 10:11:33.528005 14955 net.cpp:96] Setting up relu2-3
I0330 10:11:33.528017 14955 net.cpp:103] Top shape: 50 128 1 10 (64000)
I0330 10:11:33.528031 14955 net.cpp:67] Creating Layer pool2
I0330 10:11:33.528043 14955 net.cpp:394] pool2 <- conv2-3
I0330 10:11:33.528056 14955 net.cpp:356] pool2 -> pool2
I0330 10:11:33.528071 14955 net.cpp:96] Setting up pool2
I0330 10:11:33.528085 14955 net.cpp:103] Top shape: 50 128 1 5 (32000)
I0330 10:11:33.528101 14955 net.cpp:67] Creating Layer fc3
I0330 10:11:33.528115 14955 net.cpp:394] fc3 <- pool2
I0330 10:11:33.528128 14955 net.cpp:356] fc3 -> fc3
I0330 10:11:33.528159 14955 net.cpp:96] Setting up fc3
I0330 10:11:33.565906 14955 net.cpp:103] Top shape: 50 2000 1 1 (100000)
I0330 10:11:33.565968 14955 net.cpp:67] Creating Layer relu3
I0330 10:11:33.565984 14955 net.cpp:394] relu3 <- fc3
I0330 10:11:33.566000 14955 net.cpp:345] relu3 -> fc3 (in-place)
I0330 10:11:33.566016 14955 net.cpp:96] Setting up relu3
I0330 10:11:33.566030 14955 net.cpp:103] Top shape: 50 2000 1 1 (100000)
I0330 10:11:33.566045 14955 net.cpp:67] Creating Layer drop3
I0330 10:11:33.566056 14955 net.cpp:394] drop3 <- fc3
I0330 10:11:33.566069 14955 net.cpp:345] drop3 -> fc3 (in-place)
I0330 10:11:33.566097 14955 net.cpp:96] Setting up drop3
I0330 10:11:33.566123 14955 net.cpp:103] Top shape: 50 2000 1 1 (100000)
I0330 10:11:33.566143 14955 net.cpp:67] Creating Layer fc4
I0330 10:11:33.566154 14955 net.cpp:394] fc4 <- fc3
I0330 10:11:33.566169 14955 net.cpp:356] fc4 -> fc4
I0330 10:11:33.566187 14955 net.cpp:96] Setting up fc4
I0330 10:11:33.686281 14955 net.cpp:103] Top shape: 50 2000 1 1 (100000)
I0330 10:11:33.686394 14955 net.cpp:67] Creating Layer relu4
I0330 10:11:33.686411 14955 net.cpp:394] relu4 <- fc4
I0330 10:11:33.686429 14955 net.cpp:345] relu4 -> fc4 (in-place)
I0330 10:11:33.686447 14955 net.cpp:96] Setting up relu4
I0330 10:11:33.686460 14955 net.cpp:103] Top shape: 50 2000 1 1 (100000)
I0330 10:11:33.686476 14955 net.cpp:67] Creating Layer drop4
I0330 10:11:33.686488 14955 net.cpp:394] drop4 <- fc4
I0330 10:11:33.686502 14955 net.cpp:345] drop4 -> fc4 (in-place)
I0330 10:11:33.686517 14955 net.cpp:96] Setting up drop4
I0330 10:11:33.686532 14955 net.cpp:103] Top shape: 50 2000 1 1 (100000)
I0330 10:11:33.686548 14955 net.cpp:67] Creating Layer fc5-new
I0330 10:11:33.686560 14955 net.cpp:394] fc5-new <- fc4
I0330 10:11:33.686575 14955 net.cpp:356] fc5-new -> fc5
I0330 10:11:33.686594 14955 net.cpp:96] Setting up fc5-new
I0330 10:11:33.715476 14955 net.cpp:103] Top shape: 50 487 1 1 (24350)
I0330 10:11:33.715538 14955 net.cpp:67] Creating Layer loss
I0330 10:11:33.715553 14955 net.cpp:394] loss <- fc5
I0330 10:11:33.715567 14955 net.cpp:394] loss <- label
I0330 10:11:33.715584 14955 net.cpp:356] loss -> loss
I0330 10:11:33.715606 14955 net.cpp:96] Setting up loss
I0330 10:11:33.715639 14955 net.cpp:103] Top shape: 1 1 1 1 (1)
I0330 10:11:33.715653 14955 net.cpp:109]     with loss weight 1
I0330 10:11:33.715718 14955 net.cpp:170] loss needs backward computation.
I0330 10:11:33.715740 14955 net.cpp:170] fc5-new needs backward computation.
I0330 10:11:33.715754 14955 net.cpp:170] drop4 needs backward computation.
I0330 10:11:33.715765 14955 net.cpp:170] relu4 needs backward computation.
I0330 10:11:33.715776 14955 net.cpp:170] fc4 needs backward computation.
…
I0330 10:11:33.716060 14955 net.cpp:220] Memory required for data: 5837604
I0330 10:11:33.717165 14955 solver.cpp:151] Creating test net (#0) specified by net file: /home/rfn216/BusRio/train16.prototxt
I0330 10:11:33.717231 14955 net.cpp:275] The NetState phase (1) differed from the phase (0) specified by a rule in layer data
I0330 10:11:33.717264 14955 net.cpp:39] Initializing net from parameters: 
name: "BUS_RIO"
layers {
  top: "data"
  top: "label"
  name: "data"
  type: HDF5_DATA
  hdf5_data_param {
    source: "/work/rfn216/bus_rio/test_with_null_lines.h5.txt"
    batch_size: 50
  }
  include {
    phase: TEST
  }
}
layers {
  bottom: "data"
  top: "conv1-1"
  name: "conv1-1"
  type: CONVOLUTION
  blobs_lr: 1
  blobs_lr: 2
  weight_decay: 1
  weight_decay: 0
  convolution_param {
    num_output: 64
    weight_filler {
      type: "gaussian"
      std: 0.01
    }
    bias_filler {
      type: "constant"
      value: 0
    }
    pad_h: 0
    pad_w: 1
    kernel_h: 1
    kernel_w: 3
  }
}
layers {
  bottom: "conv1-1"
  top: "conv1-1"
  name: "relu1-1"
  type: RELU
}
layers {
  bottom: "conv1-1"
  top: "conv1-2"
  name: "conv1-2"
  type: CONVOLUTION
  blobs_lr: 1
  blobs_lr: 2
  weight_decay: 1
  weight_decay: 0
  convolution_param {
    num_output: 64
    weight_filler {
      type: "gaussian"
      std: 0.01
    }
    bias_filler {
      type: "constant"
      value: 0
    }
    pad_h: 0
    pad_w: 1
    kernel_h: 1
    kernel_w: 3
  }
}
layers {
  bottom: "conv1-2"
  top: "conv1-2"
  name: "relu1-2"
  type: RELU
}
layers {
  bottom: "conv1-2"
  top: "conv1-3"
  name: "conv1-3"
  type: CONVOLUTION
  blobs_lr: 1
  blobs_lr: 2
  weight_decay: 1
  weight_decay: 0
  convolution_param {
    num_output: 64
    weight_filler {
      type: "gaussian"
      std: 0.01
    }
    bias_filler {
      type: "constant"
      value: 0
    }
    pad_h: 0
    pad_w: 1
    kernel_h: 1
    kernel_w: 3
  }
}
layers {
  bottom: "conv1-3"
  top: "conv1-3"
  name: "relu1-3"
  type: RELU
}
layers {
  bottom: "conv1-3"
  top: "pool1"
  name: "pool1"
  type: POOLING
  pooling_param {
    pool: MAX
    kernel_h: 1
    kernel_w: 2
    stride_h: 1
    stride_w: 2
  }
}
layers {
  bottom: "pool1"
  top: "conv2-1"
  name: "conv2-1"
  type: CONVOLUTION
  blobs_lr: 1
  blobs_lr: 2
  weight_decay: 1
  weight_decay: 0
  convolution_param {
    num_output: 128
    weight_filler {
      type: "gaussian"
      std: 0.01
    }
    bias_filler {
      type: "constant"
      value: 0
    }
    pad_h: 0
    pad_w: 1
    kernel_h: 1
    kernel_w: 3
  }
}
layers {
  bottom: "conv2-1"
  top: "conv2-1"
  name: "relu2-1"
  type: RELU
}
layers {
  bottom: "conv2-1"
  top: "conv2-2"
  name: "conv2-2"
  type: CONVOLUTION
  blobs_lr: 1
  blobs_lr: 2
  weight_decay: 1
  weight_decay: 0
  convolution_param {
    num_output: 128
    weight_filler {
      type: "gaussian"
      std: 0.01
    }
    bias_filler {
      type: "constant"
      value: 0
    }
    pad_h: 0
    pad_w: 1
    kernel_h: 1
    kernel_w: 3
  }
}
layers {
  bottom: "conv2-2"
  top: "conv2-2"
  name: "relu2-2"
  type: RELU
}
layers {
  bottom: "conv2-2"
  top: "conv2-3"
  name: "conv2-3"
  type: CONVOLUTION
  blobs_lr: 1
  blobs_lr: 2
  weight_decay: 1
  weight_decay: 0
  convolution_param {
    num_output: 128
    weight_filler {
      type: "gaussian"
      std: 0.01
    }
    bias_filler {
      type: "constant"
      value: 0
    }
    pad_h: 0
    pad_w: 1
    kernel_h: 1
    kernel_w: 3
  }
}
layers {
  bottom: "conv2-3"
  top: "conv2-3"
  name: "relu2-3"
  type: RELU
}
layers {
  bottom: "conv2-3"
  top: "pool2"
  name: "pool2"
  type: POOLING
  pooling_param {
    pool: MAX
    kernel_h: 1
    kernel_w: 2
    stride_h: 1
    stride_w: 2
  }
}
layers {
  bottom: "pool2"
  top: "fc3"
  name: "fc3"
  type: INNER_PRODUCT
  blobs_lr: 1
  blobs_lr: 2
  weight_decay: 1
  weight_decay: 0
  inner_product_param {
    num_output: 2000
    weight_filler {
      type: "gaussian"
      std: 0.01
    }
    bias_filler {
      type: "constant"
      value: 1
    }
  }
}
layers {
  bottom: "fc3"
  top: "fc3"
  name: "relu3"
  type: RELU
}
layers {
  bottom: "fc3"
  top: "fc3"
  name: "drop3"
  type: DROPOUT
  dropout_param {
    dropout_ratio: 0.5
  }
}
layers {
  bottom: "fc3"
  top: "fc4"
  name: "fc4"
  type: INNER_PRODUCT
  blobs_lr: 1
  blobs_lr: 2
  weight_decay: 1
  weight_decay: 0
  inner_product_param {
    num_output: 2000
    weight_filler {
      type: "gaussian"
      std: 0.01
    }
    bias_filler {
      type: "constant"
      value: 1
    }
  }
}
layers {
  bottom: "fc4"
  top: "fc4"
  name: "relu4"
  type: RELU
}
layers {
  bottom: "fc4"
  top: "fc4"
  name: "drop4"
  type: DROPOUT
  dropout_param {
    dropout_ratio: 0.5
  }
}
layers {
  bottom: "fc4"
  top: "fc5"
  name: "fc5-new"
  type: INNER_PRODUCT
  blobs_lr: 10
  blobs_lr: 20
  weight_decay: 1
  weight_decay: 0
  inner_product_param {
    num_output: 487
    weight_filler {
      type: "gaussian"
      std: 0.01
    }
    bias_filler {
      type: "constant"
      value: 0
    }
  }
}
layers {
  bottom: "fc5"
  bottom: "label"
  top: "accuracy-top1"
  name: "accuracy-top1"
  type: ACCURACY
  include {
    phase: TEST
  }
}
layers {
  bottom: "fc5"
  bottom: "label"
  top: "accuracy-top5"
  name: "accuracy-top5"
  type: ACCURACY
  accuracy_param {
    top_k: 5
  }
  include {
    phase: TEST
  }
}
layers {
  bottom: "fc5"
  bottom: "label"
  top: "loss"
  name: "loss"
  type: SOFTMAX_LOSS
}
state {
  phase: TEST
}
I0330 10:11:33.717654 14955 net.cpp:67] Creating Layer data
I0330 10:11:33.717679 14955 net.cpp:356] data -> data
I0330 10:11:33.717700 14955 net.cpp:356] data -> label
I0330 10:11:33.717731 14955 net.cpp:96] Setting up data
I0330 10:11:33.717751 14955 hdf5_data_layer.cpp:57] Loading filename from /work/rfn216/bus_rio/test_with_null_lines.h5.txt
I0330 10:11:33.824432 14955 hdf5_data_layer.cpp:69] Number of files: 231822
I0330 10:11:34.051559 14955 hdf5_data_layer.cpp:81] output data size: 50,3,1,20
I0330 10:11:34.051576 14955 net.cpp:103] Top shape: 50 3 1 20 (3000)
I0330 10:11:34.051590 14955 net.cpp:103] Top shape: 50 1 1 1 (50)
I0330 10:11:34.051612 14955 net.cpp:67] Creating Layer label_data_1_split
I0330 10:11:34.051626 14955 net.cpp:394] label_data_1_split <- label
I0330 10:11:34.051641 14955 net.cpp:356] label_data_1_split -> label_data_1_split_0
I0330 10:11:34.051663 14955 net.cpp:356] label_data_1_split -> label_data_1_split_1
I0330 10:11:34.051681 14955 net.cpp:356] label_data_1_split -> label_data_1_split_2
I0330 10:11:34.051697 14955 net.cpp:96] Setting up label_data_1_split
I0330 10:11:34.051717 14955 net.cpp:103] Top shape: 50 1 1 1 (50)
I0330 10:11:34.051748 14955 net.cpp:103] Top shape: 50 1 1 1 (50)
I0330 10:11:34.051760 14955 net.cpp:103] Top shape: 50 1 1 1 (50)
I0330 10:11:34.051779 14955 net.cpp:67] Creating Layer conv1-1
I0330 10:11:34.051792 14955 net.cpp:394] conv1-1 <- data
I0330 10:11:34.051808 14955 net.cpp:356] conv1-1 -> conv1-1
I0330 10:11:34.051826 14955 net.cpp:96] Setting up conv1-1
I0330 10:11:34.051869 14955 net.cpp:103] Top shape: 50 64 1 20 (64000)
I0330 10:11:34.051894 14955 net.cpp:67] Creating Layer relu1-1
I0330 10:11:34.051908 14955 net.cpp:394] relu1-1 <- conv1-1
I0330 10:11:34.051923 14955 net.cpp:345] relu1-1 -> conv1-1 (in-place)
I0330 10:11:34.051939 14955 net.cpp:96] Setting up relu1-1
I0330 10:11:34.051951 14955 net.cpp:103] Top shape: 50 64 1 20 (64000)
I0330 10:11:34.051969 14955 net.cpp:67] Creating Layer conv1-2
I0330 10:11:34.051980 14955 net.cpp:394] conv1-2 <- conv1-1
I0330 10:11:34.051995 14955 net.cpp:356] conv1-2 -> conv1-2
I0330 10:11:34.052011 14955 net.cpp:96] Setting up conv1-2
I0330 10:11:34.052377 14955 net.cpp:103] Top shape: 50 64 1 20 (64000)
I0330 10:11:34.052400 14955 net.cpp:67] Creating Layer relu1-2
I0330 10:11:34.052414 14955 net.cpp:394] relu1-2 <- conv1-2
I0330 10:11:34.052428 14955 net.cpp:345] relu1-2 -> conv1-2 (in-place)
I0330 10:11:34.052443 14955 net.cpp:96] Setting up relu1-2
I0330 10:11:34.052453 14955 net.cpp:103] Top shape: 50 64 1 20 (64000)
I0330 10:11:34.052469 14955 net.cpp:67] Creating Layer conv1-3
I0330 10:11:34.052481 14955 net.cpp:394] conv1-3 <- conv1-2
I0330 10:11:34.052495 14955 net.cpp:356] conv1-3 -> conv1-3
I0330 10:11:34.052510 14955 net.cpp:96] Setting up conv1-3
I0330 10:11:34.052881 14955 net.cpp:103] Top shape: 50 64 1 20 (64000)
I0330 10:11:34.052906 14955 net.cpp:67] Creating Layer relu1-3
I0330 10:11:34.052918 14955 net.cpp:394] relu1-3 <- conv1-3
I0330 10:11:34.052932 14955 net.cpp:345] relu1-3 -> conv1-3 (in-place)
I0330 10:11:34.052947 14955 net.cpp:96] Setting up relu1-3
I0330 10:11:34.052958 14955 net.cpp:103] Top shape: 50 64 1 20 (64000)
I0330 10:11:34.052991 14955 net.cpp:67] Creating Layer pool1
I0330 10:11:34.053035 14955 net.cpp:394] pool1 <- conv1-3
I0330 10:11:34.053051 14955 net.cpp:356] pool1 -> pool1
I0330 10:11:34.053067 14955 net.cpp:96] Setting up pool1
I0330 10:11:34.053083 14955 net.cpp:103] Top shape: 50 64 1 10 (32000)
I0330 10:11:34.053099 14955 net.cpp:67] Creating Layer conv2-1
I0330 10:11:34.053112 14955 net.cpp:394] conv2-1 <- pool1
I0330 10:11:34.053125 14955 net.cpp:356] conv2-1 -> conv2-1
I0330 10:11:34.053140 14955 net.cpp:96] Setting up conv2-1
I0330 10:11:34.053858 14955 net.cpp:103] Top shape: 50 128 1 10 (64000)
I0330 10:11:34.053882 14955 net.cpp:67] Creating Layer relu2-1
I0330 10:11:34.053894 14955 net.cpp:394] relu2-1 <- conv2-1
I0330 10:11:34.053907 14955 net.cpp:345] relu2-1 -> conv2-1 (in-place)
I0330 10:11:34.053921 14955 net.cpp:96] Setting up relu2-1
I0330 10:11:34.053933 14955 net.cpp:103] Top shape: 50 128 1 10 (64000)
I0330 10:11:34.053948 14955 net.cpp:67] Creating Layer conv2-2
I0330 10:11:34.053961 14955 net.cpp:394] conv2-2 <- conv2-1
I0330 10:11:34.053973 14955 net.cpp:356] conv2-2 -> conv2-2
I0330 10:11:34.053988 14955 net.cpp:96] Setting up conv2-2
I0330 10:11:34.055410 14955 net.cpp:103] Top shape: 50 128 1 10 (64000)
I0330 10:11:34.055438 14955 net.cpp:67] Creating Layer relu2-2
I0330 10:11:34.055452 14955 net.cpp:394] relu2-2 <- conv2-2
I0330 10:11:34.055465 14955 net.cpp:345] relu2-2 -> conv2-2 (in-place)
I0330 10:11:34.055480 14955 net.cpp:96] Setting up relu2-2
I0330 10:11:34.055492 14955 net.cpp:103] Top shape: 50 128 1 10 (64000)
I0330 10:11:34.055507 14955 net.cpp:67] Creating Layer conv2-3
I0330 10:11:34.055519 14955 net.cpp:394] conv2-3 <- conv2-2
I0330 10:11:34.055533 14955 net.cpp:356] conv2-3 -> conv2-3
I0330 10:11:34.055548 14955 net.cpp:96] Setting up conv2-3
I0330 10:11:34.057000 14955 net.cpp:103] Top shape: 50 128 1 10 (64000)
I0330 10:11:34.057027 14955 net.cpp:67] Creating Layer relu2-3
I0330 10:11:34.057041 14955 net.cpp:394] relu2-3 <- conv2-3
I0330 10:11:34.057054 14955 net.cpp:345] relu2-3 -> conv2-3 (in-place)
I0330 10:11:34.057070 14955 net.cpp:96] Setting up relu2-3
I0330 10:11:34.057081 14955 net.cpp:103] Top shape: 50 128 1 10 (64000)
I0330 10:11:34.057096 14955 net.cpp:67] Creating Layer pool2
I0330 10:11:34.057106 14955 net.cpp:394] pool2 <- conv2-3
I0330 10:11:34.057122 14955 net.cpp:356] pool2 -> pool2
I0330 10:11:34.057138 14955 net.cpp:96] Setting up pool2
I0330 10:11:34.057152 14955 net.cpp:103] Top shape: 50 128 1 5 (32000)
I0330 10:11:34.057169 14955 net.cpp:67] Creating Layer fc3
I0330 10:11:34.057181 14955 net.cpp:394] fc3 <- pool2
I0330 10:11:34.057199 14955 net.cpp:356] fc3 -> fc3
I0330 10:11:34.057215 14955 net.cpp:96] Setting up fc3
I0330 10:11:34.094544 14955 net.cpp:103] Top shape: 50 2000 1 1 (100000)
I0330 10:11:34.094590 14955 net.cpp:67] Creating Layer relu3
I0330 10:11:34.094604 14955 net.cpp:394] relu3 <- fc3
I0330 10:11:34.094620 14955 net.cpp:345] relu3 -> fc3 (in-place)
I0330 10:11:34.094637 14955 net.cpp:96] Setting up relu3
I0330 10:11:34.094650 14955 net.cpp:103] Top shape: 50 2000 1 1 (100000)
I0330 10:11:34.094663 14955 net.cpp:67] Creating Layer drop3
I0330 10:11:34.094674 14955 net.cpp:394] drop3 <- fc3
I0330 10:11:34.094687 14955 net.cpp:345] drop3 -> fc3 (in-place)
I0330 10:11:34.094702 14955 net.cpp:96] Setting up drop3
I0330 10:11:34.094713 14955 net.cpp:103] Top shape: 50 2000 1 1 (100000)
I0330 10:11:34.094743 14955 net.cpp:67] Creating Layer fc4
I0330 10:11:34.094758 14955 net.cpp:394] fc4 <- fc3
I0330 10:11:34.094773 14955 net.cpp:356] fc4 -> fc4
I0330 10:11:34.094789 14955 net.cpp:96] Setting up fc4
I0330 10:11:34.210373 14955 net.cpp:103] Top shape: 50 2000 1 1 (100000)
I0330 10:11:34.210466 14955 net.cpp:67] Creating Layer relu4
I0330 10:11:34.210484 14955 net.cpp:394] relu4 <- fc4
I0330 10:11:34.210500 14955 net.cpp:345] relu4 -> fc4 (in-place)
I0330 10:11:34.210518 14955 net.cpp:96] Setting up relu4
I0330 10:11:34.210543 14955 net.cpp:103] Top shape: 50 2000 1 1 (100000)
I0330 10:11:34.210558 14955 net.cpp:67] Creating Layer drop4
I0330 10:11:34.210587 14955 net.cpp:394] drop4 <- fc4
I0330 10:11:34.210633 14955 net.cpp:345] drop4 -> fc4 (in-place)
I0330 10:11:34.210649 14955 net.cpp:96] Setting up drop4
I0330 10:11:34.210662 14955 net.cpp:103] Top shape: 50 2000 1 1 (100000)
I0330 10:11:34.210680 14955 net.cpp:67] Creating Layer fc5-new
I0330 10:11:34.210691 14955 net.cpp:394] fc5-new <- fc4
I0330 10:11:34.210705 14955 net.cpp:356] fc5-new -> fc5
I0330 10:11:34.210722 14955 net.cpp:96] Setting up fc5-new
I0330 10:11:34.238595 14955 net.cpp:103] Top shape: 50 487 1 1 (24350)
I0330 10:11:34.238634 14955 net.cpp:67] Creating Layer fc5_fc5-new_0_split
I0330 10:11:34.238648 14955 net.cpp:394] fc5_fc5-new_0_split <- fc5
I0330 10:11:34.238662 14955 net.cpp:356] fc5_fc5-new_0_split -> fc5_fc5-new_0_split_0
I0330 10:11:34.238679 14955 net.cpp:356] fc5_fc5-new_0_split -> fc5_fc5-new_0_split_1
I0330 10:11:34.238695 14955 net.cpp:356] fc5_fc5-new_0_split -> fc5_fc5-new_0_split_2
I0330 10:11:34.238726 14955 net.cpp:96] Setting up fc5_fc5-new_0_split
I0330 10:11:34.238741 14955 net.cpp:103] Top shape: 50 487 1 1 (24350)
I0330 10:11:34.238754 14955 net.cpp:103] Top shape: 50 487 1 1 (24350)
I0330 10:11:34.238765 14955 net.cpp:103] Top shape: 50 487 1 1 (24350)
I0330 10:11:34.238782 14955 net.cpp:67] Creating Layer accuracy-top1
I0330 10:11:34.238795 14955 net.cpp:394] accuracy-top1 <- fc5_fc5-new_0_split_0
I0330 10:11:34.238808 14955 net.cpp:394] accuracy-top1 <- label_data_1_split_0
I0330 10:11:34.238822 14955 net.cpp:356] accuracy-top1 -> accuracy-top1
I0330 10:11:34.238838 14955 net.cpp:96] Setting up accuracy-top1
I0330 10:11:34.238860 14955 net.cpp:103] Top shape: 1 1 1 1 (1)
I0330 10:11:34.238876 14955 net.cpp:67] Creating Layer accuracy-top5
I0330 10:11:34.238889 14955 net.cpp:394] accuracy-top5 <- fc5_fc5-new_0_split_1
I0330 10:11:34.238901 14955 net.cpp:394] accuracy-top5 <- label_data_1_split_1
I0330 10:11:34.238915 14955 net.cpp:356] accuracy-top5 -> accuracy-top5
I0330 10:11:34.238942 14955 net.cpp:96] Setting up accuracy-top5
I0330 10:11:34.238955 14955 net.cpp:103] Top shape: 1 1 1 1 (1)
I0330 10:11:34.238971 14955 net.cpp:67] Creating Layer loss
I0330 10:11:34.238983 14955 net.cpp:394] loss <- fc5_fc5-new_0_split_2
I0330 10:11:34.238996 14955 net.cpp:394] loss <- label_data_1_split_2
I0330 10:11:34.239009 14955 net.cpp:356] loss -> loss
I0330 10:11:34.239023 14955 net.cpp:96] Setting up loss
I0330 10:11:34.239043 14955 net.cpp:103] Top shape: 1 1 1 1 (1)
I0330 10:11:34.239054 14955 net.cpp:109]     with loss weight 1
I0330 10:11:34.239079 14955 net.cpp:170] loss needs backward computation.
I0330 10:11:34.239091 14955 net.cpp:172] accuracy-top5 does not need backward computation.
I0330 10:11:34.239102 14955 net.cpp:172] accuracy-top1 does not need backward computation.
I0330 10:11:34.239114 14955 net.cpp:170] fc5_fc5-new_0_split needs backward computation.
…
