…
I0205 23:43:34.153687 19626 net.cpp:275] The NetState phase (0) differed from the phase (1) specified by a rule in layer data
I0205 23:43:34.153750 19626 net.cpp:275] The NetState phase (0) differed from the phase (1) specified by a rule in layer accuracy-top1
I0205 23:43:34.153772 19626 net.cpp:275] The NetState phase (0) differed from the phase (1) specified by a rule in layer accuracy-top5
I0205 23:43:34.153802 19626 net.cpp:39] Initializing net from parameters: 
name: "BUS_RIO"
layers {
  top: "data"
  top: "label"
  name: "data"
  type: HDF5_DATA
  hdf5_data_param {
    source: "/work/rfn216/bus_rio/train.h5.txt"
    batch_size: 50
  }
  include {
    phase: TRAIN
  }
}
layers {
  bottom: "data"
  top: "conv1-1"
  name: "conv1-1"
  type: CONVOLUTION
  blobs_lr: 1
  blobs_lr: 2
  weight_decay: 1
  weight_decay: 0
  convolution_param {
    num_output: 64
    pad: 1
    weight_filler {
      type: "gaussian"
      std: 0.01
    }
    bias_filler {
      type: "constant"
      value: 0
    }
    kernel_h: 1
    kernel_w: 7
  }
}
layers {
  bottom: "conv1-1"
  top: "conv1-1"
  name: "relu1-1"
  type: RELU
}
layers {
  bottom: "conv1-1"
  top: "pool1"
  name: "pool1"
  type: POOLING
  pooling_param {
    pool: MAX
    kernel_h: 1
    kernel_w: 2
    stride_h: 1
    stride_w: 2
  }
}
layers {
  bottom: "pool1"
  top: "conv2-1"
  name: "conv2-1"
  type: CONVOLUTION
  blobs_lr: 1
  blobs_lr: 2
  weight_decay: 1
  weight_decay: 0
  convolution_param {
    num_output: 128
    pad: 1
    weight_filler {
      type: "gaussian"
      std: 0.01
    }
    bias_filler {
      type: "constant"
      value: 0
    }
    kernel_h: 1
    kernel_w: 7
  }
}
layers {
  bottom: "conv2-1"
  top: "conv2-1"
  name: "relu2-1"
  type: RELU
}
layers {
  bottom: "conv2-1"
  top: "pool2"
  name: "pool2"
  type: POOLING
  pooling_param {
    pool: MAX
    kernel_h: 1
    kernel_w: 2
    stride_h: 1
    stride_w: 2
  }
}
layers {
  bottom: "pool2"
  top: "fc3"
  name: "fc3"
  type: INNER_PRODUCT
  blobs_lr: 1
  blobs_lr: 2
  weight_decay: 1
  weight_decay: 0
  inner_product_param {
    num_output: 300
    weight_filler {
      type: "gaussian"
      std: 0.01
    }
    bias_filler {
      type: "constant"
      value: 1
    }
  }
}
layers {
  bottom: "fc3"
  top: "fc3"
  name: "relu3"
  type: RELU
}
layers {
  bottom: "fc3"
  top: "fc3"
  name: "drop3"
  type: DROPOUT
  dropout_param {
    dropout_ratio: 0.5
  }
}
layers {
  bottom: "fc3"
  top: "fc4"
  name: "fc4"
  type: INNER_PRODUCT
  blobs_lr: 1
  blobs_lr: 2
  weight_decay: 1
  weight_decay: 0
  inner_product_param {
    num_output: 300
    weight_filler {
      type: "gaussian"
      std: 0.01
    }
    bias_filler {
      type: "constant"
      value: 1
    }
  }
}
layers {
  bottom: "fc4"
  top: "fc4"
  name: "relu4"
  type: RELU
}
layers {
  bottom: "fc4"
  top: "fc4"
  name: "drop4"
  type: DROPOUT
  dropout_param {
    dropout_ratio: 0.5
  }
}
layers {
  bottom: "fc4"
  top: "fc5"
  name: "fc5"
  type: INNER_PRODUCT
  blobs_lr: 1
  blobs_lr: 2
  weight_decay: 1
  weight_decay: 0
  inner_product_param {
    num_output: 486
    weight_filler {
      type: "gaussian"
      std: 0.01
    }
    bias_filler {
      type: "constant"
      value: 0
    }
  }
}
layers {
  bottom: "fc5"
  bottom: "label"
  top: "loss"
  name: "loss"
  type: SOFTMAX_LOSS
}
state {
  phase: TRAIN
}
I0205 23:43:34.154232 19626 net.cpp:67] Creating Layer data
I0205 23:43:34.154268 19626 net.cpp:356] data -> data
I0205 23:43:34.154356 19626 net.cpp:356] data -> label
I0205 23:43:34.154417 19626 net.cpp:96] Setting up data
I0205 23:43:34.154479 19626 hdf5_data_layer.cpp:57] Loading filename from /work/rfn216/bus_rio/train.h5.txt
I0205 23:43:34.489944 19626 hdf5_data_layer.cpp:69] Number of files: 439093
I0205 23:43:34.531117 19626 hdf5_data_layer.cpp:81] output data size: 50,3,1,20
I0205 23:43:34.531172 19626 net.cpp:103] Top shape: 50 3 1 20 (3000)
I0205 23:43:34.531196 19626 net.cpp:103] Top shape: 50 1 1 1 (50)
I0205 23:43:34.531232 19626 net.cpp:67] Creating Layer conv1-1
I0205 23:43:34.531256 19626 net.cpp:394] conv1-1 <- data
I0205 23:43:34.531297 19626 net.cpp:356] conv1-1 -> conv1-1
I0205 23:43:34.531348 19626 net.cpp:96] Setting up conv1-1
I0205 23:43:34.532336 19626 net.cpp:103] Top shape: 50 64 3 16 (153600)
I0205 23:43:34.532407 19626 net.cpp:67] Creating Layer relu1-1
I0205 23:43:34.532430 19626 net.cpp:394] relu1-1 <- conv1-1
I0205 23:43:34.532449 19626 net.cpp:345] relu1-1 -> conv1-1 (in-place)
I0205 23:43:34.532474 19626 net.cpp:96] Setting up relu1-1
I0205 23:43:34.532505 19626 net.cpp:103] Top shape: 50 64 3 16 (153600)
I0205 23:43:34.532529 19626 net.cpp:67] Creating Layer pool1
I0205 23:43:34.532546 19626 net.cpp:394] pool1 <- conv1-1
I0205 23:43:34.532564 19626 net.cpp:356] pool1 -> pool1
I0205 23:43:34.532594 19626 net.cpp:96] Setting up pool1
I0205 23:43:34.532626 19626 net.cpp:103] Top shape: 50 64 3 8 (76800)
I0205 23:43:34.532651 19626 net.cpp:67] Creating Layer conv2-1
I0205 23:43:34.532668 19626 net.cpp:394] conv2-1 <- pool1
I0205 23:43:34.532687 19626 net.cpp:356] conv2-1 -> conv2-1
I0205 23:43:34.532711 19626 net.cpp:96] Setting up conv2-1
I0205 23:43:34.534943 19626 net.cpp:103] Top shape: 50 128 5 4 (128000)
I0205 23:43:34.534979 19626 net.cpp:67] Creating Layer relu2-1
I0205 23:43:34.534997 19626 net.cpp:394] relu2-1 <- conv2-1
I0205 23:43:34.535015 19626 net.cpp:345] relu2-1 -> conv2-1 (in-place)
I0205 23:43:34.535037 19626 net.cpp:96] Setting up relu2-1
I0205 23:43:34.535053 19626 net.cpp:103] Top shape: 50 128 5 4 (128000)
I0205 23:43:34.535070 19626 net.cpp:67] Creating Layer pool2
I0205 23:43:34.535086 19626 net.cpp:394] pool2 <- conv2-1
I0205 23:43:34.535104 19626 net.cpp:356] pool2 -> pool2
I0205 23:43:34.535123 19626 net.cpp:96] Setting up pool2
I0205 23:43:34.535142 19626 net.cpp:103] Top shape: 50 128 5 2 (64000)
I0205 23:43:34.535163 19626 net.cpp:67] Creating Layer fc3
I0205 23:43:34.535181 19626 net.cpp:394] fc3 <- pool2
I0205 23:43:34.535198 19626 net.cpp:356] fc3 -> fc3
I0205 23:43:34.535229 19626 net.cpp:96] Setting up fc3
I0205 23:43:34.550750 19626 net.cpp:103] Top shape: 50 300 1 1 (15000)
I0205 23:43:34.550792 19626 net.cpp:67] Creating Layer relu3
I0205 23:43:34.550812 19626 net.cpp:394] relu3 <- fc3
I0205 23:43:34.550829 19626 net.cpp:345] relu3 -> fc3 (in-place)
I0205 23:43:34.550849 19626 net.cpp:96] Setting up relu3
I0205 23:43:34.550865 19626 net.cpp:103] Top shape: 50 300 1 1 (15000)
I0205 23:43:34.550884 19626 net.cpp:67] Creating Layer drop3
I0205 23:43:34.550900 19626 net.cpp:394] drop3 <- fc3
I0205 23:43:34.550917 19626 net.cpp:345] drop3 -> fc3 (in-place)
I0205 23:43:34.550946 19626 net.cpp:96] Setting up drop3
I0205 23:43:34.550977 19626 net.cpp:103] Top shape: 50 300 1 1 (15000)
I0205 23:43:34.551000 19626 net.cpp:67] Creating Layer fc4
I0205 23:43:34.551017 19626 net.cpp:394] fc4 <- fc3
I0205 23:43:34.551035 19626 net.cpp:356] fc4 -> fc4
I0205 23:43:34.551056 19626 net.cpp:96] Setting up fc4
I0205 23:43:34.554716 19626 net.cpp:103] Top shape: 50 300 1 1 (15000)
I0205 23:43:34.554750 19626 net.cpp:67] Creating Layer relu4
I0205 23:43:34.554767 19626 net.cpp:394] relu4 <- fc4
I0205 23:43:34.554785 19626 net.cpp:345] relu4 -> fc4 (in-place)
I0205 23:43:34.554803 19626 net.cpp:96] Setting up relu4
I0205 23:43:34.554819 19626 net.cpp:103] Top shape: 50 300 1 1 (15000)
I0205 23:43:34.554836 19626 net.cpp:67] Creating Layer drop4
I0205 23:43:34.554874 19626 net.cpp:394] drop4 <- fc4
I0205 23:43:34.554936 19626 net.cpp:345] drop4 -> fc4 (in-place)
I0205 23:43:34.554957 19626 net.cpp:96] Setting up drop4
I0205 23:43:34.554973 19626 net.cpp:103] Top shape: 50 300 1 1 (15000)
I0205 23:43:34.554993 19626 net.cpp:67] Creating Layer fc5
I0205 23:43:34.555009 19626 net.cpp:394] fc5 <- fc4
I0205 23:43:34.555027 19626 net.cpp:356] fc5 -> fc5
I0205 23:43:34.555048 19626 net.cpp:96] Setting up fc5
I0205 23:43:34.560957 19626 net.cpp:103] Top shape: 50 486 1 1 (24300)
I0205 23:43:34.561002 19626 net.cpp:67] Creating Layer loss
I0205 23:43:34.561022 19626 net.cpp:394] loss <- fc5
I0205 23:43:34.561039 19626 net.cpp:394] loss <- label
I0205 23:43:34.561059 19626 net.cpp:356] loss -> loss
I0205 23:43:34.561085 19626 net.cpp:96] Setting up loss
I0205 23:43:34.561121 19626 net.cpp:103] Top shape: 1 1 1 1 (1)
I0205 23:43:34.561141 19626 net.cpp:109]     with loss weight 1
I0205 23:43:34.561210 19626 net.cpp:170] loss needs backward computation.
I0205 23:43:34.561231 19626 net.cpp:170] fc5 needs backward computation.
I0205 23:43:34.561249 19626 net.cpp:170] drop4 needs backward computation.
I0205 23:43:34.561262 19626 net.cpp:170] relu4 needs backward computation.
I0205 23:43:34.561276 19626 net.cpp:170] fc4 needs backward computation.
…
I0205 23:43:34.561511 19626 net.cpp:220] Memory required for data: 3285404
I0205 23:43:34.562952 19626 solver.cpp:151] Creating test net (#0) specified by net file: /home/rfn216/BusRio/train3.prototxt
I0205 23:43:34.563076 19626 net.cpp:275] The NetState phase (1) differed from the phase (0) specified by a rule in layer data
I0205 23:43:34.563143 19626 net.cpp:39] Initializing net from parameters: 
name: "BUS_RIO"
layers {
  top: "data"
  top: "label"
  name: "data"
  type: HDF5_DATA
  hdf5_data_param {
    source: "/work/rfn216/bus_rio/test.h5.txt"
    batch_size: 50
  }
  include {
    phase: TEST
  }
}
layers {
  bottom: "data"
  top: "conv1-1"
  name: "conv1-1"
  type: CONVOLUTION
  blobs_lr: 1
  blobs_lr: 2
  weight_decay: 1
  weight_decay: 0
  convolution_param {
    num_output: 64
    pad: 1
    weight_filler {
      type: "gaussian"
      std: 0.01
    }
    bias_filler {
      type: "constant"
      value: 0
    }
    kernel_h: 1
    kernel_w: 7
  }
}
layers {
  bottom: "conv1-1"
  top: "conv1-1"
  name: "relu1-1"
  type: RELU
}
layers {
  bottom: "conv1-1"
  top: "pool1"
  name: "pool1"
  type: POOLING
  pooling_param {
    pool: MAX
    kernel_h: 1
    kernel_w: 2
    stride_h: 1
    stride_w: 2
  }
}
layers {
  bottom: "pool1"
  top: "conv2-1"
  name: "conv2-1"
  type: CONVOLUTION
  blobs_lr: 1
  blobs_lr: 2
  weight_decay: 1
  weight_decay: 0
  convolution_param {
    num_output: 128
    pad: 1
    weight_filler {
      type: "gaussian"
      std: 0.01
    }
    bias_filler {
      type: "constant"
      value: 0
    }
    kernel_h: 1
    kernel_w: 7
  }
}
layers {
  bottom: "conv2-1"
  top: "conv2-1"
  name: "relu2-1"
  type: RELU
}
layers {
  bottom: "conv2-1"
  top: "pool2"
  name: "pool2"
  type: POOLING
  pooling_param {
    pool: MAX
    kernel_h: 1
    kernel_w: 2
    stride_h: 1
    stride_w: 2
  }
}
layers {
  bottom: "pool2"
  top: "fc3"
  name: "fc3"
  type: INNER_PRODUCT
  blobs_lr: 1
  blobs_lr: 2
  weight_decay: 1
  weight_decay: 0
  inner_product_param {
    num_output: 300
    weight_filler {
      type: "gaussian"
      std: 0.01
    }
    bias_filler {
      type: "constant"
      value: 1
    }
  }
}
layers {
  bottom: "fc3"
  top: "fc3"
  name: "relu3"
  type: RELU
}
layers {
  bottom: "fc3"
  top: "fc3"
  name: "drop3"
  type: DROPOUT
  dropout_param {
    dropout_ratio: 0.5
  }
}
layers {
  bottom: "fc3"
  top: "fc4"
  name: "fc4"
  type: INNER_PRODUCT
  blobs_lr: 1
  blobs_lr: 2
  weight_decay: 1
  weight_decay: 0
  inner_product_param {
    num_output: 300
    weight_filler {
      type: "gaussian"
      std: 0.01
    }
    bias_filler {
      type: "constant"
      value: 1
    }
  }
}
layers {
  bottom: "fc4"
  top: "fc4"
  name: "relu4"
  type: RELU
}
layers {
  bottom: "fc4"
  top: "fc4"
  name: "drop4"
  type: DROPOUT
  dropout_param {
    dropout_ratio: 0.5
  }
}
layers {
  bottom: "fc4"
  top: "fc5"
  name: "fc5"
  type: INNER_PRODUCT
  blobs_lr: 1
  blobs_lr: 2
  weight_decay: 1
  weight_decay: 0
  inner_product_param {
    num_output: 486
    weight_filler {
      type: "gaussian"
      std: 0.01
    }
    bias_filler {
      type: "constant"
      value: 0
    }
  }
}
layers {
  bottom: "fc5"
  bottom: "label"
  top: "accuracy-top1"
  name: "accuracy-top1"
  type: ACCURACY
  include {
    phase: TEST
  }
}
layers {
  bottom: "fc5"
  bottom: "label"
  top: "accuracy-top5"
  name: "accuracy-top5"
  type: ACCURACY
  accuracy_param {
    top_k: 5
  }
  include {
    phase: TEST
  }
}
layers {
  bottom: "fc5"
  bottom: "label"
  top: "loss"
  name: "loss"
  type: SOFTMAX_LOSS
}
state {
  phase: TEST
}
I0205 23:43:34.563762 19626 net.cpp:67] Creating Layer data
I0205 23:43:34.563813 19626 net.cpp:356] data -> data
I0205 23:43:34.563855 19626 net.cpp:356] data -> label
I0205 23:43:34.563894 19626 net.cpp:96] Setting up data
I0205 23:43:34.563921 19626 hdf5_data_layer.cpp:57] Loading filename from /work/rfn216/bus_rio/test.h5.txt
I0205 23:43:34.620934 19626 hdf5_data_layer.cpp:69] Number of files: 90766
I0205 23:43:34.652247 19626 hdf5_data_layer.cpp:81] output data size: 50,3,1,20
I0205 23:43:34.652271 19626 net.cpp:103] Top shape: 50 3 1 20 (3000)
I0205 23:43:34.652290 19626 net.cpp:103] Top shape: 50 1 1 1 (50)
I0205 23:43:34.652322 19626 net.cpp:67] Creating Layer label_data_1_split
I0205 23:43:34.652343 19626 net.cpp:394] label_data_1_split <- label
I0205 23:43:34.652365 19626 net.cpp:356] label_data_1_split -> label_data_1_split_0
I0205 23:43:34.652397 19626 net.cpp:356] label_data_1_split -> label_data_1_split_1
I0205 23:43:34.652422 19626 net.cpp:356] label_data_1_split -> label_data_1_split_2
I0205 23:43:34.652446 19626 net.cpp:96] Setting up label_data_1_split
I0205 23:43:34.652473 19626 net.cpp:103] Top shape: 50 1 1 1 (50)
I0205 23:43:34.652493 19626 net.cpp:103] Top shape: 50 1 1 1 (50)
I0205 23:43:34.652510 19626 net.cpp:103] Top shape: 50 1 1 1 (50)
I0205 23:43:34.652544 19626 net.cpp:67] Creating Layer conv1-1
I0205 23:43:34.652565 19626 net.cpp:394] conv1-1 <- data
I0205 23:43:34.652588 19626 net.cpp:356] conv1-1 -> conv1-1
I0205 23:43:34.652613 19626 net.cpp:96] Setting up conv1-1
I0205 23:43:34.652714 19626 net.cpp:103] Top shape: 50 64 3 16 (153600)
I0205 23:43:34.652752 19626 net.cpp:67] Creating Layer relu1-1
I0205 23:43:34.652771 19626 net.cpp:394] relu1-1 <- conv1-1
I0205 23:43:34.652791 19626 net.cpp:345] relu1-1 -> conv1-1 (in-place)
I0205 23:43:34.652812 19626 net.cpp:96] Setting up relu1-1
I0205 23:43:34.652832 19626 net.cpp:103] Top shape: 50 64 3 16 (153600)
I0205 23:43:34.652853 19626 net.cpp:67] Creating Layer pool1
I0205 23:43:34.652871 19626 net.cpp:394] pool1 <- conv1-1
I0205 23:43:34.652919 19626 net.cpp:356] pool1 -> pool1
I0205 23:43:34.652981 19626 net.cpp:96] Setting up pool1
I0205 23:43:34.653004 19626 net.cpp:103] Top shape: 50 64 3 8 (76800)
I0205 23:43:34.653028 19626 net.cpp:67] Creating Layer conv2-1
I0205 23:43:34.653046 19626 net.cpp:394] conv2-1 <- pool1
I0205 23:43:34.653066 19626 net.cpp:356] conv2-1 -> conv2-1
I0205 23:43:34.653090 19626 net.cpp:96] Setting up conv2-1
I0205 23:43:34.655585 19626 net.cpp:103] Top shape: 50 128 5 4 (128000)
I0205 23:43:34.655623 19626 net.cpp:67] Creating Layer relu2-1
I0205 23:43:34.655643 19626 net.cpp:394] relu2-1 <- conv2-1
I0205 23:43:34.655663 19626 net.cpp:345] relu2-1 -> conv2-1 (in-place)
I0205 23:43:34.655684 19626 net.cpp:96] Setting up relu2-1
I0205 23:43:34.655701 19626 net.cpp:103] Top shape: 50 128 5 4 (128000)
I0205 23:43:34.655720 19626 net.cpp:67] Creating Layer pool2
I0205 23:43:34.655737 19626 net.cpp:394] pool2 <- conv2-1
I0205 23:43:34.655756 19626 net.cpp:356] pool2 -> pool2
I0205 23:43:34.655779 19626 net.cpp:96] Setting up pool2
I0205 23:43:34.655799 19626 net.cpp:103] Top shape: 50 128 5 2 (64000)
I0205 23:43:34.655824 19626 net.cpp:67] Creating Layer fc3
I0205 23:43:34.655843 19626 net.cpp:394] fc3 <- pool2
I0205 23:43:34.655863 19626 net.cpp:356] fc3 -> fc3
I0205 23:43:34.655885 19626 net.cpp:96] Setting up fc3
I0205 23:43:34.672329 19626 net.cpp:103] Top shape: 50 300 1 1 (15000)
I0205 23:43:34.672370 19626 net.cpp:67] Creating Layer relu3
I0205 23:43:34.672389 19626 net.cpp:394] relu3 <- fc3
I0205 23:43:34.672406 19626 net.cpp:345] relu3 -> fc3 (in-place)
I0205 23:43:34.672425 19626 net.cpp:96] Setting up relu3
I0205 23:43:34.672441 19626 net.cpp:103] Top shape: 50 300 1 1 (15000)
I0205 23:43:34.672463 19626 net.cpp:67] Creating Layer drop3
I0205 23:43:34.672480 19626 net.cpp:394] drop3 <- fc3
I0205 23:43:34.672498 19626 net.cpp:345] drop3 -> fc3 (in-place)
I0205 23:43:34.672518 19626 net.cpp:96] Setting up drop3
I0205 23:43:34.672540 19626 net.cpp:103] Top shape: 50 300 1 1 (15000)
I0205 23:43:34.672562 19626 net.cpp:67] Creating Layer fc4
I0205 23:43:34.672577 19626 net.cpp:394] fc4 <- fc3
I0205 23:43:34.672598 19626 net.cpp:356] fc4 -> fc4
I0205 23:43:34.672621 19626 net.cpp:96] Setting up fc4
I0205 23:43:34.676286 19626 net.cpp:103] Top shape: 50 300 1 1 (15000)
I0205 23:43:34.676323 19626 net.cpp:67] Creating Layer relu4
I0205 23:43:34.676342 19626 net.cpp:394] relu4 <- fc4
I0205 23:43:34.676358 19626 net.cpp:345] relu4 -> fc4 (in-place)
I0205 23:43:34.676378 19626 net.cpp:96] Setting up relu4
I0205 23:43:34.676393 19626 net.cpp:103] Top shape: 50 300 1 1 (15000)
I0205 23:43:34.676414 19626 net.cpp:67] Creating Layer drop4
I0205 23:43:34.676429 19626 net.cpp:394] drop4 <- fc4
I0205 23:43:34.676446 19626 net.cpp:345] drop4 -> fc4 (in-place)
I0205 23:43:34.676465 19626 net.cpp:96] Setting up drop4
I0205 23:43:34.676481 19626 net.cpp:103] Top shape: 50 300 1 1 (15000)
I0205 23:43:34.676501 19626 net.cpp:67] Creating Layer fc5
I0205 23:43:34.676517 19626 net.cpp:394] fc5 <- fc4
I0205 23:43:34.676548 19626 net.cpp:356] fc5 -> fc5
I0205 23:43:34.676573 19626 net.cpp:96] Setting up fc5
I0205 23:43:34.682487 19626 net.cpp:103] Top shape: 50 486 1 1 (24300)
I0205 23:43:34.682528 19626 net.cpp:67] Creating Layer fc5_fc5_0_split
I0205 23:43:34.682554 19626 net.cpp:394] fc5_fc5_0_split <- fc5
I0205 23:43:34.682574 19626 net.cpp:356] fc5_fc5_0_split -> fc5_fc5_0_split_0
I0205 23:43:34.682597 19626 net.cpp:356] fc5_fc5_0_split -> fc5_fc5_0_split_1
I0205 23:43:34.682618 19626 net.cpp:356] fc5_fc5_0_split -> fc5_fc5_0_split_2
I0205 23:43:34.682637 19626 net.cpp:96] Setting up fc5_fc5_0_split
I0205 23:43:34.682654 19626 net.cpp:103] Top shape: 50 486 1 1 (24300)
I0205 23:43:34.682668 19626 net.cpp:103] Top shape: 50 486 1 1 (24300)
I0205 23:43:34.682682 19626 net.cpp:103] Top shape: 50 486 1 1 (24300)
I0205 23:43:34.682704 19626 net.cpp:67] Creating Layer accuracy-top1
I0205 23:43:34.682719 19626 net.cpp:394] accuracy-top1 <- fc5_fc5_0_split_0
I0205 23:43:34.682736 19626 net.cpp:394] accuracy-top1 <- label_data_1_split_0
I0205 23:43:34.682767 19626 net.cpp:356] accuracy-top1 -> accuracy-top1
I0205 23:43:34.682807 19626 net.cpp:96] Setting up accuracy-top1
I0205 23:43:34.682831 19626 net.cpp:103] Top shape: 1 1 1 1 (1)
I0205 23:43:34.682852 19626 net.cpp:67] Creating Layer accuracy-top5
I0205 23:43:34.682868 19626 net.cpp:394] accuracy-top5 <- fc5_fc5_0_split_1
I0205 23:43:34.682883 19626 net.cpp:394] accuracy-top5 <- label_data_1_split_1
I0205 23:43:34.682904 19626 net.cpp:356] accuracy-top5 -> accuracy-top5
I0205 23:43:34.682927 19626 net.cpp:96] Setting up accuracy-top5
I0205 23:43:34.682945 19626 net.cpp:103] Top shape: 1 1 1 1 (1)
I0205 23:43:34.682965 19626 net.cpp:67] Creating Layer loss
I0205 23:43:34.682981 19626 net.cpp:394] loss <- fc5_fc5_0_split_2
I0205 23:43:34.682996 19626 net.cpp:394] loss <- label_data_1_split_2
I0205 23:43:34.683018 19626 net.cpp:356] loss -> loss
I0205 23:43:34.683039 19626 net.cpp:96] Setting up loss
I0205 23:43:34.683065 19626 net.cpp:103] Top shape: 1 1 1 1 (1)
I0205 23:43:34.683081 19626 net.cpp:109]     with loss weight 1
I0205 23:43:34.683112 19626 net.cpp:170] loss needs backward computation.
I0205 23:43:34.683127 19626 net.cpp:172] accuracy-top5 does not need backward computation.
I0205 23:43:34.683141 19626 net.cpp:172] accuracy-top1 does not need backward computation.
I0205 23:43:34.683156 19626 net.cpp:170] fc5_fc5_0_split needs backward computation.
…
