…
I0204 22:09:41.398069  2028 net.cpp:275] The NetState phase (0) differed from the phase (1) specified by a rule in layer data
I0204 22:09:41.398113  2028 net.cpp:275] The NetState phase (0) differed from the phase (1) specified by a rule in layer accuracy-top1
I0204 22:09:41.398128  2028 net.cpp:275] The NetState phase (0) differed from the phase (1) specified by a rule in layer accuracy-top5
I0204 22:09:41.398149  2028 net.cpp:39] Initializing net from parameters: 
name: "BUS_RIO"
layers {
  top: "data"
  top: "label"
  name: "data"
  type: HDF5_DATA
  hdf5_data_param {
    source: "/work/rfn216/bus_rio/hdf5_small/train.h5.txt"
    batch_size: 50
  }
  include {
    phase: TRAIN
  }
}
layers {
  bottom: "data"
  top: "conv1-1"
  name: "conv1-1"
  type: CONVOLUTION
  blobs_lr: 1
  blobs_lr: 2
  weight_decay: 1
  weight_decay: 0
  convolution_param {
    num_output: 64
    pad: 1
    weight_filler {
      type: "gaussian"
      std: 0.01
    }
    bias_filler {
      type: "constant"
      value: 0
    }
    kernel_h: 1
    kernel_w: 3
  }
}
layers {
  bottom: "conv1-1"
  top: "conv1-1"
  name: "relu1-1"
  type: RELU
}
layers {
  bottom: "conv1-1"
  top: "pool1"
  name: "pool1"
  type: POOLING
  pooling_param {
    pool: MAX
    kernel_h: 1
    kernel_w: 2
    stride_h: 1
    stride_w: 2
  }
}
layers {
  bottom: "pool1"
  top: "conv2-1"
  name: "conv2-1"
  type: CONVOLUTION
  blobs_lr: 1
  blobs_lr: 2
  weight_decay: 1
  weight_decay: 0
  convolution_param {
    num_output: 128
    pad: 1
    weight_filler {
      type: "gaussian"
      std: 0.01
    }
    bias_filler {
      type: "constant"
      value: 0
    }
    kernel_h: 1
    kernel_w: 3
  }
}
layers {
  bottom: "conv2-1"
  top: "conv2-1"
  name: "relu2-1"
  type: RELU
}
layers {
  bottom: "conv2-1"
  top: "pool2"
  name: "pool2"
  type: POOLING
  pooling_param {
    pool: MAX
    kernel_h: 1
    kernel_w: 2
    stride_h: 1
    stride_w: 2
  }
}
layers {
  bottom: "pool2"
  top: "fc3"
  name: "fc3"
  type: INNER_PRODUCT
  blobs_lr: 1
  blobs_lr: 2
  weight_decay: 1
  weight_decay: 0
  inner_product_param {
    num_output: 300
    weight_filler {
      type: "gaussian"
      std: 0.01
    }
    bias_filler {
      type: "constant"
      value: 1
    }
  }
}
layers {
  bottom: "fc3"
  top: "fc3"
  name: "relu3"
  type: RELU
}
layers {
  bottom: "fc3"
  top: "fc3"
  name: "drop3"
  type: DROPOUT
  dropout_param {
    dropout_ratio: 0.5
  }
}
layers {
  bottom: "fc3"
  top: "fc4"
  name: "fc4"
  type: INNER_PRODUCT
  blobs_lr: 1
  blobs_lr: 2
  weight_decay: 1
  weight_decay: 0
  inner_product_param {
    num_output: 300
    weight_filler {
      type: "gaussian"
      std: 0.01
    }
    bias_filler {
      type: "constant"
      value: 1
    }
  }
}
layers {
  bottom: "fc4"
  top: "fc4"
  name: "relu4"
  type: RELU
}
layers {
  bottom: "fc4"
  top: "fc4"
  name: "drop4"
  type: DROPOUT
  dropout_param {
    dropout_ratio: 0.5
  }
}
layers {
  bottom: "fc4"
  top: "fc5"
  name: "fc5"
  type: INNER_PRODUCT
  blobs_lr: 1
  blobs_lr: 2
  weight_decay: 1
  weight_decay: 0
  inner_product_param {
    num_output: 486
    weight_filler {
      type: "gaussian"
      std: 0.01
    }
    bias_filler {
      type: "constant"
      value: 0
    }
  }
}
layers {
  bottom: "fc5"
  bottom: "label"
  top: "loss"
  name: "loss"
  type: SOFTMAX_LOSS
}
state {
  phase: TRAIN
}
I0204 22:09:41.398447  2028 net.cpp:67] Creating Layer data
I0204 22:09:41.398473  2028 net.cpp:356] data -> data
I0204 22:09:41.398555  2028 net.cpp:356] data -> label
I0204 22:09:41.398586  2028 net.cpp:96] Setting up data
I0204 22:09:41.398633  2028 hdf5_data_layer.cpp:57] Loading filename from /work/rfn216/bus_rio/hdf5_small/train.h5.txt
I0204 22:09:41.740304  2028 hdf5_data_layer.cpp:69] Number of files: 5645
I0204 22:09:41.805323  2028 hdf5_data_layer.cpp:81] output data size: 50,3,1,20
I0204 22:09:41.805362  2028 net.cpp:103] Top shape: 50 3 1 20 (3000)
I0204 22:09:41.805380  2028 net.cpp:103] Top shape: 50 1 1 1 (50)
I0204 22:09:41.805408  2028 net.cpp:67] Creating Layer conv1-1
I0204 22:09:41.805424  2028 net.cpp:394] conv1-1 <- data
I0204 22:09:41.805454  2028 net.cpp:356] conv1-1 -> conv1-1
I0204 22:09:41.805491  2028 net.cpp:96] Setting up conv1-1
I0204 22:09:41.806234  2028 net.cpp:103] Top shape: 50 64 3 20 (192000)
I0204 22:09:41.806287  2028 net.cpp:67] Creating Layer relu1-1
I0204 22:09:41.806303  2028 net.cpp:394] relu1-1 <- conv1-1
I0204 22:09:41.806318  2028 net.cpp:345] relu1-1 -> conv1-1 (in-place)
I0204 22:09:41.806335  2028 net.cpp:96] Setting up relu1-1
I0204 22:09:41.806354  2028 net.cpp:103] Top shape: 50 64 3 20 (192000)
I0204 22:09:41.806368  2028 net.cpp:67] Creating Layer pool1
I0204 22:09:41.806380  2028 net.cpp:394] pool1 <- conv1-1
I0204 22:09:41.806393  2028 net.cpp:356] pool1 -> pool1
I0204 22:09:41.806414  2028 net.cpp:96] Setting up pool1
I0204 22:09:41.806437  2028 net.cpp:103] Top shape: 50 64 3 10 (96000)
I0204 22:09:41.806457  2028 net.cpp:67] Creating Layer conv2-1
I0204 22:09:41.806468  2028 net.cpp:394] conv2-1 <- pool1
I0204 22:09:41.806483  2028 net.cpp:356] conv2-1 -> conv2-1
I0204 22:09:41.806499  2028 net.cpp:96] Setting up conv2-1
I0204 22:09:41.807193  2028 net.cpp:103] Top shape: 50 128 5 10 (320000)
I0204 22:09:41.807217  2028 net.cpp:67] Creating Layer relu2-1
I0204 22:09:41.807230  2028 net.cpp:394] relu2-1 <- conv2-1
I0204 22:09:41.807243  2028 net.cpp:345] relu2-1 -> conv2-1 (in-place)
I0204 22:09:41.807257  2028 net.cpp:96] Setting up relu2-1
I0204 22:09:41.807270  2028 net.cpp:103] Top shape: 50 128 5 10 (320000)
I0204 22:09:41.807282  2028 net.cpp:67] Creating Layer pool2
I0204 22:09:41.807294  2028 net.cpp:394] pool2 <- conv2-1
I0204 22:09:41.807307  2028 net.cpp:356] pool2 -> pool2
I0204 22:09:41.807322  2028 net.cpp:96] Setting up pool2
I0204 22:09:41.807334  2028 net.cpp:103] Top shape: 50 128 5 5 (160000)
I0204 22:09:41.807349  2028 net.cpp:67] Creating Layer fc3
I0204 22:09:41.807361  2028 net.cpp:394] fc3 <- pool2
I0204 22:09:41.807374  2028 net.cpp:356] fc3 -> fc3
I0204 22:09:41.807399  2028 net.cpp:96] Setting up fc3
I0204 22:09:41.835103  2028 net.cpp:103] Top shape: 50 300 1 1 (15000)
I0204 22:09:41.835137  2028 net.cpp:67] Creating Layer relu3
I0204 22:09:41.835150  2028 net.cpp:394] relu3 <- fc3
I0204 22:09:41.835163  2028 net.cpp:345] relu3 -> fc3 (in-place)
I0204 22:09:41.835177  2028 net.cpp:96] Setting up relu3
I0204 22:09:41.835189  2028 net.cpp:103] Top shape: 50 300 1 1 (15000)
I0204 22:09:41.835203  2028 net.cpp:67] Creating Layer drop3
I0204 22:09:41.835214  2028 net.cpp:394] drop3 <- fc3
I0204 22:09:41.835227  2028 net.cpp:345] drop3 -> fc3 (in-place)
I0204 22:09:41.835247  2028 net.cpp:96] Setting up drop3
I0204 22:09:41.835270  2028 net.cpp:103] Top shape: 50 300 1 1 (15000)
I0204 22:09:41.835286  2028 net.cpp:67] Creating Layer fc4
I0204 22:09:41.835299  2028 net.cpp:394] fc4 <- fc3
I0204 22:09:41.835311  2028 net.cpp:356] fc4 -> fc4
I0204 22:09:41.835327  2028 net.cpp:96] Setting up fc4
I0204 22:09:41.837802  2028 net.cpp:103] Top shape: 50 300 1 1 (15000)
I0204 22:09:41.837827  2028 net.cpp:67] Creating Layer relu4
I0204 22:09:41.837839  2028 net.cpp:394] relu4 <- fc4
I0204 22:09:41.837852  2028 net.cpp:345] relu4 -> fc4 (in-place)
I0204 22:09:41.837867  2028 net.cpp:96] Setting up relu4
I0204 22:09:41.837878  2028 net.cpp:103] Top shape: 50 300 1 1 (15000)
I0204 22:09:41.837908  2028 net.cpp:67] Creating Layer drop4
I0204 22:09:41.837945  2028 net.cpp:394] drop4 <- fc4
I0204 22:09:41.837960  2028 net.cpp:345] drop4 -> fc4 (in-place)
I0204 22:09:41.837973  2028 net.cpp:96] Setting up drop4
I0204 22:09:41.837985  2028 net.cpp:103] Top shape: 50 300 1 1 (15000)
I0204 22:09:41.838001  2028 net.cpp:67] Creating Layer fc5
I0204 22:09:41.838011  2028 net.cpp:394] fc5 <- fc4
I0204 22:09:41.838026  2028 net.cpp:356] fc5 -> fc5
I0204 22:09:41.838042  2028 net.cpp:96] Setting up fc5
I0204 22:09:41.842262  2028 net.cpp:103] Top shape: 50 486 1 1 (24300)
I0204 22:09:41.842298  2028 net.cpp:67] Creating Layer loss
I0204 22:09:41.842313  2028 net.cpp:394] loss <- fc5
I0204 22:09:41.842324  2028 net.cpp:394] loss <- label
I0204 22:09:41.842339  2028 net.cpp:356] loss -> loss
I0204 22:09:41.842358  2028 net.cpp:96] Setting up loss
I0204 22:09:41.842385  2028 net.cpp:103] Top shape: 1 1 1 1 (1)
I0204 22:09:41.842397  2028 net.cpp:109]     with loss weight 1
I0204 22:09:41.842445  2028 net.cpp:170] loss needs backward computation.
I0204 22:09:41.842461  2028 net.cpp:170] fc5 needs backward computation.
I0204 22:09:41.842473  2028 net.cpp:170] drop4 needs backward computation.
I0204 22:09:41.842484  2028 net.cpp:170] relu4 needs backward computation.
I0204 22:09:41.842494  2028 net.cpp:170] fc4 needs backward computation.
…
I0204 22:09:41.842667  2028 net.cpp:220] Memory required for data: 5589404
I0204 22:09:41.843601  2028 solver.cpp:151] Creating test net (#0) specified by net file: /home/rfn216/BusRio/train.prototxt
I0204 22:09:41.843662  2028 net.cpp:275] The NetState phase (1) differed from the phase (0) specified by a rule in layer data
I0204 22:09:41.843691  2028 net.cpp:39] Initializing net from parameters: 
name: "BUS_RIO"
layers {
  top: "data"
  top: "label"
  name: "data"
  type: HDF5_DATA
  hdf5_data_param {
    source: "/work/rfn216/bus_rio/hdf5_small/test.h5.txt"
    batch_size: 50
  }
  include {
    phase: TEST
  }
}
layers {
  bottom: "data"
  top: "conv1-1"
  name: "conv1-1"
  type: CONVOLUTION
  blobs_lr: 1
  blobs_lr: 2
  weight_decay: 1
  weight_decay: 0
  convolution_param {
    num_output: 64
    pad: 1
    weight_filler {
      type: "gaussian"
      std: 0.01
    }
    bias_filler {
      type: "constant"
      value: 0
    }
    kernel_h: 1
    kernel_w: 3
  }
}
layers {
  bottom: "conv1-1"
  top: "conv1-1"
  name: "relu1-1"
  type: RELU
}
layers {
  bottom: "conv1-1"
  top: "pool1"
  name: "pool1"
  type: POOLING
  pooling_param {
    pool: MAX
    kernel_h: 1
    kernel_w: 2
    stride_h: 1
    stride_w: 2
  }
}
layers {
  bottom: "pool1"
  top: "conv2-1"
  name: "conv2-1"
  type: CONVOLUTION
  blobs_lr: 1
  blobs_lr: 2
  weight_decay: 1
  weight_decay: 0
  convolution_param {
    num_output: 128
    pad: 1
    weight_filler {
      type: "gaussian"
      std: 0.01
    }
    bias_filler {
      type: "constant"
      value: 0
    }
    kernel_h: 1
    kernel_w: 3
  }
}
layers {
  bottom: "conv2-1"
  top: "conv2-1"
  name: "relu2-1"
  type: RELU
}
layers {
  bottom: "conv2-1"
  top: "pool2"
  name: "pool2"
  type: POOLING
  pooling_param {
    pool: MAX
    kernel_h: 1
    kernel_w: 2
    stride_h: 1
    stride_w: 2
  }
}
layers {
  bottom: "pool2"
  top: "fc3"
  name: "fc3"
  type: INNER_PRODUCT
  blobs_lr: 1
  blobs_lr: 2
  weight_decay: 1
  weight_decay: 0
  inner_product_param {
    num_output: 300
    weight_filler {
      type: "gaussian"
      std: 0.01
    }
    bias_filler {
      type: "constant"
      value: 1
    }
  }
}
layers {
  bottom: "fc3"
  top: "fc3"
  name: "relu3"
  type: RELU
}
layers {
  bottom: "fc3"
  top: "fc3"
  name: "drop3"
  type: DROPOUT
  dropout_param {
    dropout_ratio: 0.5
  }
}
layers {
  bottom: "fc3"
  top: "fc4"
  name: "fc4"
  type: INNER_PRODUCT
  blobs_lr: 1
  blobs_lr: 2
  weight_decay: 1
  weight_decay: 0
  inner_product_param {
    num_output: 300
    weight_filler {
      type: "gaussian"
      std: 0.01
    }
    bias_filler {
      type: "constant"
      value: 1
    }
  }
}
layers {
  bottom: "fc4"
  top: "fc4"
  name: "relu4"
  type: RELU
}
layers {
  bottom: "fc4"
  top: "fc4"
  name: "drop4"
  type: DROPOUT
  dropout_param {
    dropout_ratio: 0.5
  }
}
layers {
  bottom: "fc4"
  top: "fc5"
  name: "fc5"
  type: INNER_PRODUCT
  blobs_lr: 1
  blobs_lr: 2
  weight_decay: 1
  weight_decay: 0
  inner_product_param {
    num_output: 486
    weight_filler {
      type: "gaussian"
      std: 0.01
    }
    bias_filler {
      type: "constant"
      value: 0
    }
  }
}
layers {
  bottom: "fc5"
  bottom: "label"
  top: "accuracy-top1"
  name: "accuracy-top1"
  type: ACCURACY
  include {
    phase: TEST
  }
}
layers {
  bottom: "fc5"
  bottom: "label"
  top: "accuracy-top5"
  name: "accuracy-top5"
  type: ACCURACY
  accuracy_param {
    top_k: 5
  }
  include {
    phase: TEST
  }
}
layers {
  bottom: "fc5"
  bottom: "label"
  top: "loss"
  name: "loss"
  type: SOFTMAX_LOSS
}
state {
  phase: TEST
}
I0204 22:09:41.844033  2028 net.cpp:67] Creating Layer data
I0204 22:09:41.844054  2028 net.cpp:356] data -> data
I0204 22:09:41.844074  2028 net.cpp:356] data -> label
I0204 22:09:41.844090  2028 net.cpp:96] Setting up data
I0204 22:09:41.844102  2028 hdf5_data_layer.cpp:57] Loading filename from /work/rfn216/bus_rio/hdf5_small/test.h5.txt
I0204 22:09:41.937978  2028 hdf5_data_layer.cpp:69] Number of files: 1000
I0204 22:09:41.993805  2028 hdf5_data_layer.cpp:81] output data size: 50,3,1,20
I0204 22:09:41.993821  2028 net.cpp:103] Top shape: 50 3 1 20 (3000)
I0204 22:09:41.993834  2028 net.cpp:103] Top shape: 50 1 1 1 (50)
I0204 22:09:41.993852  2028 net.cpp:67] Creating Layer label_data_1_split
I0204 22:09:41.993865  2028 net.cpp:394] label_data_1_split <- label
I0204 22:09:41.993880  2028 net.cpp:356] label_data_1_split -> label_data_1_split_0
I0204 22:09:41.993898  2028 net.cpp:356] label_data_1_split -> label_data_1_split_1
I0204 22:09:41.993914  2028 net.cpp:356] label_data_1_split -> label_data_1_split_2
I0204 22:09:41.993929  2028 net.cpp:96] Setting up label_data_1_split
I0204 22:09:41.993947  2028 net.cpp:103] Top shape: 50 1 1 1 (50)
I0204 22:09:41.993958  2028 net.cpp:103] Top shape: 50 1 1 1 (50)
I0204 22:09:41.993969  2028 net.cpp:103] Top shape: 50 1 1 1 (50)
I0204 22:09:41.993985  2028 net.cpp:67] Creating Layer conv1-1
I0204 22:09:41.993998  2028 net.cpp:394] conv1-1 <- data
I0204 22:09:41.994011  2028 net.cpp:356] conv1-1 -> conv1-1
I0204 22:09:41.994027  2028 net.cpp:96] Setting up conv1-1
I0204 22:09:41.994068  2028 net.cpp:103] Top shape: 50 64 3 20 (192000)
I0204 22:09:41.994091  2028 net.cpp:67] Creating Layer relu1-1
I0204 22:09:41.994104  2028 net.cpp:394] relu1-1 <- conv1-1
I0204 22:09:41.994117  2028 net.cpp:345] relu1-1 -> conv1-1 (in-place)
I0204 22:09:41.994132  2028 net.cpp:96] Setting up relu1-1
I0204 22:09:41.994143  2028 net.cpp:103] Top shape: 50 64 3 20 (192000)
I0204 22:09:41.994158  2028 net.cpp:67] Creating Layer pool1
I0204 22:09:41.994169  2028 net.cpp:394] pool1 <- conv1-1
I0204 22:09:41.994191  2028 net.cpp:356] pool1 -> pool1
I0204 22:09:41.994226  2028 net.cpp:96] Setting up pool1
I0204 22:09:41.994241  2028 net.cpp:103] Top shape: 50 64 3 10 (96000)
I0204 22:09:41.994256  2028 net.cpp:67] Creating Layer conv2-1
I0204 22:09:41.994267  2028 net.cpp:394] conv2-1 <- pool1
I0204 22:09:41.994282  2028 net.cpp:356] conv2-1 -> conv2-1
I0204 22:09:41.994297  2028 net.cpp:96] Setting up conv2-1
I0204 22:09:41.995002  2028 net.cpp:103] Top shape: 50 128 5 10 (320000)
I0204 22:09:41.995028  2028 net.cpp:67] Creating Layer relu2-1
I0204 22:09:41.995040  2028 net.cpp:394] relu2-1 <- conv2-1
I0204 22:09:41.995054  2028 net.cpp:345] relu2-1 -> conv2-1 (in-place)
I0204 22:09:41.995067  2028 net.cpp:96] Setting up relu2-1
I0204 22:09:41.995079  2028 net.cpp:103] Top shape: 50 128 5 10 (320000)
I0204 22:09:41.995092  2028 net.cpp:67] Creating Layer pool2
I0204 22:09:41.995103  2028 net.cpp:394] pool2 <- conv2-1
I0204 22:09:41.995116  2028 net.cpp:356] pool2 -> pool2
I0204 22:09:41.995131  2028 net.cpp:96] Setting up pool2
I0204 22:09:41.995146  2028 net.cpp:103] Top shape: 50 128 5 5 (160000)
I0204 22:09:41.995160  2028 net.cpp:67] Creating Layer fc3
I0204 22:09:41.995172  2028 net.cpp:394] fc3 <- pool2
I0204 22:09:41.995185  2028 net.cpp:356] fc3 -> fc3
I0204 22:09:41.995200  2028 net.cpp:96] Setting up fc3
I0204 22:09:42.022577  2028 net.cpp:103] Top shape: 50 300 1 1 (15000)
I0204 22:09:42.022608  2028 net.cpp:67] Creating Layer relu3
I0204 22:09:42.022621  2028 net.cpp:394] relu3 <- fc3
I0204 22:09:42.022634  2028 net.cpp:345] relu3 -> fc3 (in-place)
I0204 22:09:42.022650  2028 net.cpp:96] Setting up relu3
I0204 22:09:42.022660  2028 net.cpp:103] Top shape: 50 300 1 1 (15000)
I0204 22:09:42.022673  2028 net.cpp:67] Creating Layer drop3
I0204 22:09:42.022686  2028 net.cpp:394] drop3 <- fc3
I0204 22:09:42.022697  2028 net.cpp:345] drop3 -> fc3 (in-place)
I0204 22:09:42.022714  2028 net.cpp:96] Setting up drop3
I0204 22:09:42.022728  2028 net.cpp:103] Top shape: 50 300 1 1 (15000)
I0204 22:09:42.022742  2028 net.cpp:67] Creating Layer fc4
I0204 22:09:42.022754  2028 net.cpp:394] fc4 <- fc3
I0204 22:09:42.022766  2028 net.cpp:356] fc4 -> fc4
I0204 22:09:42.022781  2028 net.cpp:96] Setting up fc4
I0204 22:09:42.025266  2028 net.cpp:103] Top shape: 50 300 1 1 (15000)
I0204 22:09:42.025290  2028 net.cpp:67] Creating Layer relu4
I0204 22:09:42.025302  2028 net.cpp:394] relu4 <- fc4
I0204 22:09:42.025315  2028 net.cpp:345] relu4 -> fc4 (in-place)
I0204 22:09:42.025328  2028 net.cpp:96] Setting up relu4
I0204 22:09:42.025339  2028 net.cpp:103] Top shape: 50 300 1 1 (15000)
I0204 22:09:42.025352  2028 net.cpp:67] Creating Layer drop4
I0204 22:09:42.025363  2028 net.cpp:394] drop4 <- fc4
I0204 22:09:42.025377  2028 net.cpp:345] drop4 -> fc4 (in-place)
I0204 22:09:42.025389  2028 net.cpp:96] Setting up drop4
I0204 22:09:42.025401  2028 net.cpp:103] Top shape: 50 300 1 1 (15000)
I0204 22:09:42.025415  2028 net.cpp:67] Creating Layer fc5
I0204 22:09:42.025426  2028 net.cpp:394] fc5 <- fc4
I0204 22:09:42.025439  2028 net.cpp:356] fc5 -> fc5
I0204 22:09:42.025454  2028 net.cpp:96] Setting up fc5
I0204 22:09:42.029670  2028 net.cpp:103] Top shape: 50 486 1 1 (24300)
I0204 22:09:42.029698  2028 net.cpp:67] Creating Layer fc5_fc5_0_split
I0204 22:09:42.029721  2028 net.cpp:394] fc5_fc5_0_split <- fc5
I0204 22:09:42.029734  2028 net.cpp:356] fc5_fc5_0_split -> fc5_fc5_0_split_0
I0204 22:09:42.029750  2028 net.cpp:356] fc5_fc5_0_split -> fc5_fc5_0_split_1
I0204 22:09:42.029765  2028 net.cpp:356] fc5_fc5_0_split -> fc5_fc5_0_split_2
I0204 22:09:42.029779  2028 net.cpp:96] Setting up fc5_fc5_0_split
I0204 22:09:42.029791  2028 net.cpp:103] Top shape: 50 486 1 1 (24300)
I0204 22:09:42.029803  2028 net.cpp:103] Top shape: 50 486 1 1 (24300)
I0204 22:09:42.029813  2028 net.cpp:103] Top shape: 50 486 1 1 (24300)
I0204 22:09:42.029831  2028 net.cpp:67] Creating Layer accuracy-top1
I0204 22:09:42.029844  2028 net.cpp:394] accuracy-top1 <- fc5_fc5_0_split_0
I0204 22:09:42.029855  2028 net.cpp:394] accuracy-top1 <- label_data_1_split_0
I0204 22:09:42.029885  2028 net.cpp:356] accuracy-top1 -> accuracy-top1
I0204 22:09:42.029917  2028 net.cpp:96] Setting up accuracy-top1
I0204 22:09:42.029932  2028 net.cpp:103] Top shape: 1 1 1 1 (1)
I0204 22:09:42.029950  2028 net.cpp:67] Creating Layer accuracy-top5
I0204 22:09:42.029963  2028 net.cpp:394] accuracy-top5 <- fc5_fc5_0_split_1
I0204 22:09:42.029974  2028 net.cpp:394] accuracy-top5 <- label_data_1_split_1
I0204 22:09:42.029988  2028 net.cpp:356] accuracy-top5 -> accuracy-top5
I0204 22:09:42.030002  2028 net.cpp:96] Setting up accuracy-top5
I0204 22:09:42.030015  2028 net.cpp:103] Top shape: 1 1 1 1 (1)
I0204 22:09:42.030032  2028 net.cpp:67] Creating Layer loss
I0204 22:09:42.030043  2028 net.cpp:394] loss <- fc5_fc5_0_split_2
I0204 22:09:42.030055  2028 net.cpp:394] loss <- label_data_1_split_2
I0204 22:09:42.030068  2028 net.cpp:356] loss -> loss
I0204 22:09:42.030082  2028 net.cpp:96] Setting up loss
I0204 22:09:42.030102  2028 net.cpp:103] Top shape: 1 1 1 1 (1)
I0204 22:09:42.030112  2028 net.cpp:109]     with loss weight 1
I0204 22:09:42.030134  2028 net.cpp:170] loss needs backward computation.
I0204 22:09:42.030145  2028 net.cpp:172] accuracy-top5 does not need backward computation.
I0204 22:09:42.030156  2028 net.cpp:172] accuracy-top1 does not need backward computation.
I0204 22:09:42.030166  2028 net.cpp:170] fc5_fc5_0_split needs backward computation.
…
